gcn_income.pth (torch, 6193 bytes, 3 tensors)

bias f4 [16]
00000000: 5e6c 3d3c 320d 86bc a98a 2bbc 9fff 363d
00000010: dabf 56bc 8e1e 28bc ffaa 62bc 2a7c 863c
00000020: 7a20 8b3c 4b52 6c3c 619e 523c bbb5 8ebc
00000030: ed5f 4a3c 57f5 6d3c 8cf8 6cbc dce1 833c
0.011561481 -0.016363714 -0.010470071 0.044677373 -0.013107264 -0.010261191 -0.013834714 0.016416628
0.01698326 0.014423917 0.012855143 -0.01742064 0.012351972 0.014523826 -0.014463555 0.01609891

weight f4 [16, 14]
00000000: fc4e 943e 5091 58be 7378 b7bd 04d3 8d3e
00000010: 032b 3d3f f5b7 4a3e 4dcb 5fbd c991 edbe
00000020: 1320 ca3e 285f 8bbd bdab dabd ca7f 0c3e
00000030: bac6 b8bd e894 a43e 6568 343e 079d d2be
00000040: dbff b2be 76ab 40bd ded8 0cbe 9def 363e
00000050: de15 05be 1a38 023e dea4 bdbe 5d71 b3be
00000060: a924 b2be b82f a13e e367 463e 6e1e 3ebe
00000070: 209e 93bd 344f ad3d 942c ee3c 115e 26be
00000080: 4026 3cbe 77f3 023f 7447 023c 30d2 c63d
00000090: e1ef de3e 7aec b33e 6a4a a5be 9119 b73e
000000a0: 3b3b 01be 511c a5be 6f3c 093e 560c 4ebe
000000b0: e107 b9bd 7d46 13bd c093 01bf 45d0 ff3e
000000c0: 96ce 5e3b 49b4 153f b38f 4abe c9db 87bd
000000d0: 1666 f8be ff6a 8cbd b51a ffbe 9088 1ebe
000000e0: 32e3 3fbe b35b 443d b909 b63e f578 123e
000000f0: 6200 10bf e57f d83c 2ba7 56be cc95 043f
00000100: f2f3 2ebd 6c83 7d3d ad00 99bd 9872 a4be
00000110: 0368 3f3c abe8 353e 2f7d 93bd fc04 99be
00000120: 0696 44be aa47 253d c509 33bf 71f9 713c
00000130: 7119 57ba 51b9 fe3c c9dd 133e 52a1 06be
00000140: 3fe7 1bbe c23a 4ebe 605f 1ebf 567a 903e
00000150: 6d72 ccba adbe 8f3e b7af 89bd 2ba0 cbbd
00000160: 0257 3ebf aaba ad3c c43f 0d3e 12ad a1be
00000170: bf2c e1bd f7c4 6b3e 638e 3f3e 7662 f83d
00000180: 96a5 85be 1b58 8ebd 5df3 803c 2327 94bd
00000190: ccab 373e 71a2 0dbe 5ef3 b73d 7ea8 cdbd
000001a0: 147a 76be 341d 5ebe 088d 393e de98 503e
000001b0: 3c9d df3e 7338 82be c21b 4c3e 092c adbd
000001c0: 91dd 15be 8ae6 1ebe 51b7 d53d 6fd4 6f3d
000001d0: fa11 b33d 0a25 ffbe 01e9 83be 0e75 a23e
000001e0: 4691 fbbd 7aec 76bd b646 cdbd ca4d 33be
000001f0: d764 5abe 0a64 5bbe 8174 b73e b6eb 323e
00000200: 0f53 1abe ec98 29be 611d 253f 48ec e63d
00000210: 3241 8e3e 0e5f c63b 6bc5 2e3e 4a62 e7ba
00000220: 7316 40be df1a c6be 3461 ed3e b52e 94bc
00000230: dcdd 8c3e d5b0 df3d 13d4 c8be b103 6bbe
00000240: 74c8 0a3f 60f6 a7be f00a a2be a178 4a3c
00000250: e2f3 bebc bf66 edbd 5312 863e 98fa 0a3e
00000260: 7c55 8d3d d626 e43e 4055 e83d a0dd 13bd
00000270: 2e00 abbd 2a47 bfbe ec54 2abc efaf cd3d
00000280: c34a 42be 2d54 d53e 60fc 503e 7fe8 8f3d
00000290: 7813 26be 23ed 3dbe 812e 09be 569d 923e
000002a0: a622 213e 52c7 cabd 06a3 da3e 07b2 70bc
000002b0: 4fa8 463f dc6a 0dbe cfc0 223e 4266 d03d
000002c0: 6f2e 88be 34d9 a93e 8e5a c63d b9a6 95be
000002d0: 81f0 0f3e 16e1 9dbe 7d97 04be 070b 4cbe
000002e0: ca10 923e d789 b1bd b916 8e3e f782 023c
000002f0: 5cbd 763d e886 d0be 5041 f33d 21c0 5e3e
00000300: bcbf 89be d347 ce3e c81a 82bd 09ed f3bd
00000310: 90a8 eabe b5cd 973e 9f1b 9b3d 8899 bb3e
00000320: fa59 b9be 4c0e ef3e daa4 92bd d597 5cbe
00000330: 2796 e83d 507c 8fbd 7f28 fdbd c3fa 83be
00000340: bb8f 57be 2aa5 8f3d 5ae1 843e eea4 72be
00000350: 5d7c 553e 7d45 2c3d 9eed 2d3f 1ff5 ad3d
00000360: 7b14 40be 9df0 8f3e a469 f5be a416 933e
00000370: 30f9 e63d e67f 803e d741 95bc 2086 9b3e
0.2896651 -0.21149182 -0.08958521 0.27700055 0.73893756 0.19796737 -0.054637242 -0.46400288
0.39477596 -0.06805259 -0.10677288 0.13720623 -0.09022279 0.32144856 0.17617948 -0.41135427
-0.34960827 -0.047038518 -0.13754603 0.17864843 -0.12996623 0.12716714 -0.37039846 -0.35047427
-0.34793594 0.3148172 0.19375567 -0.18566296 -0.07207894 0.084623724 0.02907399 -0.16246821
-0.18373966 0.5115275 0.007951606 0.09708059 0.43542388 0.35141355 -0.32283336 0.35761693
-0.12620251 -0.32248166 0.1340196 -0.20121893 -0.09034706 -0.035955895 -0.50616074 0.49963585
0.0033997647 0.5847822 -0.1978138 -0.066337176 -0.48515385 -0.068563454 -0.49825063 -0.15481782
-0.18739012 0.047939014 0.35554293 0.14303954 -0.56250584 0.026428172 -0.20962207 0.5179107
-0.042713113 0.06189291 -0.07470832 -0.32118678 0.011682513 0.17764537 -0.07201611 -0.29886615
-0.19197854 0.040351547 -0.6993678 0.014768944 -0.000820539 0.031094225 0.14440073 -0.13147476
-0.15224932 -0.20139602 -0.6186428 0.28218335 -0.0015598066 0.28075162 -0.06722968 -0.09942659
-0.74351513 0.021207172 0.13793856 -0.31577355 -0.10994863 0.23024355 0.1870666 0.12128155
-0.26102895 -0.069503985 0.015741045 -0.07234027 0.17936629 -0.13831498 0.089819655 -0.10041903
-0.24070007 -0.21690828 0.18120205 0.20370814 0.43674648 -0.25433692 0.19932464 -0.08455665
-0.14635302 -0.15517631 0.104353555 0.0585522 0.08743663 -0.49832946 -0.25763705 0.3172993
-0.12283568 -0.060284115 -0.10023253 -0.17510143 -0.2132753 -0.2142488 0.35831073 0.17472729
-0.15070747 -0.16562241 0.64497954 0.11275536 0.27784115 0.006053812 0.17067496 -0.0017653194
-0.18758564 -0.38692376 0.46363223 -0.018088678 0.27513015 0.109224 -0.392243 -0.22950627
0.5421212 -0.32805157 -0.3164897 0.012357862 -0.023309652 -0.11591863 0.26185855 0.13572156
0.069010705 0.4456088 0.11344385 -0.03610003 -0.08349644 -0.3735898 -0.0103962235 0.10043322
-0.18973832 0.41665784 0.20408773 0.07026767 -0.16218364 -0.18547492 -0.13396646 0.28635663
0.15735874 -0.099012986 0.42702502 -0.0146908825 0.7760057 -0.13810295 0.15893863 0.10175754
-0.26597926 0.33173525 0.09685241 -0.29228762 0.14056589 -0.3083579 -0.12948413 -0.19926082
0.28528434 -0.08668869 0.2775171 0.007965795 0.06023918 -0.40727925 0.11877692 0.21752979
-0.26904094 0.40289173 -0.06352764 -0.11910445 -0.45831728 0.2964913 0.07573628 0.36640573
-0.3620146 0.46690595 -0.07160349 -0.21542294 0.11356764 -0.070061326 -0.1236124 -0.25777254
-0.21050923 0.070139244 0.2595318 -0.23695728 0.20848222 0.042058457 0.679407 0.08494019
-0.18757813 0.2811326 -0.4793216 0.2872821 0.112779975 0.2509758 -0.018219871 0.30375767

weight f4 [1, 16]
00000000: f315 d83e 0a11 c6be 4266 99be e20d 8cbe
00000010: ff9a 29bf f88b c4be 71c3 96be 691b 113f
00000020: e655 da3e f297 263f f424 603f f3a2 1ebf
00000030: 880e f53e 1ffe 933e ef01 24bf 09ba c83e
0.42204246 -0.38684875 -0.2996083 -0.27354342 -0.6625213 -0.38388038 -0.29445985 0.5668245
0.4264366 0.650756 0.87556386 -0.6196739 0.4786265 0.28904817 -0.6406545 0.39204434
