gcn_fair_pokec1.pth (torch, 73375 bytes, 3 tensors)

bias f4 [62]
-0.029453622 -0.027749512 0.027160969 -0.029747812 0.036351033 -0.031264905 0.026081672 0.035217594
-0.029662477 0.030560404 -0.027683407 -0.029370636 0.02947513 -0.027574735 0.029311934 -0.032320406
0.029905224 -0.028001191 -0.026758699 0.029170362 0.023901543 0.026299689 -0.029785547 0.03857009
-0.029264245 -0.032761935 -0.027965145 0.029150426 0.021513335 0.029310655 0.029327005 -0.035071045
-0.027212907 0.030119084 0.027800985 0.026803337 0.027790666 -0.030142596 0.030412206 0.027929135
-0.027713004 -0.030783024 -0.028239094 0.027722927 0.037498206 0.02769097 0.015094625 -0.029171329
-0.02765736 -0.023427052 -0.0272012 -0.022994597 -0.027350297 0.029258735 -0.028087543 -0.029334255
0.030450923 -0.031722426 0.029217135 -0.03338183 -0.02923463 -0.02691681
00000000: b948 f1bc f252 e3bc ae80 de3c afb1 f3bc
00000010: d2e4 143d a10f 00bd 3ba9 d53c 5340 103d
00000020: b9fe f2bc d059 fa3c 50c8 e2bc b09a f0bc
00000030: d475 f13c 69e4 e1bc 951f f03c 6762 04bd
00000040: cdfb f43c c162 e5bc 0f35 dbbc aff6 ee3c
00000050: 2bcd c33c 7272 d73c d200 f4bc acfb 1d3d
00000060: 92bb efbc 6131 06bd 2917 e5bc e0cc ee3c
00000070: bc3c b03c e61c f03c 303f f03c a8a6 0fbd
00000080: 9aed debc 4cbc f63c e4be e33c ac92 db3c
00000090: 40a9 e33c 9bed f6bc 0523 f93c a4cb e43c
000000a0: 6206 e3bc ae2c fcbc ac55 e7bc 311b e33c
000000b0: b897 193d 2cd8 e23c 724f 773c b6f8 eebc
000000c0: b091 e2bc 17ea bfbc 0dd5 debc 2a5f bcbc
000000d0: bb0d e0bc 04b0 ef3c d917 e6bc 644e f0bc
000000e0: 3774 f93c 60ef 01bd c658 ef3c 63bb 08bd
000000f0: 767d efbc a480 dcbc

weight f4 [62, 276]
0.096477374 -0.089118175 0.06281993 -0.007075829 -0.10971717 -0.14684679 -0.04424199 0.029751949
0.0691496 0.052352306 -0.0006120979 0.012798026 -0.058239195 -0.008929633 -0.15997934 0.07113871
-0.038464233 -0.018995661 0.060147036 -0.11489647 -0.055518214 -0.14171846 -0.1075316 0.05146117
0.011827797 -0.11454183 0.029538322 -0.029889222 -0.0800714 -0.10815596 -0.0035681664 -0.08405644
0.07486214 -0.03771969 0.07311826 0.06577529 -0.1382267 -0.13808914 0.03934898 -0.06701767
-0.023632184 0.08741343 -0.0367418 -0.07420778 -0.064096026 -0.12969963 -0.023203691 -0.002467472
-0.06955805 -0.10208618 -0.120945156 -0.068666436 -0.14261323 0.10218595 -0.039779868 -0.083073
-0.010655061 -0.04656916 0.08855794 0.05218583 -0.0078039747 -0.15663488 0.003945057 0.07333829
-0.09627025 -0.04337245 -0.07872836 -0.08737799 0.039341018 -0.03612608 0.011462339 -0.10884518
0.09557424 -0.13124524 -0.128927 0.07471253 -0.05665294 0.048903372 -0.09954022 0.07686319
-0.04452721 0.038681682 -0.16384944 -0.12609924 -0.15116645 -0.016194778 -0.02205843 0.05381784
0.059187174 0.045979183 -0.018975703 -0.15458962 -0.1386861 0.060062677 0.09475035 -0.049263317
0.05717502 -0.066591606 -0.086163975 0.07105258 -0.14128354 -0.13092063 0.05595643 -0.00869087
0.06626695 -0.004472291 0.06539376 0.05915066 0.016597679 0.02838968 0.018230105 -0.11257152
-0.0008471174 0.026305944 0.051370442 -0.005311367 -0.12999958 -0.08040824 -0.03200519 -0.13836336
-0.035557188 -0.0059972852 0.03514119 -0.017011411 0.014145168 0.0046214233 -0.1301049 0.05771849
-0.14188729 0.08569467 0.0005084731 -0.037807476 0.04637661 -0.033168174 0.058050547 0.075119376
-0.0882179 0.027419154 0.05196977 -0.10358894 0.09344822 -0.10431202 -0.015375823 -0.124917634
-0.16061836 0.07195739 0.08278857 -0.045387235 -0.16010036 -0.07990279 0.09570046 -0.15457298
-0.11802309 -0.04970128 0.011839441 -0.1308272 -0.025532793 -0.14971523 0.09007141 -0.13985166
0.05814099 -0.01061388 -0.14297895 -0.07674575 -0.013363546 0.0543303 -0.08255285 -0.124240145
-0.00203127 -0.069105506 -0.12241112 0.09365654 -0.060448594 -0.011877016 -0.12886459 0.08003841
0.08767724 0.022814693 0.035208043 -0.028136987 0.07379708 0.0061719874 0.05440252 0.01260322
0.0029551364 -0.034770917 -0.14108865 0.099920504 0.0063064517 -0.058595393 0.016332844 -0.13590443
0.049326275 -0.018627346 -0.024138715 -0.09829251 0.006478649 -0.15504238 -0.0009816554 -0.06169895
0.05170948 0.027933503 -0.14462925 -0.16499262 -0.031980496 -0.08311029 0.09320543 0.09135002
0.008235909 0.023332942 0.0908508 0.033078544 -0.1372901 -0.07879751 0.043720677 0.04866065
0.016256303 -0.14669721 -0.049287852 0.0063892296 0.023693241 -0.055200264 -0.01730599 -0.09123482
0.08062913 0.024374666 -0.13445391 -0.15823318 -0.0011243445 -0.14060985 0.021764297 0.04127009
0.07115661 -0.07196388 0.07351618 -0.081796095 -0.122316755 0.003631255 0.005587552 7.641775e-05
-0.012356127 -0.0046924287 0.08984698 -0.08418968 -0.03442313 0.038634162 0.06822731 -0.056161627
0.05880877 -0.04983207 0.096093796 0.06728547 -0.074638076 -0.030255277 -0.033128068 0.069135405
00000000: ee95 c53d 9783 b6bd bca7 803d 5bdc e7bb
00000010: 65b3 e0bd 015f 16be 1737 35bd 5cba f33c
00000020: 4e9e 8d3d 5f6f 563d 3275 20ba d0ae 513c
00000030: 398c 6ebd 984d 12bc a0d1 23be 2cb1 913d
00000040: ac8c 1dbd ca9c 9bbc bd5c 763d d74e ebbd
00000050: 1167 63bd a51e 11be 8739 dcbd f3c8 523d
00000060: 60c9 413c e894 eabd 5afa f13c 3eda f4bc
00000070: 79fc a3bd df80 ddbd e6d7 69bb c825 acbd
00000080: 5251 993d f67f 1abd 07bf 953d 32b5 863d
00000090: 4d8b 0dbe 3d67 0dbe 652c 213d 8f40 89bd
000000a0: 4898 c1bc d005 b33d 927e 16bd 40fa 97bd
000000b0: c744 83bd fbcf 04be ab15 bebc 50b5 21bb
000000c0: 7374 8ebd 8f12 d1bd 18b2 f7bd fda0 8cbd
000000d0: 3409 12be de46 d13d 37f0 22bd 2d22 aabd
000000e0: 9192 2ebc 4ebf 3ebd de5d b53d cfc0 553d
000000f0: 7cb8 ffbb e564 20be 8945 813b 6332 963d
00000100: 5629 c5bd 4fa7 31bd 563c a1bd 3bf3 b2bd
00000110: 0c24 213d f1f8 13bd 89cc 3b3c 39ea debd
00000120: 6dbc c33d 2765 06be 7105 04be e202 993d
00000130: ea0c 68bd e74e 483d bedb cbbd 736a 9d3d
00000140: 2a62 36bd af70 1e3d 26c8 27be 2920 01be
00000150: 61cb 1abe e9aa 84bc e1b3 b4bc 1870 5c3d
00000160: 406e 723d ab54 3c3d ef72 9bbc be4c 1ebe
00000170: bb03 0ebe 4804 763d 790c c23d 55c8 49bd
00000180: 5b30 6a3d 2e61 88bd bd76 b0bd 0484 913d
00000190: a2ac 10be 0f10 06be 9232 653d 2764 0ebc
000001a0: f7b6 873d 4c8c 92bb 2aed 853d f647 723d
000001b0: dbf7 873c 7991 e83c 4d57 953c e68b e6bd
000001c0: 1611 5eba 907f d73c d069 523d fa0a aebb
000001d0: 9c1e 05be 13ad a4bd e017 03bd 20af 0dbe
000001e0: 6aa4 11bd e084 c4bb 35f0 0f3d 845b 8bbc
000001f0: 22c1 673c 4f6f 973b 383a 05be 396a 6c3d
00000200: e74a 11be b080 af3d 0d4b 053a 03dc 1abd
00000210: 66f5 3d3d 5adb 07bd 69c6 6d3d 30d8 993d
00000220: 96ab b4bd 229e e03c 41de 543d 7026 d4bd
00000230: c861 bf3d 8aa1 d5bd e0ea 7bbc d1d4 ffbd
00000240: 2479 24be 655e 933d 0e8d a93d f7e7 39bd
00000250: 59f1 23be 13a4 a3bd 9afe c33d 6148 1ebe
00000260: 17b6 f1bd 9293 4bbd 37fa 413c 91f7 05be
00000270: 262a d1bc f34e 19be 5c77 b83d 4635 0fbe
00000280: 3f25 6e3d d7e5 2dbc 1369 12be e02c 9dbd
00000290: c6f2 5abc 7389 5e3d 7811 a9bd 9e71 febd
000002a0: 0e1f 05bb 3087 8dbd aeb2 fabd 00cf bf3d
000002b0: f298 77bd d197 42bc 14f5 03be 2eeb a33d
000002c0: 2090 b33d e1e5 ba3c 4f36 103d 8a7f e6bc
000002d0: ec22 973d 623e ca3b 2dd5 5e3d bc7d 4e3c
000002e0: f6aa 413b f36b 0ebd 8b79 10be 1fa3 cc3d
000002f0: 5aa6 ce3b b901 70bd 75cc 853c 882a 0bbe
00000300: 590a 4a3d 6098 98bc 8ebe c5bc 954d c9bd
00000310: d94a d43b 6ec3 1ebe e4aa 80ba 0ab8 7cbd
00000320: 52cd 533d cdd4 e43c b119 14be d3f3 28be
00000330: fbfd 02bd ba35 aabd 7de2 be3d b815 bb3d
00000340: e8ef 063c ba24 bf3c fc0f ba3d 5e7d 073d
00000350: c795 0cbe 9760 a1bd 7414 333d 6450 473d
00000360: f02b 853c cb37 16be 0fe2 49bd be5c d13b
00000370: 5418 c23c ac19 62bd 4bc5 8dbc 52d9 babd
00000380: e320 a53d 61ad c73c 49ae 09be e107 22be
00000390: be5e 93ba 07fc 0fbe 0a4b b23c d30a 293d
000003a0: 8fba 913d cc61 93bd a78f 963d b684 a7bd
000003b0: 3581 fabd 59fa 6d3b c917 b73b 7842 a038
000003c0: 5a71 4abc f2c2 99bb b201 b83d a46b acbd
000003d0: 45ff 0cbd db3e 1e3d c3ba 8b3d bc09 66bd
000003e0: 77e1 703d b61c 4cbd d3cc c43d f7cc 893d
000003f0: d9db 98bd ead9 f7bc 4cb1 07bd dd96 8d3d

weight f4 [1, 62]
-0.22653449 -0.163807 0.09551021 -0.1681973 0.04986427 -0.10266932 0.045541916 0.052130237
-0.19932355 0.121797934 -0.16887307 -0.2344963 0.21147476 -0.14600275 0.24424458 -0.06951679
0.15110509 -0.25560158 -0.064053394 0.18880638 0.015078974 0.051923532 -0.17292729 0.040410306
-0.27690664 -0.067944326 -0.26026192 0.3031441 0.002901094 0.30184317 0.25158012 -0.050408028
-0.09525378 0.13691127 0.20116998 0.071866915 0.18261531 -0.13297537 0.1166545 0.24707666
-0.15329908 -0.120070346 -0.28996265 0.1333906 0.04350902 0.17039767 0.0049525574 -0.2935477
-0.13696994 -0.013250834 -0.097686626 -0.008972047 -0.09910413 0.27034277 -0.2516314 -0.23993349
0.12907484 -0.078127034 0.30472153 -0.06453656 -0.2695242 -0.078192264
00000000: a8f8 67be 06bd 27be db9a c33d ea3b 2cbe
00000010: 7a3e 4c3d 4b44 d2bd 298a 3a3d 8486 553d
00000020: 791b 4cbe 3271 f93d 10ed 2cbe cc1f 70be
00000030: d78c 583e bf81 15be 401b 7a3e d25e 8ebd
00000040: 4bbb 1a3e 36de 82be 6d2e 83bd 7656 413e
00000050: cd0d 773c c5ad 543d da13 31be 4785 253d
00000060: b5c6 8dbe 6526 8bbd 0d41 85be b435 9b3e
00000070: 4820 3e3b 308b 9a3e 1ccf 803e a678 4ebd
00000080: 6a14 c3bd 7832 0c3e 81ff 4d3e f62e 933d
00000090: 82ff 3a3e b22a 08be 8ee8 ee3d aa01 7d3e
000000a0: 6ffa 1cbe 71e7 f5bd fc75 94be 8c97 083e
000000b0: 8436 323d ba7c 2e3e 1049 a23b e24b 96be
000000c0: d941 0cbe 071a 59bc ed0f c8bd 7eff 12bc
000000d0: 1bf7 cabd 5e6a 8a3e d5d5 80be 20b1 75be
000000e0: 322c 043e 1101 a0bd 7604 9c3e be2b 84bd
000000f0: 13ff 89be 4423 a0bd
