gcn_income.pth (torch, 9009 bytes, 3 tensors)

bias f4 [62]
0	0xbb2aeea2	-0.0026082178
1	0x3cd31b4c	0.025769852
2	0x3c9de218	0.019272849
3	0xbce15ccf	-0.027510075
4	0x3ce16d1d	0.02751785
5	0xbcc3effa	-0.02391814
6	0x3cbbb3a2	0.022912804
7	0xbcf3a56f	-0.02974197
8	0x3cb40021	0.021972718
9	0xbc7ccb6c	-0.015429359
10	0x3c340ad7	0.010988913
11	0xbcbbe032	-0.022934053
12	0x3cb03a53	0.021512186
13	0x3ce11441	0.027475478
14	0xbcdf699c	-0.027272038
15	0x3cbe732e	0.023248281
16	0xbcdd3840	-0.027004361
17	0xbcaf29bd	-0.021382207
18	0x3ce3a2fe	0.027787682
19	0x3cc9258a	0.024554033
20	0x3ca4efde	0.020133909
21	0xbcaa6add	-0.02080291
22	0x3cc20176	0.023682337
23	0xbcb6a237	-0.022294147
24	0x3ce41ea8	0.02784665
25	0x3c6fef79	0.014644497
26	0x3c54b5ed	0.012982828
27	0xbcc48928	-0.023991182
28	0x3cd0ca68	0.02548714
29	0x3cde422f	0.027131168
30	0xbcccedf8	-0.025015816
31	0x3ca11a3b	0.019665828
32	0xbcd7f1d0	-0.026360422
33	0xbcad3b66	-0.021146487
34	0x3cd43270	0.025902957
35	0xbcccc518	-0.024996325
36	0xbcd5e4bc	-0.026110046
37	0x3cc77d49	0.024351733
38	0x3ce562b9	0.028001176
39	0xbca86d78	-0.020560011
40	0xbce22645	-0.027606139
41	0x3cd9f057	0.02660386
42	0xbce2795e	-0.027645763
43	0x3cd40e41	0.025885703
44	0xbcdadd80	-0.026716948
45	0xbc3528c2	-0.011057081
46	0x3cc9a4d4	0.024614729
47	0xbcc19c5f	-0.023634134
48	0xbcac1ea0	-0.021010697
49	0xbccf1f8c	-0.025283597
50	0x3cd084d5	0.025453964
51	0x3cc7a8ce	0.024372485
52	0xbcd8ffa8	-0.026489094
53	0x3cb0bd33	0.021574592
54	0x3cd35668	0.025798038
55	0xbcd09ee9	-0.0254664
56	0x3cde1e51	0.027114065
57	0x3cbc2edf	0.022971569
58	0xbcc39a4a	-0.023877282
59	0x3cc11099	0.023567485
60	0xbc4e6311	-0.012596861
61	0xbc020111	-0.007934825

weight f4 [62, 14]
0	0xbb83479e	-0.00400634
1	0x3ab332cf	0.0013671758
2	0xbd3b7b4b	-0.04577188
3	0x3b650b3c	0.0034949323
4	0xbce2b247	-0.0276729
5	0x3c726258	0.014793955
6	0x3a4a8cbe	0.00077266607
7	0xbcbaf7cf	-0.022823242
8	0xbdbd0bbe	-0.09230755
9	0x3c336217	0.010948679
10	0xbd22690d	-0.039650965
11	0xbd22a846	-0.03971126
12	0xbb76f9d9	-0.0037685542
13	0xbcdacdba	-0.026709426
14	0x3e3a28ad	0.18179579
15	0x3e4ac166	0.19800338
16	0x3e2eba68	0.17063296
17	0xbe3685a3	-0.17824416
18	0x3eb968cf	0.36212775
19	0x3de2297c	0.11043069
20	0xbc9db432	-0.019250963
21	0x3d4a2cba	0.04935906
22	0x3e1e7022	0.15472463
23	0x3e7f7c88	0.24949849
24	0x3e33b411	0.17549159
25	0x3deee512	0.116647854
26	0xbd01c598	-0.03168258
27	0xbe2dcb4a	-0.1697208
28	0xbd3d732d	-0.04625242
29	0x3e212c81	0.15739633
30	0xbd8619a3	-0.065478586
31	0xbb622aef	-0.0034510454
32	0xbdb62710	-0.08894169
33	0xbd8c847b	-0.06861206
34	0xbd424afa	-0.047434784
35	0xbe5c651b	-0.21522944
36	0x3e3ff1a5	0.18744524
37	0xbe31f13c	-0.1737718
38	0xbc5ecf9f	-0.013599305
39	0xbc0ccb50	-0.008593395
40	0xbe13bc53	-0.14427309
41	0x3dfcf75e	0.12351869
42	0xbe443877	-0.19162165
43	0x3d6bf3c7	0.05760553
44	0x3e2dbe0e	0.16967031
45	0x3e74710d	0.2387125
46	0xbe2d09ad	-0.16898222
47	0x3e9028d4	0.2815615
48	0x3e6f12d1	0.23347022
49	0x3dfc7cfa	0.12328525
50	0xbd7fcd5e	-0.062451713
51	0xbdeea096	-0.11651723
52	0x3940416b	0.00018334917
53	0x3db48147	0.0881372
54	0xbe99863c	-0.29985225
55	0x3e61f65f	0.2206664
56	0x3e13d35c	0.14436096
57	0xbe2ceec2	-0.16887954
58	0x3d5c0c49	0.053722654
59	0x3dd3a651	0.10334457
60	0x3ea3919a	0.31947023
61	0x3e0ac04a	0.13549915
62	0xbc9afe6c	-0.018920146
63	0xbe95be8d	-0.2924694
64	0x3b84deaa	0.004054864
65	0x3e75dc57	0.24009834
66	0xbdb1d823	-0.08683803
67	0x3defe3fa	0.11713405
68	0x3dfdf85a	0.12400885
69	0xbd9107bb	-0.070815526
70	0xbdb5d4d5	-0.08878485
71	0x3d6ce622	0.05783666
72	0xbe1c5639	-0.15267266
73	0x3e2d7cec	0.16942185
74	0xbc5489b8	-0.012972288
75	0x3e6211fe	0.22077176
76	0x3e740018	0.23828161
77	0x3d45818e	0.048219256
78	0xbe3fc470	-0.18727279
79	0xbce0914a	-0.02741303
80	0xbdd84db1	-0.105616935
81	0x3dad80a2	0.084718004
82	0x3e1a481c	0.1506657
83	0xbdf00082	-0.11718847
84	0x3dd99456	0.10623996
85	0x3e7277cd	0.23678513
86	0xbe632b52	-0.22184494
87	0xbd98da9e	-0.07463573
88	0x3ef19e76	0.4719121
89	0x3dde04ae	0.10840736
90	0x3d2c3e4a	0.04205159
91	0xbe35aa22	-0.17740682
92	0xbcbc1557	-0.022959394
93	0xbe4cd384	-0.20002562
94	0xbe51666d	-0.20449229
95	0xbe6f2b4b	-0.23356359
96	0x3e93e01e	0.28881925
97	0x3e2b1e46	0.16710767
98	0x3c0e9d3d	0.008704481
99	0xbd82ef7d	-0.06393335
100	0x3e421fa0	0.18957376
101	0xbccaec2a	-0.024770815
102	0x3c690984	0.01422346
103	0x3d8ff360	0.07028842
104	0xbd829b86	-0.0637732
105	0xbb9b3353	-0.004736343
106	0xbd5ad3e1	-0.05342472
107	0xbe8d84b1	-0.27640298
108	0x3d18fb98	0.037349313
109	0xbda6a9d8	-0.08137864
110	0x3d10e2c3	0.035372507
111	0x3e1950bb	0.14972202
112	0x3d0a7b84	0.0338092
113	0x3dd530ac	0.10409674
114	0x3d0a8441	0.033817533
115	0x3ddaca38	0.106831014
116	0xbce288fa	-0.027653206
117	0xbdaa51cb	-0.08316382
118	0xbd5ef71e	-0.054434888
119	0x3e300de2	0.17192796
120	0xbe701788	-0.23446476
121	0xbddaf62d	-0.106914856
122	0x3d41fe0f	0.04736143
123	0x3e5e96f4	0.21737272
124	0x3e4466ec	0.19179887
125	0xbe607616	-0.21920046
126	0xbe93ef14	-0.2889334
127	0x3d8e6ca4	0.06954315
128	0x3da621b4	0.08111897
129	0xbc4bbb21	-0.012434752
130	0xbec7e2c3	-0.39040193
131	0x3e34bb2b	0.17649524
132	0x3cd327fc	0.025775902
133	0xbdd78fe4	-0.10525492
134	0xbe2f7cb9	-0.17137422
135	0xbe1e1258	-0.15436685
136	0xbd895762	-0.0670612
137	0x3db64bee	0.08901201
138	0x3d0ea844	0.03482844
139	0xbcc88b7c	-0.024480574
140	0x3ce668a7	0.028126074
141	0xbd8e648e	-0.06952773
142	0x3dfd918f	0.12381279
143	0x3dd37164	0.10324362
144	0x3eb9b5bb	0.36271462
145	0x3d3353bd	0.04378103
146	0xbcf8b439	-0.030359374
147	0xbd3fd9fa	-0.046838738
148	0x3da10fc8	0.07864338
149	0xbe36b90b	-0.17844026
150	0x3d0b5b32	0.034022518
151	0xbe295b90	-0.16538835
152	0xbe0c87ef	-0.1372373
153	0xbcc07b09	-0.023496168
154	0xbe37149d	-0.17878957
155	0xbe0b41fb	-0.13599388
156	0x3d851837	0.06498759
157	0x3d41f8c0	0.047356367
158	0xbe3f1168	-0.18658984
159	0xbd830283	-0.063969634
160	0xbe1b2b56	-0.1515325
161	0x3d8e6294	0.06952396
162	0xbddfbf96	-0.10925214
163	0xbe033b30	-0.12815547
164	0x3e0d1b00	0.13779831
165	0x3d10d752	0.035361595
166	0x3d3b45a4	0.04572071
167	0xbd08b3a7	-0.033374455
168	0xbe04a44a	-0.12953296
169	0x3d86901d	0.06570456
170	0xbe298c65	-0.16557463
171	0x3c818832	0.015812013
172	0xbd8322fd	-0.06403158
173	0x3e02bfbe	0.12768456
174	0xbe018da3	-0.12651686
175	0x3e33ce1f	0.17559098
176	0x3e318fc4	0.17339998
177	0x3e735459	0.23762645
178	0x3e2b8d35	0.16753085
179	0x3d88a76b	0.066725574
180	0x3d238e83	0.03993083
181	0xbc7a4ff8	-0.015277855
182	0xbb7c249f	-0.0038473976
183	0xbe1c4c49	-0.15263475
184	0x3e470cfd	0.19438548
185	0xbcdfe7f8	-0.027332291
186	0x3ead773a	0.33880025
187	0xbd91ec23	-0.07125118
188	0x3d1b63d4	0.037937
189	0xbe6e123f	-0.23249148
190	0xbe4c3c72	-0.19944933
191	0x3e7d4871	0.24734665
192	0x3e08fa1a	0.13376656
193	0x3e06441d	0.1311192
194	0xbe3480be	-0.17627236
195	0xbc4eb79e	-0.01261702
196	0xbeb6164c	-0.35563886
197	0xbd8db260	-0.06918788
198	0x3c624f8d	0.013812912
199	0xbe02c16a	-0.12769094
200	0xbefac660	-0.48979473
201	0x3daa75b7	0.083232336
202	0x3e760585	0.24025543
203	0x3ea0a50d	0.31375924
204	0xbe2d6ae8	-0.16935313
205	0xbdbac8ce	-0.09120332
206	0xbe85189b	-0.25995335
207	0xbe5a365d	-0.213098
208	0xbe0d621d	-0.13806958
209	0x3e90d1d0	0.28285074
210	0x3cb99113	0.022652185
211	0x3d58988a	0.052879848
212	0x3e5fce88	0.21856129
213	0x3bed1f8f	0.007236428
214	0x3edabc63	0.42721853
215	0x3dd8a7b8	0.10578865
216	0x3e522b17	0.2052425
217	0xbc64c69c	-0.013963368
218	0xbe616353	-0.22010545
219	0xbe460611	-0.19338252
220	0xbdd33c0b	-0.10314187
221	0x3e64fddd	0.22362466
222	0x3e52bbf0	0.20579505
223	0x3d4c4985	0.0498748
224	0xbe9e645b	-0.3093594
225	0xbe59f385	-0.21284302
226	0x3e74f0e4	0.23920017
227	0x3ca019a3	0.019543475
228	0xbefe3e41	-0.4965687
229	0x3d45f013	0.048324656
230	0xbcfdc92f	-0.03097972
231	0x3d934484	0.07190803
232	0x3ddd4a61	0.10805202
233	0x3d7f1651	0.062277142
234	0xbe76dab8	-0.24106872
235	0xbc0669f4	-0.008203972
236	0xbe45e602	-0.19326022
237	0x3e5347f3	0.20632915
238	0x3cb74d45	0.022375712
239	0x3d951d30	0.07280958
240	0x3e815da2	0.2526675
241	0x3e1c69eb	0.1527478
242	0xbf042ad4	-0.5162785
243	0x3e10155b	0.14070646
244	0xbdd73eb5	-0.10510007
245	0x3dccc502	0.09998514
246	0xbbc298d8	-0.0059386306
247	0x3e652d4c	0.2238056
248	0xbe582ff0	-0.21112037
249	0xbe777b34	-0.24168092
250	0xbdf36554	-0.11884561
251	0x3d99ed1b	0.075159274
252	0x3e965491	0.29361394
253	0x3e45190f	0.1924784
254	0x3e1e9078	0.15484798
255	0x3cc090b6	0.023506504

weight f4 [1, 62]
0	0xbc2c00db	-0.010498251
1	0x3e9d4a40	0.3072071
2	0x3d356e35	0.044294555
3	0xbe9b508f	-0.303349
4	0x3e991489	0.2989848
5	0xbe55e3f0	-0.20887733
6	0x3e7f149e	0.24910209
7	0xbd517383	-0.05113555
8	0x3d087419	0.033313844
9	0xbe612ad9	-0.21989001
10	0x3db2c0be	0.08728169
11	0xbe3acb86	-0.182417
12	0x3d610a92	0.05494172
13	0x3e635b82	0.22202876
14	0xbecd77af	-0.40130374
15	0x3ebb6a8e	0.36604732
16	0xbecc7cb7	-0.399389
17	0xbe9f18bc	-0.31073558
18	0x3e42b997	0.1901611
19	0x3e78e6cf	0.24306796
20	0x3dca5612	0.09879698
21	0xbed56897	-0.41681358
22	0x3c97d4b5	0.018534044
23	0xbe2264db	-0.15858786
24	0x3e46b580	0.19405174
25	0x3e0e4568	0.13893664
26	0x3e2cd815	0.16879304
27	0xbe1ea8e7	-0.15494119
28	0x3eab051c	0.33402336
29	0x3efe793b	0.49701867
30	0xbe8452a1	-0.2584429
31	0x3d79743d	0.06090187
32	0xbe97884d	-0.29596177
33	0xbe709a59	-0.23496379
34	0x3ea8b087	0.3294718
35	0xbed4423f	-0.41456792
36	0xbdf9dc3b	-0.12200209
37	0x3d93394e	0.071886644
38	0x3e39d58c	0.18147868
39	0xbdaafdd3	-0.083491944
40	0xbe1c01b1	-0.1523502
41	0x3e2c0742	0.16799644
42	0xbec597d4	-0.38592398
43	0x3e0a2228	0.13489592
44	0xbeaeb6dc	-0.34123886
45	0xbd3d5a3a	-0.046228625
46	0x3eb5ce9b	0.3550919
47	0xbe6b6a2e	-0.22989723
48	0xbea30f08	-0.31847405
49	0xbe79712a	-0.24359575
50	0x3e9350ef	0.28772685
51	0x3e96c842	0.2944966
52	0xbe727c7b	-0.23680298
53	0x3e9d4c20	0.3072214
54	0x3e861879	0.26190546
55	0xbe939221	-0.28822425
56	0x3e55f7e9	0.20895351
57	0x3d98078b	0.07423314
58	0xbe4b5ff8	-0.19860828
59	0x3e1cedde	0.15325114
60	0x3dd91b9b	0.106009685
61	0x3c3e7ab7	0.011625937
