gcn_bail.pth (torch, 9957 bytes, 3 tensors)

bias f4 [62]
0.049831007 0.16213822 -0.038233947 -0.1366092 0.086917214 -0.108258985 0.1310919 -0.09690274
0.10288126 0.20732751 -0.12959476 -0.08828138 -0.28842053 0.07804798 0.102465995 0.09230061
-0.099110246 0.0792457 0.057357423 -0.12128091 -0.08453 0.106236674 -0.15991929 0.06309857
-0.066585556 0.113021076 -0.08107947 0.1575806 -0.103362106 -0.14511311 0.10546824 -0.087811835
0.10520086 -0.15604605 -0.06365046 0.1107384 0.06254324 -0.27156004 0.25358802 0.1342292
-0.10742383 -0.06979698 0.12095577 0.0009321139 0.19778767 0.088117845 -0.13386449 0.102518186
-0.19783068 -0.10670423 0.10363866 -0.26317707 -0.05911238 -0.13338134 0.1289433 -0.16552567
0.090949215 -0.15361431 -0.101887584 -0.058927722 -0.28796256 -0.13349995
00000000: 991b 4c3d 9007 263e 339b 1cbd 48e3 0bbe
00000010: a701 b23d e3b6 ddbd f43c 063e f274 c6bd
00000020: 69b3 d23d aa4d 543e 7db4 04be decc b4bd
00000030: dbab 93be 9fd7 9f3d b1d9 d13d 1a08 bd3d
00000040: 50fa cabd 924b a23d 9eef 6a3d 2062 f8bd
00000050: 111e adbd 9d92 d93d e2c1 23be d339 813d
00000060: 025e 88bd 9877 e73d fe0c a6bd cf5c 213e
00000070: 83af d3bd 8898 14be bcff d73d b1d6 b3bd
00000080: 8c73 d73d 89ca 1fbe 2c5b 82bd d0ca e23d
00000090: ac16 803d eb09 8bbe 4ad6 813e 6173 093e
000000a0: 0601 dcbd b8f1 8ebd a9b7 f73d 1b59 743a
000000b0: da88 4a3e 2177 b43d c613 09be 0ef5 d13d
000000c0: 2094 4abe bf87 dabd 8140 d43d 25bf 86be
000000d0: d31f 72bd 1e95 08be b609 043e 907f 29be
000000e0: 9543 ba3d 124d 1dbe 70aa d0bd 325e 71bd
000000f0: d46f 93be 36b4 08be

weight f4 [62, 18]
-0.24690622 -0.17045927 -0.049732886 0.011027064 0.10365965 0.14806722 0.11189508 0.09194049
-0.095409945 -0.2553661 -0.09923399 -0.018056965 0.10704812 0.05730372 0.17261228 0.083263494
-0.76058453 0.12247581 -0.14189613 -0.049994476 0.19979642 0.12595068 -0.02082706 0.15072186
-0.23467547 0.12264741 0.21975796 -0.33347324 0.088966005 0.008404647 0.20114286 -0.060164154
0.05964995 -0.13367477 -0.7670132 0.0139880255 -0.21670914 -0.10648294 0.008785272 -0.1329077
0.17760043 -0.08741243 -0.1148088 -0.021827614 -0.21362898 0.1797851 0.20585261 -0.058602694
-0.107446246 0.19608313 -0.19045866 0.03929116 -0.10576907 -0.18459606 -0.027057152 -0.11014404
0.14736076 -0.08145311 -0.054167096 -0.13899684 0.10948057 0.293943 -0.0316406 0.111765526
-0.27910665 0.102293774 -0.18130736 0.05745754 -0.018319184 0.08795848 0.5833742 0.10783515
0.22064805 0.0041667894 0.2106683 0.17475599 0.052542876 -0.09813227 0.0028058449 0.14455034
0.17436023 -0.27704322 -0.033555113 0.15598853 0.23024006 0.28682372 0.16277613 0.079390876
-0.25676212 -0.2342852 -0.12409517 0.048662815 -0.16360821 -0.22607785 0.12423161 0.06743217
-0.18518507 0.07347427 0.15642585 0.38163432 0.20731112 -0.114629455 -0.1100035 -0.24541809
-0.076800175 -0.13971736 0.39435735 0.1355866 0.08642143 -0.119760364 -0.06893285 -0.036448285
-0.058314238 -0.09865477 0.13382606 0.112241454 0.1690578 -0.43855646 0.20075814 -0.029130252
0.29648444 -0.026125114 0.043348733 -0.05574153 -0.55966634 -0.11139281 0.057381753 -0.18945913
-0.08065778 -0.19470674 0.12049989 0.15951678 -0.188579 -0.08286292 0.23300926 0.27308
0.15699598 -0.23299395 -0.046655864 0.12747583 -0.1011508 -0.016689047 0.56696784 0.072111905
0.13314267 -0.0355565 -0.12566848 -0.1391643 0.3298351 -0.0013715104 0.2095449 0.15093015
-0.13186191 -0.18115985 -0.040413506 0.08567841 0.34233734 0.18780077 -0.10776442 -0.113467745
-0.5510814 -0.21935323 0.10769449 -0.13972297 -0.013683055 -0.002922519 0.081629016 0.011318913
0.06287426 -0.034636345 0.10860775 -0.3365619 0.06324995 0.0219658 0.69382477 0.07419107
0.25162542 -0.007905846 -0.6514366 0.094167344 -0.28121805 0.061190683 0.2473735 -0.13574316
-0.11069141 -0.036309615 0.0992335 0.16557372 0.05806756 0.35707742 -0.14660066 0.009752534
-0.32916653 0.11413534 -0.13332269 -0.17555271 0.45933494 0.12625597 -0.06579386 0.03481822
0.01525958 0.11545279 -0.03912073 -0.23865427 -0.16203263 0.07437778 -0.027425729 0.42734912
-0.08278637 0.068722345 -0.3603849 -0.2840459 -0.059391834 -0.14705946 0.2518614 0.030857837
-0.0073009036 0.0845153 -0.021872656 0.02583348 0.058578767 -0.003032475 -0.04230459 0.034572456
0.020654283 0.68132746 -0.112024814 0.01568506 -0.89391637 -0.047570013 -0.19026761 -0.0025308891
0.8207433 -0.0075527276 0.1881191 -0.13609812 -0.17204714 -0.03426015 0.30215666 -0.016895942
-0.21195956 0.14480005 0.07178167 -0.10197069 0.062273383 0.17106323 -0.014137472 0.2211517
0.2790333 -0.047856856 -0.11395301 0.12426407 0.28611502 -0.089773744 -0.17001343 -0.07812432
00000000: fcd4 7cbe e08c 2ebe b6b4 4bbd dcaa 343c
00000010: 834b d43d ef9e 173e 3f29 e53d 4c4b bc3d
00000020: 4a66 c3bd 58bf 82be 313b cbbd 33ec 93bc
00000030: 0b3c db3d 4eb7 6a3d 46c1 303e 0d86 aa3d
00000040: abb5 42bf 99d4 fa3d 384d 11be 02c7 4cbd
00000050: 6f97 4c3e 37f9 003e 839d aabc d556 1a3e
00000060: c44e 70be 912e fb3d 3b08 613e 01bd aabe
00000070: cf33 b63d a5b3 093c 65f8 4d3e b06e 76bd
00000080: 8253 743d 0ae2 08be fa5a 44bf 082e 653c
00000090: 00e9 5dbe ba13 dabd 1af0 0f3c f518 08be
000000a0: e3dc 353e 4a05 b3bd e020 ebbd d3cf b2bc
000000b0: 8ec1 5abe 9619 383e 07cb 523e 6109 70bd
000000c0: c70c dcbd 04ca 483e 9807 43be c4ef 203d
000000d0: 749d d8bd c006 3dbe f6a6 ddbc 3393 e1bd
000000e0: bde5 163e e3d0 a6bd 51de 5dbd 3055 0ebe
000000f0: 5937 e03d b27f 963e 9399 01bd 53e5 e43d
00000100: 11e7 8ebe 667f d13d a3a8 39be 9958 6b3d
00000110: 1d12 96bc 9323 b43d 0358 153f add8 dc3d
00000120: 90f1 613e 9089 883b 6eb9 573e 3cf3 323e
00000130: 3337 573d 92f9 c8bd 44e2 373b 0105 143e
00000140: 7d8b 323e 9cd8 8dbe 1671 09bd 75bb 1f3e
00000150: 0dc4 6b3e 8fda 923e c9ae 263e af97 a23d
00000160: 5376 83be 76e8 6fbe 9c25 febd a952 473d
00000170: e988 27be f480 67be 246d fe3d e119 8a3d
00000180: 28a1 3dbe ae79 963d 192e 203e 9365 c33e
00000190: 5e49 543e d9c2 eabd 8449 e1bd e14e 7bbe
000001a0: 6949 9dbd 1112 0fbe 35e9 c93e 37d7 0a3e
000001b0: b8fd b03d ec44 f5bd ab2c 8dbd cc4a 15bd
000001c0: e9da 6ebd 830b cabd b309 093e d9de e53d
000001d0: 7d1d 2d3e 798a e0be 8b93 4d3e 91a2 eebc
000001e0: cfcc 973e 5604 d6bc 718e 313d 3b51 64bd
000001f0: 4b46 0fbf ea21 e4bd 2109 6b3d 9301 42be
00000200: e82f a5bd 3461 47be a5c8 f63d 5e58 233e
00000210: da1a 41be 09b4 a9bd fb99 6e3e 24d1 8b3e
00000220: 8ec3 203e f795 6ebe 381a 3fbd 0689 023e
00000230: 2728 cfbd 78b7 88bc ce24 113f 68af 933d
00000240: 8d56 083e b1a3 11bd 3daf 00be 1681 0ebe
00000250: 25e0 a83e 41c4 b3ba f092 563e 6f8d 1a3e
00000260: cf06 07be f881 39be a288 25bd 2a78 af3d
00000270: d746 af3e d84e 403e 98b3 dcbd c761 e8bd
00000280: ac13 0dbf 229e 60be ee8e dc3d 8a13 0fbe
00000290: e42e 60bc bc87 3fbb 1d2d a73d f672 393c
000002a0: 38c4 803d d7de 0dbd bd6d de3d d751 acbe
000002b0: 3189 813d 9ff1 b33c 809e 313f 7df1 973d
000002c0: 0cd5 803e 8687 01bc 8dc4 26bf cfda c03d
000002d0: d0fb 8fbe 15a3 7a3d 7b4f 7d3e 4100 0bbe
000002e0: 2eb2 e2bd 64b9 14bd ef3a cb3d 288c 293e
000002f0: 40d8 6d3d dad2 b63e 7c1e 16be 18c9 1f3c
00000300: 8488 a8be cabf e93d be85 08be 17c4 33be
00000310: f32d eb3e 3f49 013e eebe 86bd 8d9d 0e3d
00000320: 5103 7a3c 8372 ec3d 0f3d 20bd c961 74be
00000330: e2eb 25be 6153 983d ecab e0bc 81cd da3e
00000340: e68b a9bd 4dbe 8c3d 5f84 b8be 776e 91be
00000350: da44 73bd c196 16be faf3 803e 93c9 fc3c
00000360: 6b3c efbb 5c16 ad3d 492e b3bc bca0 d33c
00000370: 4af0 6f3d 7dbc 46bb 9447 2dbd d99b 0d3d
00000380: 2c33 a93c 7a6b 2e3f 446d e5bd f47d 803c
00000390: b4d7 64bf c6d8 42bd 83d5 42be 46dd 25bb
000003a0: 3c1c 523f df7c f7bb 4ba2 403e 4e5d 0bbe
000003b0: 202d 30be 5f54 0cbd 47b4 9a3e 5c69 8abc
000003c0: ed0b 59be 7746 143e 4502 933d 02d6 d0bd
000003d0: 6012 7f3d 332b 2f3e dba0 67bc 9775 623e
000003e0: 74dd 8e3e 8d05 44bd 3260 e9bd 297e fe3d
000003f0: ab7d 923e 4cdb b7bd 0018 2ebe a5ff 9fbd

weight f4 [1, 62]
-0.28873557 -0.5707561 -0.014050766 0.51034075 -0.3999569 0.64909524 -0.47681957 0.6523973
-0.6769007 -0.46729884 0.55761456 0.37708312 0.3416722 -0.20084377 -0.6776021 -0.6429986
0.50763184 -0.33226332 -0.14119639 0.6184669 0.3694533 -0.63288563 0.4559702 -0.3419352
0.21271755 -0.64915586 0.23334971 -0.2687929 0.6487911 0.56284153 -0.47847062 0.2174435
-0.55527735 0.534696 0.1427053 -0.64846236 -0.3184681 0.40206438 -0.54485726 -0.47696793
0.6617712 0.13120478 -0.3933935 -0.128871 -0.514835 -0.46043053 0.6768762 -0.61462545
0.43728158 0.6573672 -0.7686515 0.44103536 0.16049135 0.5695367 -0.49015093 0.46317118
-0.64866185 0.42055428 0.6329571 0.109900616 0.42878827 0.5062846
00000000: 26d5 93be 121d 12bf 2f35 66bc b1a5 023f
00000010: 27c7 ccbe 1b2b 263f b221 f4be 8203 273f
00000020: 5d49 2dbf cb41 efbe d4bf 0e3f 0a11 c13e
00000030: a9ef ae3e fda9 4dbe 5577 2dbf 8e9b 24bf
00000040: 29f4 013f 6b1e aabe c995 10be d953 1e3f
00000050: fc28 bd3e cb04 22bf ed74 e93e 2112 afbe
00000060: a1d2 593e 142f 26bf 3af3 6e3e 399f 89be
00000070: 2c17 263f 6216 103f 1afa f4be 82a9 5e3e
00000080: a826 0ebf d6e1 083f 5721 123e a101 26bf
00000090: 400e a3be 62db cd3e c47b 0bbf 2435 f4be
000000a0: d669 293f 8c5a 063e df6a c9be c2f6 03be
000000b0: 3acc 03bf 8dbd ebbe c247 2d3f 1858 1dbf
000000c0: 5fe3 df3e 3849 283f 58c6 44bf 63cf e13e
000000d0: d857 243e 28cd 113f 10f5 fabe c624 ed3e
000000e0: b40e 26bf e452 d73e 7a09 223f 9313 e13d
000000f0: 238a db3e de9b 013f
