gcn_fair_pokec1.pth (torch, 73375 bytes, 3 tensors)

bias f4 [62]
0	0xbb016e48	-0.001974957
1	0xbb015a8f	-0.0019737815
2	0x3b0155c4	0.0019734958
3	0xbb017214	-0.0019751834
4	0x3b00c5fe	0.0019649263
5	0xbb018094	-0.0019760476
6	0x3b014b90	0.0019728877
7	0x3b01c313	0.0019800111
8	0xbb016ff2	-0.0019750562
9	0x3b0179c1	0.001975641
10	0xbb015b88	-0.0019738395
11	0xbb016dd4	-0.00197493
12	0x3b016ef2	0.0019749966
13	0xbb015a3f	-0.0019737629
14	0x3b016d59	0.0019749014
15	0xbb0193ba	-0.001977189
16	0x3b0173f0	0.0019752942
17	0xbb015e36	-0.0019739992
18	0xbb014f20	-0.0019731
19	0x3b015954	0.0019737082
20	0x3b013552	0.001971562
21	0x3b014d50	0.001972992
22	0xbb0171da	-0.0019751699
23	0x3b0226ec	0.0019859625
24	0xbb016c53	-0.0019748404
25	0xbb0198c5	-0.0019774896
26	0xbb015e7e	-0.001974016
27	0x3b016b82	0.0019747918
28	0x3b012184	0.0019703815
29	0x3b016bca	0.0019748085
30	0x3b016d24	0.001974889
31	0xbb01c3c1	-0.0019800516
32	0xbb0154ca	-0.0019734376
33	0x3b01762c	0.0019754274
34	0x3b015ce0	0.0019739196
35	0x3b015128	0.001973221
36	0x3b015bee	0.0019738632
37	0xbb0176bc	-0.001975461
38	0x3b0179fa	0.0019756542
39	0x3b015e36	0.0019739992
40	0xbb015a4a	-0.0019737654
41	0xbb017ae8	-0.0019757096
42	0xbb015ea0	-0.0019740239
43	0x3b0157d3	0.0019736185
44	0x3b02006a	0.0019836673
45	0x3b015b90	0.0019738413
46	0x3b0087e0	0.0019612238
47	0xbb016bc4	-0.0019748071
48	0xbb015904	-0.0019736895
49	0xbb012c9b	-0.0019710425
50	0xbb0155d7	-0.0019735002
51	0xbb012dbf	-0.0019711105
52	0xbb015526	-0.001973459
53	0x3b016c79	0.0019748493
54	0xbb015ddd	-0.0019739785
55	0xbb016d85	-0.0019749117
56	0x3b017851	0.0019755552
57	0xbb018b23	-0.001976677
58	0x3b016b96	0.0019747964
59	0xbb01a13a	-0.0019779936
60	0xbb016c72	-0.0019748476
61	0xbb01533e	-0.0019733454

weight f4 [62, 276]
0	0x3dffc457	0.12488621
1	0xbd7933fa	-0.060840584
2	0x3dba55e2	0.09098412
3	0x3cbc2dc0	0.022971034
4	0xbda84727	-0.08216696
5	0xbdf971ef	-0.12179934
6	0xbca164b6	-0.019701343
7	0x3d690ce2	0.05689705
8	0x3d8057eb	0.06266769
9	0x3d9fb0b4	0.07797375
10	0x3cfc1092	0.03076962
11	0x3d0ab165	0.033860583
12	0xbcda6097	-0.026657386
13	0x3c9c71c0	0.019097209
14	0xbe08afd3	-0.13348322
15	0x3dc4a74d	0.096022226
16	0xbc400e5d	-0.0117221745
17	0x3c062474	0.008187402
18	0x3daeef91	0.085417874
19	0xbdb249f7	-0.08705514
20	0xbcedd8ad	-0.029033983
21	0xbde8e44c	-0.11371669
22	0xbda85805	-0.082199134
23	0x3da337b2	0.079696074
24	0x3d268bcb	0.04066066
25	0xbdb5fa5a	-0.088856414
26	0x3d7495c8	0.059713155
27	0xbc01a35d	-0.007912484
28	0xbd601d48	-0.054715425
29	0xbd9f3b52	-0.07774986
30	0x3ce33b8d	0.027738357
31	0xbd6dc40d	-0.058048297
32	0x3dd969ad	0.10615859
33	0xbc06f428	-0.008236922
34	0x3dbeed55	0.09322611
35	0x3db88822	0.0901034
36	0xbde7da07	-0.11320882
37	0xbe0685b0	-0.13136935
38	0x3d91eb35	0.0712494
39	0xbd11bb63	-0.035579097
40	0x3ba12f76	0.004918988
41	0x3df389f6	0.11891548
42	0xbba0c200	-0.004905939
43	0xbd58a22f	-0.052889045
44	0xbcfdb7cb	-0.030971428
45	0xbdcf277c	-0.10114953
46	0x3a9087f8	0.001102685
47	0x3cd7c756	0.026340168
48	0xbd21572a	-0.039389767
49	0xbd990cf4	-0.07473174
50	0xbdbdd4e0	-0.09269118
51	0xbd390769	-0.045173083
52	0xbde2b78b	-0.11070164
53	0x3e058c17	0.13041721
54	0xbc80181e	-0.0156365
55	0xbd5b5505	-0.053547878
56	0x3ca7d51f	0.020487366
57	0xbd6ffdc2	-0.05859161
58	0x3decb5f1	0.1155814
59	0x3da4209a	0.08014031
60	0x3cc5c6ee	0.024142709
61	0xbdfda72b	-0.123854004
62	0x3d04026f	0.032228883
63	0x3dd4aebe	0.10384892
64	0xbd8c2607	-0.06843191
65	0xbc98fd8f	-0.018675594
66	0xbd40f210	-0.04710585
67	0xbd633380	-0.055469036
68	0x3d89d19e	0.067294344
69	0xbc22dc8d	-0.009940279
70	0x3d2cbad6	0.042170368
71	0xbdab2a9e	-0.08357738
72	0x3dfcecf3	0.12349882
73	0xbdd1a2ae	-0.10236107
74	0xbdcc118b	-0.099642836
75	0x3dd74ab9	0.10512299
76	0xbceb893c	-0.028751962
77	0x3da01c54	0.07817903
78	0xbd998bf0	-0.07497394
79	0x3d94169f	0.07230877
80	0xbc6cf246	-0.014462059
81	0x3d8c86dc	0.0686166
82	0xbe047c4d	-0.12938042
83	0xbdc7beaa	-0.09753163
84	0xbdf5dcee	-0.120050296
85	0xba712e66	-0.00092003343
86	0x3c085c1c	0.008322742
87	0x3db408cc	0.0879074
88	0x3db33198	0.08749694
89	0x3d94aff0	0.0726012
90	0x3bf30342	0.00741616
91	0xbe038020	-0.12841845
92	0xbde8946c	-0.11356434
93	0x3da8aea7	0.08236437
94	0x3dfbdd7c	0.12298104
95	0xbcad6727	-0.021167351
96	0x3daa33c6	0.08310656
97	0xbd24ca44	-0.040231958
98	0xbd5e4ec8	-0.05427435
99	0x3dcb77bf	0.09934949
100	0xbdeb94ea	-0.115030125
101	0xbdccc83e	-0.09999131
102	0x3db59477	0.08866208
103	0x3c96a2d0	0.018388182
104	0x3dc21609	0.09476859
105	0x3cbee50b	0.023302576
106	0x3dc4d747	0.096113734
107	0x3db871e3	0.09006097
108	0x3d38a3b9	0.045078013
109	0x3d6fb8d1	0.058525864
110	0x3d446f63	0.04795779
111	0xbdb181c3	-0.08667328
112	0x3ce7bb55	0.028287569
113	0x3d611bd8	0.054958194
114	0x3ccaa12c	0.024735056
115	0x3cd0f0f1	0.025505515
116	0xbdd04651	-0.10169662
117	0xbd5a0d88	-0.05323556
118	0xbb938b0b	-0.004502659
119	0xbde32bb8	-0.11092323
120	0xbb193a82	-0.002338082
121	0x3cdef353	0.027215635
122	0x3d862bc9	0.0655132
123	0x3c80dcc8	0.015730277
124	0x3d3d6d62	0.046246894
125	0x3d05549a	0.032551385
126	0xbdd1d207	-0.10245138
127	0x3db36fd7	0.08761566
128	0xbde91846	-0.11381583
129	0x3de90917	0.11378687
130	0x3c6a80c5	0.014312928
131	0xbc905a73	-0.017621255
132	0x3d97cd8b	0.07412251
133	0xbb941680	-0.004519284
134	0x3db011d6	0.08597152
135	0x3dda857d	0.10669992
136	0xbd6dc54a	-0.058049478
137	0x3d72002b	0.05908219
138	0x3da3c9dd	0.07997487
139	0xbda00a6f	-0.0781449
140	0x3d9db647	0.07700782
141	0xbd9e4830	-0.077286124
142	0x3c565a12	0.013082998
143	0xbdce276c	-0.10066113
144	0xbe041cbf	-0.12901591
145	0x3dd6bcd3	0.10485234
146	0x3def174b	0.11674365
147	0xbcb336d0	-0.021876723
148	0xbe057672	-0.13033465
149	0xbd50aa5d	-0.05094372
150	0x3dfdb270	0.1238755
151	0xbe02bcb8	-0.12767303
152	0xbdb97d24	-0.09057072
153	0xbcb58eb2	-0.022162769
154	0x3d16f425	0.036853928
155	0xbdce150a	-0.10062607
156	0x3b3a6a60	0.0028444752
157	0xbdfb6392	-0.12274851
158	0x3df3a2cf	0.11896288
159	0xbde3d70e	-0.11125003
160	0x3db12045	0.08648733
161	0x3c91ea98	0.017812058
162	0xbde4c1a6	-0.11169748
163	0xbd491d31	-0.049100105
164	0x3c89e2fe	0.016831871
165	0x3d99d326	0.075109765
166	0xbd5c0f65	-0.05372562
167	0xbdbf5783	-0.093428634
168	0x3cd1641f	0.025560437
169	0xbd1f1745	-0.03884055
170	0xbdc0f6a1	-0.09422041
171	0x3df90467	0.12159043
172	0xbd0b9692	-0.034079142
173	0x3c7dd951	0.015493707
174	0xbdced9ae	-0.10100113
175	0x3ddcf8cc	0.10789642
176	0x3def13d1	0.116737016
177	0x3d4d2b34	0.05009003
178	0x3d64c821	0.05585492
179	0x3ad1fb10	0.0016020257
180	0x3dcaa848	0.09895378
181	0x3d02530a	0.031817473
182	0x3da55e79	0.0807466
183	0x3d30b6b5	0.043142993
184	0x3ce9f3cd	0.028558636
185	0xbc6badb8	-0.0143846795
186	0xbdf09c6b	-0.11748584
187	0x3de4d04f	0.11172544
188	0x3d0d82bd	0.03454851
189	0xbcec087a	-0.028812636
190	0x3d47103e	0.048599474
191	0xbdd2f30c	-0.10300264
192	0x3d9327d4	0.07185331
193	0x3bbc37a7	0.005743939
194	0xbc107b05	-0.008818393
195	0xbde5a6c6	-0.1121345
196	0x3d0d4857	0.034492817
197	0xbe025767	-0.12728654
198	0x3cd9b4ea	0.026575524
199	0xbd173784	-0.03691818
200	0x3d9f2969	0.0777157
201	0x3d6a5e3b	0.05721877
202	0xbde992ed	-0.11404977
203	0xbe09602a	-0.1341559
204	0xba96cbe7	-0.001150486
205	0xbd6a5f6a	-0.0572199
206	0x3dfc4e6c	0.12319645
207	0x3dfc139c	0.12308428
208	0x3d14acf4	0.036297753
209	0x3d4f7604	0.050649658
210	0x3df1421c	0.117801875
211	0x3d6a4a4e	0.05719977
212	0xbde451c9	-0.11148412
213	0xbd4c36f2	-0.049857087
214	0x3d8d16cc	0.06889114
215	0x3da119f1	0.07866276
216	0x3d42cf22	0.04756082
217	0xbde912e2	-0.11380555
218	0xbca0d837	-0.01963435
219	0x3d0d8237	0.03454801
220	0x3d55fc4e	0.05224257
221	0xbce24a4c	-0.027623318
222	0x3c67a1f2	0.014137732
223	0xbd75da1d	-0.060022462
224	0x3de6892e	0.11256634
225	0x3d671fde	0.056426875
226	0xbdd067bc	-0.10176036
227	0xbe04204a	-0.12902942
228	0x3ce49df3	0.027907347
229	0xbddff1f0	-0.10934818
230	0x3d52d81b	0.051475625
231	0x3d91735e	0.07102083
232	0x3dd12eff	0.10214042
233	0xbd335df6	-0.04379078
234	0x3dc82ede	0.09774564
235	0xbd5e24b4	-0.05423422
236	0xbdd39bc0	-0.10332441
237	0x3d05a4be	0.032627814
238	0x3d0b9afb	0.034083348
239	0x3cb836af	0.022487013
240	0x3c59910c	0.013279211
241	0x3cb242bb	0.021760335
242	0x3deed024	0.116607934
243	0xbd5b220b	-0.053499263
244	0xbc84194f	-0.01612535
245	0x3d82b04b	0.063812815
246	0x3dbf35a4	0.09336403
247	0xbd6187a4	-0.055060998
248	0x3dba63bf	0.09101056
249	0xbc90f989	-0.017697113
250	0x3e0023f7	0.1251372
251	0x3dc19aa8	0.094533265
252	0xbd4f145d	-0.05055653
253	0xbafe314a	-0.0019393351
254	0xbc7427b2	-0.014902042
255	0x3da8974b	0.08231982

weight f4 [1, 62]
0	0xbe458359	-0.19288386
1	0xbe337de4	-0.17528492
2	0x3df48252	0.11938919
3	0xbe0cf05d	-0.13763566
4	0x3c396e7c	0.011317845
5	0xbd872d34	-0.06600419
6	0x3d915f75	0.07098285
7	0x3ca26a98	0.019826218
8	0xbe27f86c	-0.16403359
9	0x3db2d2cb	0.08731612
10	0xbe4657b6	-0.19369397
11	0xbe4f5121	-0.20245792
12	0x3e388309	0.18018736
13	0xbe2e41c8	-0.17017281
14	0x3e5b29d7	0.2140268
15	0xbd20dba4	-0.039271966
16	0x3df7491b	0.12074491
17	0xbe8b33af	-0.2718787
18	0xbda96ea0	-0.08273053
19	0x3e20702c	0.1566779
20	0x3d195b55	0.037440617
21	0x3d9c4481	0.076302536
22	0xbe0f6023	-0.14001517
23	0x3c214f97	0.009845636
24	0xbe7922f5	-0.24329741
25	0xbd117439	-0.03551123
26	0xbe917902	-0.28412634
27	0x3e8bc80d	0.27301064
28	0x3cd6c9f3	0.026219344
29	0x3e860ff3	0.26184043
30	0x3e608076	0.21924004
31	0xbca1387c	-0.019680254
32	0xbde5998f	-0.112109296
33	0x3dd7884f	0.10524046
34	0x3e67b0d0	0.22626042
35	0x3dbb0493	0.09131732
36	0x3e4f275a	0.20229855
37	0xbdd0c7a2	-0.10194327
38	0x3db0eeec	0.08639321
39	0x3e8b323e	0.2718677
40	0xbe2eea25	-0.17081507
41	0xbda99746	-0.08280806
42	0xbe946499	-0.28983
43	0x3e0db69a	0.13839188
44	0x3c47b53b	0.012189205
45	0x3e46ea1e	0.19425246
46	0x3bf4ac6a	0.0074668424
47	0xbe869889	-0.2628825
48	0xbe1c084c	-0.1523754
49	0xbd0128a8	-0.031532913
50	0xbdf5d35d	-0.12003205
51	0xbd03e2d3	-0.03219874
52	0xbdeae98b	-0.11470326
53	0x3e7428a9	0.23843636
54	0xbe84557d	-0.25846472
55	0xbe56be94	-0.20971137
56	0x3dbfef5a	0.093718246
57	0xbd44649f	-0.047947522
58	0x3e8a3380	0.26992416
59	0xbcfac64e	-0.030612137
60	0xbe751cf8	-0.23936832
61	0xbdd1629c	-0.10223886
