gcn_bail.pth (torch, 9957 bytes, 3 tensors)

bias f4 [62]
0.116590254 -0.1023441 0.17748371 -0.13794205 -0.03657402 -0.14032185 0.22048877 -0.11000192
-0.093833946 -0.104597084 0.31410235 -0.12076509 -0.10979359 0.04484044 -0.05110318 0.12044682
0.12700243 -0.12013332 -0.18977846 -0.24806152 0.073150665 0.10889593 0.10959369 -0.118054934
0.085352145 0.2066184 0.11755572 0.07824691 0.04726043 0.12000444 0.053598862 0.12135893
-0.035676137 -0.113997646 -0.054961618 0.08669813 0.087644294 -0.13753258 -0.16245084 0.09336829
0.07949642 0.07429215 -0.13235411 -0.21379133 -0.05627315 0.058932085 -0.3219716 0.06423806
0.07911586 -0.05003285 0.15303144 0.067511015 0.19369437 -0.20769283 0.09094155 -0.043770168
0.029611617 0.26557076 -0.10046673 -0.14345303 0.05434615 0.05618277
00000000: dfc6 ee3d c999 d1bd 4abe 353e ae40 0dbe
00000010: a4ce 15bd 88b0 0fbe cfc7 613e b048 e1bd
00000020: 032c c0bd ff36 d6bd 06d2 a03e b053 f7bd
00000030: 76db e0bd 9caa 373d 9151 51bd d3ac f63d
00000040: ed0c 023e 7508 f6bd 4955 42be d703 7ebe
00000050: 04d0 953d d404 df3d a872 e03d c9c6 f1bd
00000060: 1bcd ae3d c693 533e 0ec1 f03d ea3f a03d
00000070: 2794 413d e3c4 f53d 7b8a 5b3d 088b f83d
00000080: 2421 12bd 9977 e9bd 6f1f 61bd ca8e b13d
00000090: da7e b33d 57d5 0cbe 8359 26be e037 bf3d
000000a0: 05cf a23d 7c26 983d d687 07be 1dec 5abe
000000b0: ad7e 66bd c562 713d 76d9 a4be 3e8f 833d
000000c0: 7f07 a23d 3fef 4cbd 46b4 1c3e 3743 8a3d
000000d0: d157 463e 6ead 54be 903f ba3d 5948 33bd
000000e0: 1094 f23c e4f8 873e 80c1 cdbd 5ae5 12be
000000f0: 129a 5e3d e71f 663d

weight f4 [62, 18]
0.07158171 0.09264833 0.21507937 0.13412382 0.23635386 -0.048136227 -0.18635075 -0.11374688
0.24286745 0.017373284 0.05274393 0.24968658 0.42337346 0.10952106 0.16341643 0.025178375
-0.2991759 0.05110342 -0.28757006 -0.040474523 0.13249996 0.06955599 -0.31610477 0.2039584
-0.105257824 0.2953545 -0.25447443 0.06805579 -0.14349881 -0.059596807 -0.24338287 -0.09623239
0.03370189 0.08453857 0.31427398 0.11476251 0.23963805 0.12243349 -0.1846293 -0.07282641
-0.115160964 0.14717665 -0.06849333 0.12117822 0.005850971 -0.5063792 0.2798812 0.32204065
0.2341363 -0.24133411 -0.06317408 0.07739186 -0.6095983 -0.242441 -0.17963775 0.053366166
-0.060178068 -0.14925797 -0.34613988 0.19554059 -0.005605443 -0.16603631 -0.25944072 0.44966623
-0.0597208 -0.29657894 -0.19593324 -0.12094817 0.12997212 0.013856496 0.34815827 -0.037881754
0.0020292995 -0.2471801 0.1734394 0.19418922 -0.25861928 0.18913971 0.19945924 -0.14026721
0.19665919 -0.03748683 0.047733925 -0.06489053 -0.07017906 0.15367536 0.19114317 -0.06220344
0.04415974 0.25607303 0.1263229 0.09800517 -0.18516159 0.023119414 -0.3517981 0.03623215
0.052878838 0.036789466 0.09639137 0.0713963 -0.34090468 -0.2303956 -0.46224284 -0.23589203
-0.2083548 0.017025368 0.46410832 0.08631437 0.1294136 0.10734691 -0.2612074 -0.019601267
0.35544246 0.06588811 -0.18333064 0.16082735 0.055358995 -0.23803668 0.083283566 0.30062747
0.57279646 0.093211405 -0.061422434 -0.009723975 -0.56655 0.0114882495 -0.07395568 -0.08679879
-0.16114871 -0.07293063 -0.16573155 0.21416615 0.17816223 0.0024494925 0.22466208 0.21521506
0.089627 -0.09231663 -0.08899401 -0.2771308 0.13695867 0.10109655 0.4617245 0.26581454
0.063658215 -0.08837424 0.13633399 -0.15860353 -0.16577901 -0.008754264 -0.23853612 -0.061785452
0.08990019 0.054834668 0.15718426 0.07014423 -0.004487141 0.03563799 -0.21212262 -0.10509997
0.38202128 0.061406482 -0.11865684 -0.20520829 -0.08568509 -0.09575843 -0.19330645 -0.23766124
0.028725805 -0.0016863662 -0.22963531 0.0021207645 -0.05745146 -0.28868178 -0.3597635 0.21784393
-0.04484843 -0.0047475966 0.3912765 0.01770728 0.03588899 -0.014899999 -0.10769491 -0.05289799
-0.009832288 0.04439166 0.04953762 -0.008494164 -0.07230532 -0.6289889 0.39291447 0.10563455
0.79495734 -0.1316164 -0.039249994 -0.010809686 -0.82049906 -0.06030128 0.13173841 0.212805
-0.23624107 -0.0071400013 -0.13201347 0.24862657 -0.009216264 0.26761118 -0.12844665 0.22094442
-0.18768068 -0.22959949 -0.05453222 0.08159528 -0.24587418 0.119475394 0.4967293 -0.17077476
0.15032524 -0.22521971 0.0104608275 -0.11207379 0.02936425 -0.13684167 -0.0148999775 0.27590576
-0.09266553 0.00045263508 0.028896779 -0.13126808 -0.33546513 -0.119238086 0.14949788 -0.022224963
0.55054814 -0.19137631 -0.05552839 -0.024797902 -0.005699839 -0.044333838 0.13706604 -0.15666987
-0.15183702 -0.29015625 0.16149074 0.10343946 0.027167164 0.271951 0.05435976 0.17226806
-0.21950486 -0.03359003 0.045360457 0.03079254 0.18343697 0.09354782 0.1599491 -0.09258801
00000000: 6e99 923d 68be bd3d c43d 5c3e c157 093e
00000010: bf06 723e 7e2a 45bd bbd2 3ebe 20f4 e8bd
00000020: 3fb2 783e 6b52 8e3c 050a 583d d7ad 7f3e
00000030: 68c4 d83e 944c e03d a356 273e e142 ce3c
00000040: 952d 99be d251 513d 623c 93be 9dc8 25bd
00000050: 12ae 073e 5f73 8e3d 7cd8 a1be 79da 503e
00000060: 6a91 d7bd b438 973e 794a 82be d660 8b3d
00000070: 5af1 12be c81b 74bd 5c39 79be 7d15 c5bd
00000080: fe0a 0a3d 8f22 ad3d 85e8 a03e 9b08 eb3d
00000090: ad63 753e 69be fa3d 770f 3dbe 0326 95bd
000000a0: 83d9 ebbd 7ab5 163e 3b46 8cbd 492c f83d
000000b0: 81b9 bf3b 11a2 01bf 974c 8f3e 83e2 a43e
000000c0: 6dc1 6f3e 4a20 77be 6961 81bd a07f 9e3d
000000d0: a20e 1cbf 7442 78be f5f2 37be 7b96 5a3d
000000e0: 477d 76bd 15d7 18be 3f39 b1be cb3b 483e
000000f0: ddad b7bb 6c05 2abe 6ad5 84be a73a e63e
00000100: cc9d 74bd 32d9 97be b9a2 48be adb3 f7bd
00000110: 6917 053e 5b06 633c cd41 b23e e629 1bbd
00000120: fffd 043b c81c 7dbe 199a 313e 8ad9 463e
00000130: bf69 84be d7ad 413e 0b3f 4c3e 35a2 0fbe
00000140: 0761 493e ca8b 19bd a684 433d 54e5 84bd
00000150: 0aba 8fbd 135d 1d3e 09bb 433e 09c9 7ebd
00000160: d8e0 343d 011c 833e ca5a 013e efb6 c83d
00000170: 009b 3dbe ed64 bd3c e11e b4be 2a68 143d
00000180: 7b97 583d 8db0 163d d768 c53d 3938 923d
00000190: 0f8b aebe d3ec 6bbe 18ab ecbe ae8d 71be
000001a0: f65a 55be c978 8b3c 9b9f ed3e 97c5 b03d
000001b0: 0085 043e b2d8 db3d fabc 85be d692 a0bc
000001c0: 8efc b53e 58f0 863d 07bb 3bbe edaf 243e
000001d0: 1dc0 623d e3bf 73be 9390 aa3d d8eb 993e
000001e0: caa2 123f 9fe5 be3d 1796 7bbd 4f51 1fbc
000001f0: 6c09 11bf 3639 3c3c 1376 97bd 90c3 b1bd
00000200: 2b04 25be a75c 95bd 88b5 29be 5f4e 5b3e
00000210: 2970 363e aa87 203b d10d 663e 5661 5c3e
00000220: 5c8e b73d 8010 bdbd 7e42 b6bd 17e4 8dbe
00000230: e53e 0c3e b50b cf3d 2767 ec3e d818 883e
00000240: 3d5f 823d 8efd b4bd 239b 0b3e f768 22be
00000250: f9c1 29be 0b6e 0fbc d042 74be be12 7dbd
00000260: 971d b83d 519a 603d e9f4 203e c7a7 8f3d
00000270: de08 93bb 24f9 113d ac36 59be a73e d7bd
00000280: 4b98 c33e 5d85 7b3d 5b02 f3bd 1f22 52be
00000290: aa7b afbd ff1c c4bd 20f2 45be 785d 73be
000002a0: 6152 eb3c 0f09 ddba 8525 6bbe 86fc 0a3b
000002b0: 3952 6bbd 19ce 93be ec32 b8be 7b12 5f3e
000002c0: fdb2 37bd ba91 9bbb 6555 c83e dc0e 913c
000002d0: 5500 133d 201f 74bc 268f dcbd 90ab 58bd
000002e0: 9b17 21bc 07d4 353d f6e7 4a3d 1b2b 0bbc
000002f0: d014 94bd 6b05 21bf 162c c93e ed56 d83d
00000300: 5382 4b3f 73c6 06be 9ac4 20bd 1c1b 31bc
00000310: 3a0c 52bf 7afe 76bd 6fe6 063e 8ee9 593e
00000320: 2ee9 71be acf6 e9bb 8a2e 07be f797 7e3e
00000330: d0ff 16bc 5504 893e 8587 03be 413f 623e
00000340: 5d2f 40be 211c 6bbe 2d5d 5fbd 6d1b a73d
00000350: 71c6 7bbe 84af f43d 4e53 fe3e 94df 2ebe
00000360: dcee 193e ff9f 66be e463 2b3c f186 e5bd
00000370: 4c8d f03c 3920 0cbe 091f 74bc 8543 8d3e
00000380: 6dc7 bdbd a74f ed39 f0b8 ec3c 246b 06be
00000390: 16c2 abbe 1933 f4bd f915 193e 2011 b6bc
000003a0: b9f0 0c3f 27f8 43be bd71 63bd f824 cbbc
000003b0: b7c5 babb 6697 35bd 0a5b 0c3e 116e 20be
000003c0: 2a7b 1bbe 5c8f 94be d45d 253e 11d8 d33d
000003d0: ac8d de3c 293d 8b3e 57a8 5e3d 0a67 303e
000003e0: e2c5 60be b395 09bd e3cb 393d a340 fc3c
000003f0: e7d6 3b3e 0096 bf3d b2c9 233e c89e bdbd

weight f4 [1, 62]
-0.23799495 0.53612995 -0.57327515 0.37576547 0.056083642 0.27534804 -0.55303675 0.5347695
0.35738412 0.51411366 -0.5006042 0.63028014 0.57114524 -0.048406605 0.16103639 -0.22981218
-0.54373866 0.53653413 0.34348294 0.39210594 -0.31211054 -0.32302362 -0.6551155 0.6458307
-0.42231545 -0.40419167 -0.45353848 -0.37196788 -0.07262379 -0.2971114 -0.100807786 -0.7025078
0.025700869 0.5029078 0.21049346 -0.47722408 -0.42047468 0.4687377 0.5075214 -0.4970454
-0.337381 -0.41474143 0.23217666 0.5726131 0.21728632 -0.35562915 0.49005818 -0.212088
-0.38316593 0.10470381 -0.63455385 -0.060393937 -0.3812982 0.56431234 -0.5364873 0.013335496
-0.013557614 -0.57250184 0.31787887 0.44674486 -0.1640493 -0.1246213
00000000: f3b4 73be d03f 093f 29c2 12bf 5564 c03e
00000010: f6b7 653d 6bfa 8c3e d193 0dbf a7e6 083f
00000020: 0dfb b63e f49c 033f 9927 00bf 0a5a 213f
00000030: 9336 123f 0146 46bd b9e6 243e e253 6bbe
00000040: 7532 0bbf 4d5a 093f ffdc af3e 1cc2 c83e
00000050: f4cc 9fbe 5a63 a5be a6b5 27bf 2955 253f
00000060: bb39 d8be 36f2 cebe 3236 e8be 9372 bebe
00000070: c8bb 94bd fc1e 98be 5074 cebd 8dd7 33bf
00000080: a18a d23c 91be 003f 998b 573e b756 f4be
00000090: 7548 d7be 63fe ef3e ecec 013f bc7c febe
000000a0: 34bd acbe fd58 d4be b8bf 6d3e c696 123f
000000b0: 4e80 5e3e 0615 b6be e8e8 fa3e 992d 59be
000000c0: 532e c4be f36e d63d 1f72 22bf a25f 77bd
000000d0: 8539 c3be c676 103f 3b57 09bf 207d 5a3c
000000e0: c120 5ebc 7b8f 12bf 05c1 a23e bebb e43e
000000f0: 8afc 27be 7439 ffbd
