gcn_pokec1.pth (torch, 73631 bytes, 3 tensors)

bias f4 [62]
00000000: dbaa 3d3a 6045 a83a 2ad7 a63a c1ba d5b9
00000010: 96ba c5b8 a972 023a 597a 8cba 1a36 8f39
00000020: 3a02 bbba b48d d93a c5a9 4bba 43a0 633a
00000030: 012d 38b9 11c7 88ba 8cac 203a fa63 b4ba
00000040: 25e9 a83a c85e b7ba b668 c8ba c9dd b03a
00000050: 1072 c5b9 373f f0ba 47c9 ecba b7b5 4e3a
00000060: 17dc ff3a b74a caba ac8e 62ba 7a5f 043b
00000070: c75b 4c3a 02cd bd3a edeb d2ba f80b 64ba
00000080: 2657 c8ba 6b6b f53a ed25 71b9 6442 b6ba
00000090: 3898 9dba 26c4 e63a 9a2a 033b eafe a83a
000000a0: c034 d13a be55 3aba 3715 c23a 3de1 92ba
000000b0: 5b50 a43a a459 cab8 6d39 3eba 92b1 abba
000000c0: 2295 f33a f79b 273a ff86 83ba 871c 6fba
000000d0: b3d3 d13a a3ae e83a 1bbe cd3a 7757 e1ba
000000e0: ef94 9fba de2c ed3a 9983 d8ba 869a efba
000000f0: 88de f13a 3526 f4b9
0.0007235237 0.0012838058 0.0012728919 -0.00040765668 -9.428446e-05 0.0004976192 -0.0010717615 0.00027315394
-0.0014267631 0.0016598017 -0.0007769133 0.00086832437 -0.00017564373 -0.0010435303 0.0006129227 -0.0013762705
0.0012886865 -0.0013990039 -0.0015289995 0.0013493832 -0.0003765975 -0.0018329386 -0.0018065356 0.0007885354
0.0019520548 -0.0015433644 -0.00086424756 0.002019851 0.00077956583 0.0014480653 -0.001609204 -0.0008699293
-0.0015284761 0.001872403 -0.0002299768 -0.0013905284 -0.0012023514 0.0017606064 0.0020014406 0.0012893353
0.0015961155 -0.00071081135 0.0014807348 -0.0011206042 0.0012536155 -9.6488075e-05 -0.0007256482 -0.0013099185
0.0018583874 0.0006393785 -0.0010034739 -0.00091213774 0.0016008526 0.0017752241 0.0015696915 -0.0017192204
-0.0012175123 0.0018095037 -0.0016518711 -0.0018280305 0.001845316 -0.00046567773

weight f4 [62, 277]
00000000: 9d7e f23c f6a9 e63d 6d37 acbd 6d45 71bd
00000010: f2e5 4cbd 7a91 21bd 9c2d b93d 3417 c33c
00000020: 3143 d33c 3222 50bd c706 a23d fb89 56bd
00000030: 645e 8fbd 1605 8f3d 38cd 5abd 6784 753d
00000040: 9bb3 2abd d16f 353d b8a7 653b 8fb7 163d
00000050: 0d33 edbd 7070 9ebd add8 b6bd a477 1d3c
00000060: d616 683a 38ac 4d3d 6ca2 873d 130d 623d
00000070: 0010 8abb a376 9dbd 7d00 ddbd 7937 333d
00000080: b256 bc3d d7b1 4bbd 4292 a13d 217f 85bc
00000090: 859b 7bbc eb24 8f3d 587d a7bd e5e6 91bd
000000a0: 780a 863d a839 333c 2b39 913d 9393 6f3d
000000b0: fed3 d03d c5f0 2d3d b223 023d f6f6 913d
000000c0: 66bc 453d 9cbf a4bd b693 0b3d 6f66 1a3d
000000d0: 3b14 ec3a 4409 ba3c d1d8 63bd c7be 0cbd
000000e0: 03d0 393c 1b67 a2bd d343 853b f73a d53c
000000f0: bc27 ef3c a62c 793c 34cc 163d db27 753a
00000100: c4b1 55bd 708b 8f3d 2d4b 55bd 6366 9f3d
00000110: f99f 523c 4fef d7bc 7b7d d33d d050 30bb
00000120: 2bb5 2d3c 6166 723d 0d58 48bd 3113 193d
00000130: 6ae5 c53c b03c c5bd 64d6 4e3d ca46 5ebd
00000140: b4c8 983c 5432 f9bd 99eb 9dbd 8cb5 9c3d
00000150: 3d4b ca3d 05df 9abd 4349 e4bd 0edf 67bd
00000160: c977 9d3d ba5c aebd 7250 5cbd d871 9cbb
00000170: 2ebf 493c c620 70bd 409b c23c 4af8 cdbd
00000180: 6daf a23d 988f 06bd 8027 843d 8877 0e3b
00000190: da92 b3bd 3f63 cebc 8acd eb3c fd6e 583d
000001a0: ce1e 59bc 06a0 01be f7a9 3a3d af98 5fbc
000001b0: ba86 47bd 692b be3d 146a 65bd 248b df3c
000001c0: 0cbe a2bd 90bc 853d 9ba7 b53d 4b02 8b3d
000001d0: 306c 8c3d 8d4e 7dba df68 073e 5128 4bbd
000001e0: 74f3 053d 85e0 033d 4521 a53c 88b4 e43a
000001f0: ef3e fdbd b90c d03d e1c2 843c be8e 9ebc
00000200: d13b 7a3d 3115 aa3b 31a5 0dbd 8880 b03b
00000210: 9cc5 d3bb 7e88 d1bd 75f0 4f3d 22d1 bdbd
00000220: 8bd3 383c ca7e 76bd 9cbf 7c3d 3f50 6d3d
00000230: 79db 9bbd 55fc babd 90d8 3f3b 4129 8abd
00000240: 8539 463d 32df 983d 0dd6 e83c 9113 25bd
00000250: 2c5d 083e e8be 043d a4c8 aabd ff89 75bd
00000260: 9b10 6e3d e949 663d 4b5d 023d 3ff4 c3bd
00000270: 5ab5 84bc c57e 183c 6d13 753d a6b4 c0bc
00000280: 3880 98ba 9ed3 2a3d 256a e2bc 952d 5f3d
00000290: a738 9fbd c105 e5bd 8fe7 973d 475f afbd
000002a0: 0417 423d 8a43 d73c 7fb0 ae3d a70d 24bc
000002b0: 2669 8c3d 4026 3ebd 2db6 7bbd 3f3e 643c
000002c0: 2c41 6f3b 77be 013c 2ee1 f13c 3fe5 913b
000002d0: 3a5a 883d c828 80bc 9dd8 5abc bd9c fc3c
000002e0: 2a12 d33d 6bd7 94bd 57bd 793d 997f 883c
000002f0: 9827 bc3d 278e 8f3d 67c6 34bd 7b16 ddbb
00000300: 5b15 6dbd 4e11 863c 20f3 1ebd 91ac 05bd
00000310: 68e2 ea3c 3368 adbd c94c 86bc 083d a23d
00000320: 6b24 22bc 1225 e63c 4901 7c3d 15f8 653d
00000330: ada5 733d c215 a0bd ff3e 8fbd d6ff e33d
00000340: 01fd 5ebd f192 4f3c 4522 d6bd 29ae 453c
00000350: 8912 b3bd 687a 423d 5f98 0e3d 5d62 173b
00000360: b288 253d 1560 ad3d 0410 a73b d6a9 80bd
00000370: 6222 403d 14e9 533b 6ec5 993d 711f e6bd
00000380: dbaf 40bd f777 92bd 7300 57bd d749 353d
00000390: bbe7 eaba d4d0 283d 8331 bebd 9f9c 813b
000003a0: a798 5f3d f597 683c a033 993d 9908 c1bd
000003b0: c421 f43c c469 93bc 0f95 1fbd d468 b03d
000003c0: 1e59 6cbd 942e 1fbd 9d05 3fbd 0d00 5dbd
000003d0: 9f1a 82bd a823 60bd f222 d13c 7eec 37bb
000003e0: 7cda afbd 60c3 953d 8c84 a43d 1983 70bd
000003f0: 691e f93c 9c08 1dbd 6f05 adbc 88bd abbd
0.02960139 0.11262886 -0.08409009 -0.0589041 -0.05002398 -0.039445378 0.090419024 0.023814775
0.025788875 -0.05081386 0.07911449 -0.052377682 -0.070004255 0.06983392 -0.053418368 0.05994072
-0.04167519 0.04429609 0.0035042595 0.03679615 -0.11582003 -0.077362895 -0.089280464 0.009611044
0.00088535005 0.05021307 0.066227764 0.05518825 -0.004213333 -0.07688644 -0.10791109 0.043754075
0.09196223 -0.04973015 0.078892246 -0.016295971 -0.015356903 0.069894634 -0.08178204 -0.07124118
0.065449655 0.010939039 0.07090982 0.058490347 0.10196684 0.042465944 0.031772323 0.07127182
0.048275374 -0.08044359 0.034076415 0.037695345 0.00180114 0.022709496 -0.055626694 -0.034361627
0.011341098 -0.07929822 0.004066923 0.026029093 0.029193752 0.015208399 0.036815837 0.0009351947
-0.052171484 0.070090175 -0.052073646 0.077832006 0.012855523 -0.026359228 0.10326668 -0.0026903637
0.010602276 0.059179667 -0.048912097 0.037371818 0.024157245 -0.09630716 0.050497428 -0.05426673
0.01865039 -0.121678025 -0.07710952 0.07651815 0.09877632 -0.07562069 -0.11146786 -0.056609206
0.07688863 -0.0851378 -0.053787656 -0.0047743134 0.012313647 -0.058625005 0.02375567 -0.10057123
0.07943616 -0.032851785 0.064528465 0.0021738727 -0.08768244 -0.025193809 0.028784532 0.05284022
-0.013251973 -0.126587 0.045572247 -0.013647242 -0.04871247 0.092856236 -0.056009367 0.027288027
-0.07946405 0.06530106 0.08869859 0.06787547 0.06856573 -0.0009662889 0.13223599 -0.049598996
0.032702878 0.03219654 0.020157466 0.0017448822 -0.12365519 0.10158677 0.016206207 -0.019355174
0.0610922 0.0051905145 -0.034581367 0.005386416 -0.006462766 -0.10231112 0.050766427 -0.092684045
0.0112809045 -0.06017951 0.06170617 0.057937857 -0.076102205 -0.0913016 0.0029273368 -0.0674615
0.0483947 0.07464446 0.02842238 -0.040301863 0.13316792 0.032408625 -0.083390504 -0.059946056
0.058121305 0.05622283 0.031827252 -0.095680706 -0.016199756 0.009307568 0.05983298 -0.02352364
-0.0011634892 0.04170572 -0.027638504 0.05448683 -0.077744775 -0.11182738 0.07417213 -0.085630946
0.04738523 0.026277322 0.08529758 -0.010013021 0.06855993 -0.046423197 -0.061453033 0.013930856
0.0036507351 0.0079189455 0.02952632 0.004452377 0.06657834 -0.015644446 -0.013357309 0.030836457
0.10306199 -0.0726765 0.060971584 0.016662406 0.091872394 0.07009535 -0.044134524 -0.0067470646
-0.057881694 0.016365673 -0.03880608 -0.032635275 0.028672412 -0.0846714 -0.016394036 0.07921797
-0.009896378 0.028093848 0.061524663 0.056144793 0.059484173 -0.0781665 -0.069944374 0.11132781
-0.054440502 0.012669311 -0.10455755 0.012065449 -0.0874377 0.047480017 0.03481328 0.00230994
0.040413566 0.08465592 0.0050983448 -0.06282394 0.04690779 0.003233497 0.0750836 -0.11236466
-0.04704271 -0.07151788 -0.052490663 0.044259872 -0.0017921844 0.04121478 -0.09286787 0.0039554383
0.05458894 0.014196386 0.0748055 -0.09425468 0.029801257 -0.017994769 -0.038960513 0.086137444
-0.057702176 -0.03886278 -0.046636213 -0.053955127 -0.06352734 -0.054721504 0.025529359 -0.0028064544
-0.085865945 0.073126554 0.08033094 -0.058718774 0.030410009 -0.03833829 -0.021120755 -0.083857596

weight f4 [1, 62]
00000000: cde8 34be 8660 68be 6a24 44be 1306 a2be
00000010: 433f 3f3e 5174 6e3d cfc4 893d ab15 8bbe
00000020: 238f 443e c1cf 63be 80cc adbd 1908 bb3d
00000030: 1639 4f3e c219 303e a21a ecbd 0d94 613e
00000040: 27bd 2b3e de4d 553e 0b57 603e c48d 65be
00000050: 0aac c2bd 3a40 9a3e e4f6 893e e913 fbbd
00000060: ab5a 79be dfc9 a1bd 5413 7d3e 7c59 90be
00000070: c725 313e 598f 51be 2e34 383e eed3 433e
00000080: 1fee ad3e a996 86be 0ea9 08be f6f7 3b3e
00000090: 5af6 de3e 9978 87be 2ce3 89be 35ab 3abe
000000a0: 844e 023e a210 733e 55ea 6ebe 03d6 b33e
000000b0: 9f59 67be ca54 0e3e 299f ae3e 3e37 dc3d
000000c0: b6c2 8cbe 8741 0bbe 1b05 58bd d22e 643e
000000d0: f75b b7be e1b9 4cbe 0453 7fbe 2484 a83e
000000e0: 8310 4ebd bc5d 88be f07e 793e 2a9f 933e
000000f0: 7085 49be 1cf3 2c3e
-0.17666931 -0.22693071 -0.19154516 -0.3164526 0.18676476 0.058216397 0.067269914 -0.2716497
0.19195227 -0.2224722 -0.08486271 0.09132404 0.2023662 0.17197326 -0.11528517 0.22029133
0.16771375 0.20830485 0.21908204 -0.2241736 -0.0950547 0.30127126 0.26946175 -0.12259657
-0.24350993 -0.07899832 0.24714404 -0.2819327 0.17299567 -0.20464839 0.17988655 0.19123814
0.33970734 -0.2628682 -0.13345739 0.18356308 0.43547326 -0.26459196 -0.2693113 -0.18229373
0.12725264 0.23736814 -0.23331578 0.35124215 -0.22592781 0.13899532 0.34105805 0.10752724
-0.27492303 -0.13599215 -0.052739244 0.22283486 -0.3581235 -0.19992782 -0.24934012 0.32913315
-0.050308716 -0.26634014 0.24364829 0.2883237 -0.19679809 0.16889614
