gcn_nba.pth (torch, 28511 bytes, 3 tensors)

bias f4 [62]
0	0xbe424ef6	-0.18975434
1	0x3e51f044	0.2050181
2	0x3e7316c2	0.2373915
3	0xbe4c6dae	-0.19963714
4	0xbe6789ce	-0.22611162
5	0x3e8a52c0	0.27016258
6	0x3e56ff1f	0.20995758
7	0xbe7dbf2e	-0.2477996
8	0xbe45c359	-0.193128
9	0xbe8feecd	-0.28111878
10	0x3ea1f85e	0.31634802
11	0x3ecfb9d3	0.4057146
12	0xbe4a4db5	-0.19756205
13	0x3ec21d6f	0.3791308
14	0xbec324cb	-0.38114008
15	0xbe3c049b	-0.18361132
16	0x3e4b0796	0.19827113
17	0xbe4a696d	-0.19766779
18	0xbed4d020	-0.41565037
19	0xbe3c8591	-0.18410327
20	0xbe455c89	-0.1927358
21	0x3e48fb79	0.19627179
22	0x3e7afc66	0.24510345
23	0x3e47b300	0.19501877
24	0x3e3c3d12	0.18382671
25	0x3e7bca1c	0.24588817
26	0x3e495d26	0.1966444
27	0x3e4066c1	0.18789198
28	0x3ee8fb27	0.45504114
29	0xbe403641	-0.18770696
30	0x3edf181d	0.43573084
31	0x3e42df75	0.19030555
32	0xbe65c6b7	-0.22439085
33	0xbe9a66c5	-0.30156532
34	0xbe611b5f	-0.21983097
35	0xbe54f5d7	-0.20796905
36	0x3e60157b	0.21883194
37	0x3e6664cb	0.22499387
38	0x3e54a024	0.20764214
39	0x3e45e314	0.19324905
40	0xbe7699c9	-0.24082102
41	0xbe70ee56	-0.23528418
42	0x3e2bcf38	0.16778266
43	0x3e49be88	0.19701588
44	0xbe494cd0	-0.19658208
45	0xbe55fbd8	-0.20896852
46	0x3e4d8777	0.20071207
47	0xbe4b8b18	-0.19877279
48	0x3e7a1a80	0.24424171
49	0x3e6cd349	0.23127474
50	0xbe44bf32	-0.1921356
51	0xbe5d57c4	-0.21615511
52	0x3e52fa33	0.20603256
53	0x3e4ad497	0.19807659
54	0x3e38cfbd	0.18047996
55	0x3e302362	0.17200997
56	0x3e62123d	0.2207727
57	0x3e74eb8e	0.23917982
58	0xbe554fac	-0.20831174
59	0xbe37d2c5	-0.17951496
60	0xbe39dbe1	-0.18150283
61	0xbe8c9fc8	-0.27465653

weight f4 [62, 95]
0	0x3df40fd2	0.1191708
1	0x3e2e62b0	0.17029834
2	0x3da78ba2	0.0818093
3	0x3dbf9d10	0.09356129
4	0x3cec39fd	0.028836245
5	0xbdf9bad0	-0.12193835
6	0xbd2aaecf	-0.041670617
7	0xbdadc1a8	-0.084842026
8	0xbcf67c5f	-0.030088602
9	0xbe338c26	-0.17533931
10	0xbec617d9	-0.3869007
11	0xbde32edd	-0.11092923
12	0x3d89341b	0.066993915
13	0xbe5374c5	-0.20650013
14	0xbdf527ab	-0.11970457
15	0xbdac6489	-0.08417613
16	0xbca94e05	-0.020667085
17	0xbe0d282e	-0.13784859
18	0xbe1baf04	-0.15203482
19	0x3e9d98dd	0.30780688
20	0xbd85dd73	-0.06536379
21	0xbc51c5c3	-0.012803498
22	0xbd7aa7c6	-0.061195157
23	0x3d926958	0.07148999
24	0xbc42f6b2	-0.011899637
25	0x3d886e6e	0.06661688
26	0xbde0fc86	-0.10985665
27	0xbe54a02b	-0.20764224
28	0x3d06ff2f	0.032958206
29	0xbe25e929	-0.16202225
30	0xbe960c88	-0.29306436
31	0x3dcc9d3e	0.09990929
32	0x3eaccc90	0.3374982
33	0x3e1ddc9e	0.1541619
34	0x3e147b76	0.14500222
35	0xbc8a6286	-0.016892683
36	0x3e14ca71	0.1453035
37	0xbc8da98a	-0.017292757
38	0xbe86b5dc	-0.26310623
39	0xbc824220	-0.015900671
40	0x3d98afb0	0.07455385
41	0xbd1ef909	-0.038811717
42	0xbdc32452	-0.09528412
43	0x3db0ea14	0.08638397
44	0x3d2f1bef	0.04275125
45	0xb99932c6	-0.00029220263
46	0xbdc1cb75	-0.094626345
47	0xbe0d7580	-0.13814354
48	0x3e0efba5	0.13963182
49	0x3e1da143	0.15393548
50	0xbcfdb870	-0.030971736
51	0xbe2104d0	-0.15724492
52	0x3e1f1ddf	0.15538739
53	0xbd93975c	-0.07206604
54	0xbe0659e1	-0.13120224
55	0xbdfb8ba5	-0.122824945
56	0xbd193fec	-0.037414476
57	0x3cf3560d	0.029704118
58	0x3c9a79d3	0.018856918
59	0x3e049709	0.1294824
60	0xbbc90bf0	-0.0061354563
61	0x3d29356b	0.04131071
62	0xbdf18ecf	-0.11794817
63	0xbe21aeca	-0.15789333
64	0xbd8fdb7b	-0.070242845
65	0xbe51401b	-0.2043461
66	0x3e1d9f4a	0.15392795
67	0xbe11c7a1	-0.14236309
68	0xbdb8fe44	-0.09032872
69	0xbd3107d0	-0.04322034
70	0x3d969a6a	0.07353671
71	0x3bc64630	0.0060508475
72	0x3d7c90c0	0.06166148
73	0xbe46af52	-0.19402817
74	0x3c8e7c1c	0.017393164
75	0xbde530d5	-0.111909546
76	0xbe12da97	-0.14341198
77	0xbde90a2e	-0.11378895
78	0xbdde7885	-0.10862831
79	0xbdccf7c6	-0.100081965
80	0x3c77d5e7	0.015126682
81	0x3d925ee1	0.07147003
82	0xbd9a921e	-0.07547401
83	0xbc6463cb	-0.013939808
84	0x3e55eccc	0.20891112
85	0xbe099b7c	-0.13438219
86	0xbe2e0c56	-0.16996893
87	0x3d964c16	0.07338731
88	0x3c8b1e36	0.01698218
89	0x3cdfff03	0.027343279
90	0x3dee1d2c	0.11626658
91	0xbd03e068	-0.032196432
92	0x3e266e58	0.1625303
93	0xbceb1602	-0.028697018
94	0x3ca6015b	0.020264318
95	0xbecd8628	-0.40141416
96	0xbda9d9f7	-0.082935266
97	0x3d385db7	0.04501125
98	0xbd8c3d3d	-0.06847618
99	0xbe536cfe	-0.20647046
100	0x3e1201ba	0.14258471
101	0x3d9e41c7	0.0772739
102	0xbe2aef10	-0.16692758
103	0x3bc6cd34	0.0060669426
104	0xbdf4aeef	-0.119474284
105	0x3ef211e4	0.47279274
106	0xbd97976f	-0.074019305
107	0x3d75cf4c	0.060012147
108	0x3e1a11b4	0.15045816
109	0xbc2b9846	-0.010473317
110	0xbe75f0b8	-0.24017608
111	0xbc0d16ae	-0.008611364
112	0xbdc9b3c8	-0.09848744
113	0xbd80b1a0	-0.06283879
114	0xbeacb646	-0.33732814
115	0xbcc75c2a	-0.02433594
116	0x3a85fb8b	0.001022206
117	0x3e692706	0.22768793
118	0xbd10d650	-0.035360634
119	0xbd349e6a	-0.044096388
120	0x3cf52e67	0.029929353
121	0x3e5501ec	0.20801514
122	0xbdcc1ab7	-0.09966033
123	0xbcd2eab6	-0.025746685
124	0xbd61cde4	-0.055127993
125	0x3ec91cf0	0.3927989
126	0xbe0ee03d	-0.13952728
127	0xbe7be619	-0.24599494
128	0x3c292d4b	0.01032574
129	0xbdace385	-0.084418334
130	0xbe28160b	-0.16414659
131	0xbe144d88	-0.14482701
132	0x3de7ed9e	0.11324619
133	0x3e153dec	0.14574403
134	0x3e4b6026	0.19860896
135	0x3e26a798	0.1627487
136	0xbdfe48e9	-0.1241625
137	0xbd38dfba	-0.045135237
138	0x3e380786	0.1797162
139	0x3e5ac7d5	0.21365292
140	0x3de85f9a	0.113463596
141	0x3db9337a	0.090430215
142	0x3c363cec	0.011122923
143	0xbc921a7a	-0.01783489
144	0x3e16dc0d	0.1473238
145	0xbca20b19	-0.019780682
146	0x3e369499	0.17830123
147	0xbda1f4aa	-0.07907994
148	0x3db7d9b7	0.08977073
149	0x3e1ec6b4	0.15505487
150	0x3dceba15	0.10094086
151	0xbd8f6750	-0.07002127
152	0x3c128b8e	0.008944405
153	0xbe642b35	-0.22282107
154	0xbe2059b0	-0.15659213
155	0xbe47a9e4	-0.19498402
156	0x3d6b2b49	0.057414327
157	0x3e21155a	0.15730801
158	0xbcb3b8ac	-0.021938644
159	0x3dc69047	0.096954875
160	0x3d263643	0.04057909
161	0xbe7c382f	-0.24630807
162	0x3e4342e3	0.19068484
163	0xbd896233	-0.06708183
164	0xbca9948d	-0.020700717
165	0x3d94aa9b	0.07259103
166	0x3da5bbad	0.08092437
167	0xbd88759a	-0.06663056
168	0x3e9b4134	0.30323184
169	0xbc8c4191	-0.017121108
170	0xbe1d6484	-0.15370375
171	0xbdc885b7	-0.09791129
172	0xbd902efe	-0.07040213
173	0x3d88bd9f	0.06676792
174	0xbd20ae72	-0.039228864
175	0x3e3dbe5a	0.18529645
176	0xbc088dad	-0.008334559
177	0xbdc50a1d	-0.096210696
178	0x3e08d472	0.13362291
179	0xbdb8fa75	-0.09032146
180	0x3d7375f9	0.05943868
181	0x3dc85304	0.09781459
182	0x3e4dfa05	0.20114906
183	0xbd5a12cc	-0.053240582
184	0x3c52dd4f	0.012870147
185	0x3db1b431	0.08676947
186	0xbd2374f2	-0.03990645
187	0x3abe2fd3	0.0014510102
188	0xbe51a06a	-0.2047135
189	0x3df12736	0.11775057
190	0xbec8fbd6	-0.39254636
191	0xbc24179c	-0.010015395
192	0x3d8dbbcf	0.06920587
193	0x3dd8e451	0.10590423
194	0xbc62609f	-0.013816982
195	0x3e46c4a7	0.19410954
196	0x3e78a61f	0.2428212
197	0xbe93da96	-0.28877705
198	0xbd0d00e5	-0.03442468
199	0xbd543b58	-0.051814407
200	0x3f06edda	0.5270668
201	0x3cac3054	0.021019138
202	0xbcfe0d7f	-0.031012295
203	0x3d7801c5	0.060548563
204	0xbceafdc2	-0.028685454
205	0xbe7ce2dc	-0.24695915
206	0x3c4f1124	0.012638364
207	0x3e011cb7	0.1260861
208	0xbce24cd0	-0.027624518
209	0xbf13ae3b	-0.5768773
210	0xbdf67123	-0.12033298
211	0xbc249318	-0.0100448355
212	0x3e9ead8b	0.30991778
213	0x3e0876fe	0.13326642
214	0x3de14696	0.10999791
215	0xbdb197c3	-0.086715244
216	0x3e3c86ad	0.1841075
217	0xbb3c5947	-0.0028739737
218	0x3e67158d	0.22566815
219	0xbcd78785	-0.026309738
220	0x3e696664	0.22792965
221	0xbe6c9fa9	-0.2310778
222	0xbe863f42	-0.26220137
223	0xbda2d816	-0.07951371
224	0xbdb9cf36	-0.090727255
225	0xbe30cc86	-0.1726552
226	0xbe5587a7	-0.20852529
227	0x3dcb93fd	0.09940336
228	0x3e5e8824	0.21731621
229	0x3e03929b	0.12848894
230	0xbd946835	-0.072464384
231	0xbd25b241	-0.0404532
232	0xbe0017fb	-0.12509148
233	0x3daff00c	0.08590707
234	0xbc97c719	-0.018527554
235	0x3d72737e	0.059192173
236	0xbdd8f7c6	-0.10594134
237	0xbd2d3eaa	-0.04229609
238	0x3d3fe618	0.046850294
239	0xbd00c4e0	-0.031437755
240	0xbe478085	-0.1948262
241	0xbdf735a5	-0.12070779
242	0x3dd3d428	0.103432
243	0x3e264566	0.16237411
244	0x3da3d256	0.07999103
245	0x3e3f636f	0.18690275
246	0x3e1b1e28	0.15148222
247	0xbd682deb	-0.056684416
248	0x3d4d67f1	0.050147954
249	0x3dfa8f24	0.12234333
250	0xbdfd469d	-0.12366984
251	0xbbcb6e4a	-0.006208216
252	0x3dccbdd7	0.099971466
253	0x3dc689be	0.09694241
254	0xbe4d9f81	-0.20080377
255	0xbd24684a	-0.04013852

weight f4 [1, 62]
0	0x3ea00544	0.31254017
1	0xbea4daad	-0.32198086
2	0xbe63fe10	-0.22264886
3	0x3e906874	0.2820469
4	0x3f5c7719	0.8611923
5	0xbf561099	-0.83619076
6	0xbec5ac22	-0.3860789
7	0x3f068f68	0.5256257
8	0x3ec3e991	0.38264135
9	0x3f0c1edf	0.54734606
10	0xbf043668	-0.5164552
11	0xbf5491d5	-0.8303502
12	0x3e27fc5c	0.16404861
13	0xbf66ca9d	-0.90152913
14	0x3f32860f	0.6973581
15	0x3e8d5883	0.27606592
16	0xbeb78578	-0.35844016
17	0x3ea36789	0.3191493
18	0x3f54d012	0.8312999
19	0x3d9c831c	0.07642195
20	0x3e8c9bc2	0.27462584
21	0xbf04133b	-0.51591843
22	0xbeb00a9f	-0.34383103
23	0xbee92ed9	-0.45543554
24	0xbec6a2ad	-0.38795987
25	0xbe8595a8	-0.2609074
26	0xbe67fbf2	-0.22654703
27	0xbe9a1a8f	-0.30098388
28	0xbf5b762a	-0.8572718
29	0x3e8d5446	0.27603358
30	0xbf501998	-0.8128905
31	0xbee9b676	-0.4564702
32	0x3f5c5c09	0.86077935
33	0x3f58c19b	0.8467042
34	0x3e5a7f28	0.21337569
35	0x3e910191	0.28321508
36	0xbeb4aaa7	-0.35286447
37	0xbf04ea98	-0.5192046
38	0xbede8a4f	-0.43464896
39	0xbebc0ad4	-0.3672701
40	0x3f682c8a	0.9069296
41	0x3f827714	1.019259
42	0xbf42ce52	-0.7609607
43	0xbeb3cb75	-0.35116163
44	0x3f0889ae	0.5333508
45	0x3ed13479	0.40860346
46	0xbea5bb37	-0.32369396
47	0x3ea90f2c	0.33019388
48	0xbe7b3b0e	-0.24534246
49	0xbf41f6eb	-0.7576739
50	0x3e4415ce	0.19148943
51	0x3e7c9d9d	0.246695
52	0xbf445572	-0.7669288
53	0xbeb3c5c3	-0.35111818
54	0xbe51e820	-0.20498705
55	0xbf12a85d	-0.5728815
56	0xbe69cd02	-0.2283211
57	0xbe8d4638	-0.27592635
58	0x3f07d06e	0.53052413
59	0x3e42aa8f	0.19010375
60	0x3e8beb9f	0.27328202
61	0x3e999e90	0.30003786
