gcn_income.pth (torch, 6193 bytes, 3 tensors)

bias f4 [16]
0.01156146 -0.016363736 -0.010470071 0.04467749 -0.013107288 -0.010261187 -0.013834738 0.016416619
0.016983239 0.014423953 0.012855135 -0.017420623 0.012351953 0.014523836 -0.01446354 0.0160989
00000000: 476c 3d3c 3e0d 86bc a98a 2bbc beff 363d
00000010: f3bf 56bc 8a1e 28bc 19ab 62bc 257c 863c
00000020: 6f20 8b3c 7252 6c3c 589e 523c b2b5 8ebc
00000030: d95f 4a3c 62f5 6d3c 7cf8 6cbc d7e1 833c

weight f4 [16, 14]
0.28966516 -0.21149185 -0.08958522 0.27700064 0.73893756 0.19796738 -0.054637156 -0.4640029
0.39477596 -0.06805262 -0.10677282 0.13720632 -0.09022279 0.32144853 0.17617948 -0.41135427
-0.3496083 -0.047038514 -0.13754608 0.17864843 -0.12996624 0.1271671 -0.37039843 -0.35047427
-0.34793597 0.31481725 0.19375566 -0.18566293 -0.0720789 0.08462373 0.029073972 -0.16246818
-0.18373968 0.5115275 0.007951594 0.097080566 0.43542388 0.35141355 -0.32283342 0.35761687
-0.12620252 -0.3224816 0.13401964 -0.20121899 -0.0903472 -0.035956025 -0.5061607 0.49963582
0.0033996457 0.5847821 -0.19781381 -0.06633719 -0.48515362 -0.06856329 -0.4982507 -0.15481769
-0.1873901 0.047939014 0.35554305 0.14303948 -0.5625059 0.026428204 -0.20962192 0.5179108
-0.042713143 0.06189292 -0.07470841 -0.32118675 0.01168247 0.17764539 -0.072016105 -0.29886615
-0.19197868 0.04035155 -0.6993679 0.014768962 -0.00082055165 0.031094253 0.14440076 -0.13147478
-0.15224929 -0.20139599 -0.6186427 0.2821833 -0.0015598068 0.28075165 -0.067229636 -0.0994266
-0.74351513 0.021207184 0.13793851 -0.31577355 -0.10994865 0.23024355 0.18706661 0.121281594
-0.26102895 -0.06950399 0.015741022 -0.07234024 0.17936623 -0.13831495 0.08981961 -0.10041902
-0.24070005 -0.21690828 0.18120198 0.20370808 0.4367466 -0.2543369 0.1993246 -0.08455667
-0.14635304 -0.15517631 0.10435359 0.05855219 0.08743661 -0.49832943 -0.2576369 0.31729934
-0.1228357 -0.060284123 -0.100232534 -0.17510141 -0.2132753 -0.2142487 0.3583108 0.17472729
-0.15070744 -0.16562244 0.64497954 0.11275531 0.27784118 0.0060538175 0.17067496 -0.0017653274
-0.18758567 -0.3869236 0.46363223 -0.018088708 0.2751302 0.109224 -0.39224306 -0.22950624
0.5421212 -0.3280516 -0.3164898 0.012357875 -0.023309672 -0.115918644 0.26185852 0.13572155
0.0690107 0.44560885 0.11344389 -0.03610004 -0.0834964 -0.37358975 -0.0103961695 0.10043323
-0.1897383 0.4166579 0.20408776 0.07026766 -0.16218352 -0.18547495 -0.13396645 0.28635666
0.15735866 -0.09901296 0.42702505 -0.014690912 0.77600574 -0.138103 0.15893872 0.10175754
-0.2659792 0.3317352 0.09685244 -0.2922875 0.14056595 -0.30835778 -0.12948412 -0.1992608
0.28528434 -0.086688705 0.2775171 0.0079657575 0.06023916 -0.40727925 0.11877693 0.21752977
-0.26904097 0.4028916 -0.06352768 -0.11910447 -0.45831734 0.2964913 0.075736366 0.3664058
-0.3620146 0.4669059 -0.07160349 -0.21542294 0.11356766 -0.07006135 -0.12361242 -0.2577725
-0.21050924 0.07013925 0.25953174 -0.23695731 0.20848225 0.042058427 0.67940694 0.08494017
-0.18757801 0.2811326 -0.47932163 0.28728214 0.11277989 0.2509758 -0.018219886 0.3037576
00000000: fe4e 943e 5291 58be 7578 b7bd 07d3 8d3e
00000010: 032b 3d3f f6b7 4a3e 36cb 5fbd ca91 edbe
00000020: 1320 ca3e 2c5f 8bbd b5ab dabd d07f 0c3e
00000030: bac6 b8bd e794 a43e 6568 343e 079d d2be
00000040: dcff b2be 75ab 40bd e1d8 0cbe 9def 363e
00000050: df15 05be 1838 023e dda4 bdbe 5d71 b3be
00000060: aa24 b2be ba2f a13e e267 463e 6c1e 3ebe
00000070: 1a9e 93bd 354f ad3d 8a2c ee3c 0f5e 26be
00000080: 4126 3cbe 77f3 023f 6747 023c 2dd2 c63d
00000090: e1ef de3e 7aec b33e 6c4a a5be 8f19 b73e
000000a0: 3c3b 01be 4f1c a5be 723c 093e 5a0c 4ebe
000000b0: f407 b9bd a046 13bd bf93 01bf 44d0 ff3e
000000c0: 97cc 5e3b 48b4 153f b48f 4abe cbdb 87bd
000000d0: 0e66 f8be e96a 8cbd b71a ffbe 8788 1ebe
000000e0: 31e3 3fbe b35b 443d bd09 b63e f178 123e
000000f0: 6300 10bf f67f d83c 21a7 56be cd95 043f
00000100: faf3 2ebd 6e83 7d3d b900 99bd 9772 a4be
00000110: d567 3f3c ace8 353e 2e7d 93bd fc04 99be
00000120: 0f96 44be ab47 253d c609 33bf 84f9 713c
00000130: 4a1a 57ba 60b9 fe3c cbdd 133e 53a1 06be
00000140: 3de7 1bbe c03a 4ebe 5e5f 1ebf 547a 903e
00000150: 6e72 ccba aebe 8f3e b1af 89bd 2ca0 cbbd
00000160: 0257 3ebf b0ba ad3c c13f 0d3e 12ad a1be
00000170: c22c e1bd f7c4 6b3e 648e 3f3e 7c62 f83d
00000180: 96a5 85be 1c58 8ebd 51f3 803c 1f27 94bd
00000190: c8ab 373e 6fa2 0dbe 58f3 b73d 7da8 cdbd
000001a0: 137a 76be 341d 5ebe 038d 393e da98 503e
000001b0: 409d df3e 7238 82be bf1b 4c3e 0c2c adbd
000001c0: 92dd 15be 8ae6 1ebe 56b7 d53d 6cd4 6f3d
000001d0: f711 b33d 0925 ffbe fce8 83be 0f75 a23e
000001e0: 4991 fbbd 7cec 76bd b746 cdbd c94d 33be
000001f0: d764 5abe 0364 5bbe 8374 b73e b6eb 323e
00000200: 0d53 1abe ee98 29be 611d 253f 42ec e63d
00000210: 3341 8e3e 1a5f c63b 6bc5 2e3e 8f62 e7ba
00000220: 7516 40be da1a c6be 3461 ed3e c52e 94bc
00000230: dedd 8c3e d5b0 df3d 15d4 c8be af03 6bbe
00000240: 74c8 0a3f 61f6 a7be f30a a2be af78 4a3c
00000250: edf3 bebc c166 edbd 5212 863e 97fa 0a3e
00000260: 7b55 8d3d d826 e43e 4555 e83d a3dd 13bd
00000270: 2900 abbd 2847 bfbe b254 2abc f0af cd3d
00000280: c24a 42be 2f54 d53e 62fc 503e 7ee8 8f3d
00000290: 7013 26be 25ed 3dbe 802e 09be 579d 923e
000002a0: a122 213e 4fc7 cabd 07a3 da3e 27b2 70bc
000002b0: 50a8 463f df6a 0dbe d5c0 223e 4266 d03d
000002c0: 6d2e 88be 32d9 a93e 925a c63d b5a6 95be
000002d0: 85f0 0f3e 12e1 9dbe 7c97 04be 060b 4cbe
000002e0: ca10 923e d989 b1bd b916 8e3e cf82 023c
000002f0: 56bd 763d e886 d0be 5241 f33d 20c0 5e3e
00000300: bdbf 89be cf47 ce3e cd1a 82bd 0bed f3bd
00000310: 92a8 eabe b5cd 973e ab1b 9b3d 8b99 bb3e
00000320: fa59 b9be 4a0e ef3e daa4 92bd d597 5cbe
00000330: 2996 e83d 537c 8fbd 8228 fdbd c2fa 83be
00000340: bc8f 57be 2ba5 8f3d 58e1 843e f0a4 72be
00000350: 5f7c 553e 7545 2c3d 9ded 2d3f 1df5 ad3d
00000360: 7314 40be 9df0 8f3e a569 f5be a516 933e
00000370: 25f9 e63d e67f 803e df41 95bc 1e86 9b3e

weight f4 [1, 16]
0.42204252 -0.38684872 -0.29960817 -0.27354342 -0.6625212 -0.38388038 -0.29445985 0.5668246
0.42643666 0.65075606 0.8755638 -0.6196739 0.4786265 0.28904817 -0.6406545 0.39204437
00000000: f515 d83e 0911 c6be 3e66 99be e20d 8cbe
00000010: fd9a 29bf f88b c4be 71c3 96be 6b1b 113f
00000020: e855 da3e f397 263f f324 603f f3a2 1ebf
00000030: 880e f53e 1ffe 933e ef01 24bf 0aba c83e
