gcn_income.pth (torch, 9009 bytes, 3 tensors)

bias f4 [62]
00000000: 9fee 2abb 3c1b d33c 24e2 9d3c db5c e1bc
00000010: 1a6d e13c fdef c3bc 98b3 bb3c 70a5 f3bc
00000020: 1900 b43c 5bcb 7cbc b70a 343c 25e0 bbbc
00000030: 573a b03c 3c14 e13c 9a69 dfbc 3073 be3c
00000040: 3b38 ddbc c329 afbc f9a2 e33c 8825 c93c
00000050: daef a43c ca6a aabc 7001 c23c 38a2 b6bc
00000060: aa1e e43c 6cef 6f3c 2db6 543c 2689 c4bc
00000070: 6eca d03c 3042 de3c deed ccbc 2e1a a13c
00000080: d6f1 d7bc 693b adbc 7a32 d43c 1bc5 ccbc
00000090: b2e4 d5bc 507d c73c b662 e53c 716d a8bc
000000a0: 4026 e2bc 3ff0 d93c 6d79 e2bc 4d0e d43c
000000b0: a5dd dabc c728 35bc d4a4 c93c 579c c1bc
000000c0: 941e acbc 921f cfbc ca84 d03c cea8 c73c
000000d0: a7ff d8bc 42bd b03c 6c56 d33c e19e d0bc
000000e0: 4d1e de3c de2e bc3c 4c9a c3bc 9b10 c13c
000000f0: de62 4ebc 1601 02bc
-0.002608217 0.025769822 0.019272871 -0.027510097 0.027517844 -0.023918146 0.022912785 -0.029741973
0.021972703 -0.015429343 0.010988883 -0.022934029 0.021512194 0.027475469 -0.027272034 0.023248285
-0.027004352 -0.021382218 0.027787672 0.02455403 0.020133901 -0.020802874 0.023682326 -0.022294149
0.027846653 0.014644485 0.012982887 -0.023991179 0.025487151 0.02713117 -0.025015768 0.019665804
-0.026360434 -0.021146493 0.025902975 -0.024996331 -0.026110027 0.024351746 0.02800117 -0.020559998
-0.02760613 0.026603816 -0.027645791 0.025885725 -0.026717016 -0.011057085 0.024614729 -0.023634119
-0.021010675 -0.025283609 0.025453944 0.024372485 -0.026489092 0.02157462 0.025798045 -0.025466384
0.027114058 0.022971567 -0.023877285 0.023567488 -0.012596814 -0.007934829

weight f4 [62, 14]
00000000: 9847 83bb d632 b33a 427b 3bbd 1b0b 653b
00000010: 33b2 e2bc 5d62 723c c48c 4a3a d2f7 babc
00000020: be0b bdbd 1c62 333c 0b69 22bd 41a8 22bd
00000030: f2f9 76bb c4cd dabc af28 3a3e 64c1 4a3e
00000040: 67ba 2e3e 9985 36be cf68 b93e 7f29 e23d
00000050: 2db4 9dbc c42c 4a3d 2470 1e3e 8a7c 7f3e
00000060: 19b4 333e 19e5 ee3d 9cc5 01bd 43cb 2dbe
00000070: 3073 3dbd 812c 213e a219 86bd 7b2a 62bb
00000080: 1627 b6bd 7d84 8cbd f84a 42bd 1b65 5cbe
00000090: a7f1 3f3e 3df1 31be 93cf 5ebc 36cb 0cbc
000000a0: 53bc 13be 5ef7 fc3d 7438 44be d3f3 6b3d
000000b0: 08be 2d3e 1071 743e b309 2dbe d428 903e
000000c0: d012 6f3e fe7c fc3d 64cd 7fbd 9aa0 eebd
000000d0: 1739 4039 4f81 b43d 3b86 99be 64f6 613e
000000e0: 5bd3 133e c2ee 2cbe 520c 5c3d 41a6 d33d
000000f0: 9a91 a33e 4bc0 0a3e 66fe 9abc 8ebe 95be
00000100: d1de 843b 57dc 753e 20d8 b1bd f9e3 ef3d
00000110: 5cf8 fd3d c207 91bd d1d4 b5bd 21e6 6c3d
00000120: 3656 1cbe ed7c 2d3e ac89 54bc fe11 623e
00000130: 1900 743e 8981 453d 6dc4 3fbe 4391 e0bc
00000140: b24d d8bd 9a80 ad3d 1e48 1a3e 8300 f0bd
00000150: 5294 d93d cb77 723e 4a2b 63be a5da 98bd
00000160: 779e f13e ad04 de3d 4d3e 2c3d 23aa 35be
00000170: 4915 bcbc 83d3 4cbe 6966 51be 492b 6fbe
00000180: 1ee0 933e 441e 2b3e 359d 0e3c 7def 82bd
00000190: 9f1f 423e 4dec cabc 9509 693c 61f3 8f3d
000001a0: 869b 82bd 6d33 9bbb e4d3 5abd b084 8dbe
000001b0: 9bfb 183d d4a9 a6bd c1e2 103d b950 193e
000001c0: 807b 0a3d ac30 d53d 4084 0a3d 35ca da3d
000001d0: 0589 e2bc cd51 aabd 1cf7 5ebd e30d 303e
000001e0: 8817 70be 2ff6 dabd 07fe 413d f596 5e3e
000001f0: ed66 443e 1676 60be 15ef 93be a66c 8e3d
00000200: c021 a63d 0abb 4bbc c0e2 c7be 2bbb 343e
00000210: fd27 d33c e28f d7bd b47c 2fbe 4f12 1ebe
00000220: 6257 89bd f74b b63d 3fa8 0e3d aa8b c8bc
00000230: a468 e63c 8e64 8ebd 8e91 fd3d 5c71 d33d
00000240: bcb5 b93e bd53 333d 2bb4 f8bc fad9 3fbd
00000250: cd0f a13d 0bb9 36be 465b 0b3d 915b 29be
00000260: ef87 0cbe 257b c0bc 9c14 37be fc41 0bbe
00000270: 2918 853d bbf8 413d 6511 3fbe 8402 83bd
00000280: 532b 1bbe 9262 8e3d 90bf dfbd 313b 03be
00000290: 041b 0d3e 50d7 103d aa45 3b3d a7b3 08bd
000002a0: 49a4 04be 1d90 863d 648c 29be 3088 813c
000002b0: fc22 83bd bdbf 023e a38d 01be 1ece 333e
000002c0: c58f 313e 5b54 733e 328d 2b3e 71a7 883d
000002d0: 858e 233d d04f 7abc 6b24 7cbb 464c 1cbe
000002e0: f90c 473e fbe7 dfbc 3b77 ad3e 21ec 91bd
000002f0: d663 1b3d 4112 6ebe 763c 4cbe 7348 7d3e
00000300: 1dfa 083e 1b44 063e bb80 34be 76b7 4ebc
00000310: 4e16 b6be 5eb2 8dbd 654f 623c 66c1 02be
00000320: 5ec6 fabe b975 aa3d 8405 763e 0ca5 a03e
00000330: e46a 2dbe d0c8 babd 9918 85be 5d36 5abe
00000340: 2162 0dbe d1d1 903e 0991 b93c 8c98 583d
00000350: 84ce 5f3e 1a20 ed3b 61bc da3e b7a7 d83d
00000360: 152b 523e 89c6 64bc 4d63 61be 1006 46be
00000370: 063c d3bd ddfd 643e f0bb 523e 9649 4c3d
00000380: 5c64 9ebe 83f3 59be e1f0 743e 9d19 a03c
00000390: 423e febe 15f0 453d 2bc9 fdbc 8144 933d
000003a0: 5d4a dd3d 4f16 7f3d b9da 76be 3b6a 06bc
000003b0: 06e6 45be f247 533e 324d b73c 341d 953d
000003c0: a25d 813e ef69 1c3e d22a 04bf 5915 103e
000003d0: bc3e d7bd 04c5 cc3d e598 c2bb 4e2d 653e
000003e0: f62f 58be 2d7b 77be 5965 f3bd 16ed 993d
000003f0: 9154 963e 0d19 453e 7690 1e3e c890 c03c
-0.0040063374 0.0013671767 -0.045771845 0.0034949246 -0.027672863 0.014793959 0.0007726664 -0.022823248
-0.09230755 0.010948684 -0.039650958 -0.03971124 -0.00376856 -0.026709445 0.18179582 0.19800335
0.17063294 -0.17824401 0.36212775 0.11043071 -0.019250954 0.049359098 0.15472466 0.24949852
0.1754917 0.11664791 -0.031682596 -0.1697207 -0.04625243 0.15739633 -0.06547858 -0.0034510184
-0.08894174 -0.06861208 -0.047434777 -0.21522944 0.18744527 -0.17377181 -0.013599294 -0.008593371
-0.14427309 0.12351869 -0.1916216 0.057605576 0.16967022 0.23871255 -0.16898231 0.2815615
0.2334702 0.12328528 -0.062451735 -0.11651726 0.00018331814 0.08813726 -0.29985222 0.22066647
0.14436094 -0.16887954 0.053722687 0.10334445 0.31947023 0.13549916 -0.018920135 -0.29246944
0.004054882 0.24009834 -0.08683801 0.11713404 0.124008864 -0.07081558 -0.08878482 0.057836656
-0.15267262 0.16942187 -0.012972277 0.22077176 0.23828162 0.048219237 -0.18727274 -0.027413016
-0.10561694 0.084717944 0.15066573 -0.117188476 0.10623993 0.2367851 -0.22184482 -0.07463578
0.47191212 0.108407356 0.042051602 -0.17740683 -0.022959368 -0.2000256 -0.20449223 -0.23356356
0.28881925 0.16710764 0.008704473 -0.06393335 0.18957375 -0.02477088 0.014223476 0.07028843
-0.0637732 -0.004736355 -0.05342473 -0.27640295 0.037349325 -0.08137861 0.0353725 0.149722
0.033809185 0.10409674 0.03381753 0.10683099 -0.027653227 -0.083163835 -0.05443488 0.17192797
-0.23446476 -0.10691487 0.0473614 0.21737273 0.19179888 -0.21920046 -0.28893343 0.06954317
0.08111906 -0.01243473 -0.39040184 0.17649524 0.025775904 -0.1052549 -0.17137414 -0.15436672
-0.0670612 0.08901208 0.03482842 -0.02448066 0.028126068 -0.06952773 0.12381278 0.10324356
0.36271465 0.04378103 -0.030359348 -0.046838738 0.07864342 -0.17844026 0.034022592 -0.16538836
-0.1372373 -0.02349622 -0.17878956 -0.1359939 0.06498749 0.04735635 -0.18658979 -0.06396964
-0.15153246 0.069523945 -0.109252095 -0.12815548 0.13779837 0.035361588 0.045720734 -0.033374455
-0.12953295 0.06570456 -0.16557461 0.01581201 -0.06403157 0.12768455 -0.12651686 0.17559096
0.1734 0.23762648 0.1675308 0.06672562 0.03993084 -0.015277818 -0.0038473855 -0.15263471
0.19438542 -0.027332297 0.33880028 -0.07125116 0.037937008 -0.23249151 -0.19944939 0.24734668
0.1337666 0.13111918 -0.17627232 -0.012616983 -0.35563892 -0.069187865 0.013812874 -0.12769088
-0.48979467 0.08323235 0.24025542 0.3137592 -0.16935307 -0.09120333 -0.2599533 -0.213098
-0.13806964 0.28285077 0.022652166 0.052879855 0.21856123 0.007236493 0.42721847 0.10578864
0.20524247 -0.01396335 -0.22010536 -0.1933825 -0.10314183 0.22362466 0.20579505 0.049874865
-0.30935943 -0.21284299 0.23920013 0.019543463 -0.49656874 0.048324663 -0.030979713 0.071908005
0.10805199 0.062277135 -0.24106874 -0.008204038 -0.19326028 0.20632914 0.022375677 0.07280961
0.2526675 0.15274785 -0.5162784 0.14070643 -0.105100125 0.09998515 -0.0059386366 0.22380564
-0.21112046 -0.24168082 -0.11884565 0.07515924 0.29361394 0.19247837 0.15484795 0.023506537

weight f4 [1, 62]
00000000: f200 2cbc 3e4a 9d3e 376e 353d 9050 9bbe
00000010: 8914 993e f2e3 55be a614 7f3e 8773 51bd
00000020: 0774 083d da2a 61be c1c0 b23d 88cb 3abe
00000030: a20a 613d 815b 633e b077 cdbe 8c6a bb3e
00000040: b67c ccbe be18 9fbe 96b9 423e cce6 783e
00000050: 1856 ca3d 9168 d5be b3d4 973c e164 22be
00000060: 7fb5 463e 6645 0e3e 0fd8 2c3e e5a8 1ebe
00000070: 1c05 ab3e 3b79 fe3e 9e52 84be 3b74 793d
00000080: 4e88 97be 549a 70be 89b0 a83e 3f42 d4be
00000090: 44dc f9bd 5d39 933d 8ad5 393e d2fd aabd
000000a0: b101 1cbe 4207 2c3e d697 c5be 2822 0a3e
000000b0: dab6 aebe 3b5a 3dbd a3ce b53e 316a 6bbe
000000c0: 0a0f a3be 2e71 79be f250 933e 3fc8 963e
000000d0: 7a7c 72be 204c 9d3e 7918 863e 1a92 93be
000000e0: e7f7 553e 8e07 983d fb5f 4bbe d9ed 1c3e
000000f0: a11b d93d a87a 3e3c
-0.010498272 0.30720705 0.044294562 -0.30334902 0.2989848 -0.20887735 0.2491022 -0.051135566
0.033313777 -0.21989003 0.08728171 -0.18241704 0.05494178 0.22202875 -0.40130377 0.36604726
-0.39938897 -0.31073564 0.19016108 0.24306792 0.09879702 -0.4168134 0.01853404 -0.15858795
0.19405173 0.13893661 0.16879295 -0.15494116 0.33402336 0.49701867 -0.25844282 0.06090186
-0.2959618 -0.23496372 0.32947186 -0.41456792 -0.122002155 0.071886756 0.18147865 -0.08349194
-0.1523502 0.16799644 -0.38592404 0.13489592 -0.3412388 -0.04622863 0.35509214 -0.22989728
-0.3184741 -0.24359581 0.28772694 0.2944965 -0.23680297 0.3072214 0.26190546 -0.28822404
0.20895348 0.07423316 -0.19860832 0.15325107 0.10600973 0.011625923
