gcn_nba.pth (torch, 29279 bytes, 3 tensors)

bias f4 [62]
000000 69 64 8a 3e 93 e6 5a be 6a 57 27 be 3f 5c 3e 3e
       0.27029732 -0.2137702 -0.1634194 0.18589877
000010 a2 04 64 be 8d f1 60 be 7c 01 25 3e 86 bc 75 3e
       -0.22267392 -0.21967144 0.16113847 0.23997697
000020 21 36 c3 3e 56 00 3f 3e 18 7c 39 be a1 34 34 be
       0.38127235 0.18652472 -0.18113744 -0.17598201
000030 4e e5 41 3e 22 c8 36 3e e7 75 4c be 63 b9 42 be
       0.18935129 0.17849782 -0.19966851 -0.19016032
000040 cb b3 37 3e 2a dc 4a be 69 3b 6e be 20 cf 8f 3e
       0.1793968 -0.19810548 -0.2326485 0.2808771
000050 62 2a 53 3e 40 02 8a 3e fa 97 30 3e 43 64 35 3e
       0.20621637 0.26954842 0.17245474 0.17714028
000060 15 a1 44 be 45 c4 34 3e 33 e5 4c 3e 04 57 62 be
       -0.19202073 0.17652996 0.20009308 -0.22103506
000070 9b 3d 38 3e 98 71 4f be de b1 45 be a6 8f 5a be
       0.1799225 -0.20258176 -0.19306132 -0.2134386
000080 06 a8 51 3e ad e8 3c 3e 83 21 1a be 49 2c 47 3e
       0.20474252 0.18448134 -0.15051846 0.19450487
000090 c9 d8 44 be b9 40 38 be c9 14 3e 3e 18 cd 57 be
       -0.19223322 -0.1799344 0.18562616 -0.21074331
0000a0 69 c5 8b 3e 4f 44 12 3e 92 0b 8f 3e 17 03 43 3e
       0.2729905 0.1428387 0.27938515 0.19044147
0000b0 42 b6 9f be 16 d0 42 3e 94 26 30 be c3 9d b4 3e
       -0.3119374 0.19024691 -0.17202216 0.35276613
0000c0 1c 21 38 3e f8 b8 3f 3e 0f 69 a9 be 21 3d 61 be
       0.1798138 0.18722904 -0.33087966 -0.21995975
0000d0 6c 71 59 3e 0d 1a 37 be 52 c4 2f be b7 33 38 3e
       0.21234673 -0.17881031 -0.17164734 0.17988478
0000e0 07 dd 2c 3e 58 d4 93 be 82 f2 39 3e fb 3b 63 3e
       0.1688119 -0.28872943 0.18158916 0.2219085
0000f0 d5 dd 29 3e 1b 93 32 be
       0.16588528 -0.17438929

weight f4 [62, 96]
000000 47 1c b5 be 1d 7f 10 be 93 6c 28 3e 28 77 ce bd
       -0.35373136 -0.1411099 0.16447668 -0.10081321
000010 22 e4 21 be af fd 09 bd aa 51 91 3e 63 cf b5 be
       -0.15809682 -0.033689197 0.28382617 -0.35509786
000020 d6 d3 0e 3d e5 1f 60 3d 99 ec 57 3f 50 a1 cd bd
       0.03486999 0.054717917 0.84345394 -0.100405335
000030 40 ac 69 bd 80 87 44 3e 4c ce 43 be f7 12 02 be
       -0.057049036 0.19192314 -0.19121665 -0.12702547
000040 b4 7b 59 bc 96 ce 90 3d ac f5 f6 bd 7f 42 7f bf
       -0.013274122 0.07070653 -0.12058577 -0.9971084
000050 1f 65 2c bc 7a bf 61 bb a7 2e 0a 3f e2 3a ef 3d
       -0.010522156 -0.0034446404 0.53977436 0.11681153
000060 dd b6 27 3d 44 ec 90 bd 3b f5 77 3e 91 2c 1c 3d
       0.040945876 -0.07076314 0.24214642 0.03812844
000070 90 fe ef 3e 60 45 a9 3d 88 eb 21 3f 11 4e 00 bf
       0.46873903 0.08265185 0.6325002 -0.5011912
000080 88 5b 9b be 45 d2 3e be 35 22 a7 be cf e7 f2 bc
       -0.3034327 -0.18634899 -0.32643285 -0.02965155
000090 a4 91 dd be be 6d e0 be e7 59 1f 3e 82 45 76 3e
       -0.43275177 -0.43833727 0.15561639 0.24049953
0000a0 94 7c 32 3e 3e 8e b1 bb b3 19 21 bb de 0a 32 3d
       0.17430335 -0.005418568 -0.0024581968 0.043467395
0000b0 4b 02 11 3e 29 39 42 3d 41 21 20 be d5 f7 ce 3d
       0.14161031 0.047417793 -0.15637685 0.10105864
0000c0 72 80 9e 3e a8 f6 07 bd a5 7c 95 3d 6d b6 e0 3c
       0.3095737 -0.033194214 0.07299165 0.027430737
0000d0 0c 02 ea 3d a3 be f1 bd 9a 59 5e 3e 34 d4 1a be
       0.11426172 -0.11803939 0.21713868 -0.15120012
0000e0 91 85 5b 3e 97 a5 64 3c 18 85 20 be 43 d0 6f be
       0.2143767 0.013955495 -0.15675771 -0.2341929
0000f0 a6 b5 0f be 1f e3 55 be 73 24 0f be b2 49 0e bd
       -0.14034137 -0.20887421 -0.13978748 -0.03473825
000100 04 04 38 be 64 fc 35 3d ad 89 cc 3d 36 ce f8 bc
       -0.17970282 0.04443015 0.09987197 -0.030371767
000110 34 d0 14 3e d5 f5 14 bc f1 57 da 3e 3f f4 29 3c
       0.14532548 -0.009091814 0.4264522 0.010373174
000120 77 ba 8f be 29 29 6b be 36 b1 3d 3e 42 49 cf be
       -0.2807195 -0.2296492 0.18524632 -0.4048558
000130 9e 68 e2 bd 56 05 76 3e e9 1d 6d bd 9e 78 3f bd
       -0.110551104 0.24025473 -0.057889853 -0.04674589
000140 30 b6 f7 3b 1f ea da 3d ef d9 be 3d 65 a7 81 bc
       0.0075595602 0.10689186 0.09318911 -0.01582689
000150 a6 6b db bd 7d 5b 05 bf 8a b7 2c be 69 f6 1d 3e
       -0.10713892 -0.52092725 -0.1686689 0.1542603
000160 4c 41 7a 3e 93 4e da bd 87 d4 1a be 9e 8e 93 3e
       0.24438971 -0.10659518 -0.15120135 0.28819746
000170 49 64 7a 3e 5b d8 15 bd 1b 74 66 be e2 d2 19 3d
       0.24452318 -0.036583286 -0.22505228 0.03755463
000180 4d 40 f3 3e cd 13 ed 3c d7 11 e7 bd 1f 13 43 3d
       0.47509995 0.028940106 -0.112826996 0.047625657
000190 ca 77 11 3e 1d 7a 9a bd 7c 89 d5 bd 53 06 4d 3e
       0.14205852 -0.075428225 -0.10426614 0.20021944
0001a0 fa 5c d2 3d e5 38 a9 3d 36 2d 49 bf 15 a2 bc bd
       0.1027164 0.08262805 -0.7858461 -0.09210602
0001b0 15 ac 06 bd c3 f8 c3 bd 6c 43 1c 3e 86 78 b0 3c
       -0.032878954 -0.09568932 0.15260094 0.021541845
0001c0 c5 70 8b 3d ec 5c 74 bb c9 06 dd 3d 61 fc 31 3f
       0.068086185 -0.003728683 0.1079231 0.69525725
0001d0 4f 03 91 bc 82 88 4c bc 34 b8 0d bf d1 0d ee bd
       -0.017701773 -0.012483718 -0.55359197 -0.11623729
0001e0 ab 4c dd bc a7 64 35 3e c9 2b 60 be 35 d5 3a be
       -0.027014097 0.17714177 -0.21891703 -0.18245395
0001f0 9b 3f a3 be 3b 33 c8 3d ff d9 8e be ff 16 93 3e
       -0.31884465 0.097753964 -0.27900693 0.28728482
000200 1a f9 4c 3e 90 55 02 3e ec 89 0f bd 34 9e 80 bd
       0.200169 0.12727952 -0.035043642 -0.06280175
000210 d6 ba 9c 3e 8c 47 82 3e bf af bf 3d ee 95 c2 be
       0.30611295 0.2544521 0.09359693 -0.38005012
000220 d7 c7 12 3c aa 4f 7b bc 42 b8 19 3d 5f c1 a7 3d
       0.008958778 -0.015338818 0.037529238 0.081911795
000230 69 c4 8b 3d 40 d8 08 be 65 f8 a0 3c 0b 15 8d 3d
       0.06824572 -0.13363743 0.019649694 0.06888779
000240 01 ed 2f bc 31 1a e0 bd 08 f2 d4 bd 16 c4 9e 3d
       -0.0107376585 -0.109424956 -0.10397726 0.07752244
000250 c7 38 60 ba 60 e1 35 be 07 a2 45 be f3 b7 11 be
       -0.00085533824 -0.17761755 -0.1930009 -0.14230327
000260 3c 0c 8a 3d a1 a5 9e bc 15 d6 e6 bd 8c 15 1c 3d
       0.06740615 -0.019366087 -0.11271302 0.038106486
000270 c0 e6 a8 3d 06 0a 6e 3e 55 68 30 bd ce bb 2e 3e
       0.08247137 0.23246011 -0.04306825 0.1706383
000280 22 f8 6c 3c 99 04 2d 3e 42 67 3c be 97 78 89 3e
       0.014463456 0.16896285 -0.18398765 0.26849815
000290 ad 9e 81 be 88 e3 a3 bd 92 a2 c4 be 63 a3 4d 3e
       -0.25316373 -0.080023825 -0.3840528 0.20081858
0002a0 c7 c7 96 3d 45 fa 55 3e 59 90 89 be 9f 68 97 3e
       0.07362323 0.20896251 -0.2686794 0.29572007
0002b0 60 59 d1 3b cb 57 47 be 14 52 f7 3d 6c 51 30 be
       0.006388828 -0.19467084 0.12076202 -0.1721856
0002c0 4b 70 b0 3d 86 ad 11 be ce 20 4b bd f6 00 3e 3e
       0.08615168 -0.1422635 -0.049591832 0.18555054
0002d0 a6 57 24 be 68 8e 34 3e fc d7 c1 bd 83 67 29 be
       -0.1604906 0.17632449 -0.09465024 -0.16543393
0002e0 51 14 52 be ba f1 ee 3d 41 f2 78 3e 4b 04 2d 3c
       -0.20515563 0.116671994 0.24311163 0.010560106
0002f0 39 11 11 3d aa 8e 60 3e 49 5b e4 3d 6a 83 87 be
       0.035416815 0.21929422 0.11150224 -0.26467448
000300 dc cd 12 3e 14 cd 05 3e f2 28 96 bc 6b 67 3c be
       0.14336342 0.13066512 -0.018330071 -0.18398826
000310 27 36 f1 bd e5 7e 9a 3d 59 fd 55 be 15 dd 54 3e
       -0.11777907 0.075437345 -0.20897426 0.20787461
000320 ba 95 33 be f9 dd c9 3d 2b c9 03 bf 55 ae d9 bc
       -0.17537585 0.09856791 -0.5147883 -0.026572386
000330 99 40 ba bb 51 89 e3 3d 1b b3 e5 3d db c8 5e bd
       -0.00568397 0.111101754 0.11215802 -0.05439077
000340 a3 95 81 3d 75 45 18 3c 8c 3e e0 3d 3c f9 f9 3e
       0.06327369 0.009293904 0.1094943 0.48822963
000350 fc be 40 be f2 54 b9 bd cc 2e 6b be 08 94 98 3c
       -0.18822855 -0.09049405 -0.2296707 0.018625274
000360 53 d3 be bc fb bc 8a b9 ad 58 7f be 21 81 1d be
       -0.023294127 -0.00026462213 -0.24936171 -0.1538129
000370 d5 5a 38 be d3 ae fc 3c 31 05 92 be 22 f2 b3 3e
       -0.180034 0.030845081 -0.28519586 0.3514567
000380 3d 5b 31 3d 7d 4a 2d bc 39 42 8c bd 70 ed de bd
       0.043299902 -0.010576841 -0.068485685 -0.10885131
000390 36 e5 32 bd c2 da 90 bc a3 ba 20 3d 56 c8 16 be
       -0.043675624 -0.017682437 0.03924049 -0.1472486
0003a0 05 cf 08 be 3b 26 1f be cd df 49 bd b9 54 8c 3d
       -0.13360222 -0.15541928 -0.0492857 0.06852097
0003b0 04 70 23 be 13 75 89 bc 92 b8 95 bd a8 5e ca bd
       -0.159607 -0.016779458 -0.073105946 -0.098813355
0003c0 c3 22 dc 3b 20 6f 0c be b3 38 45 3e e7 66 cc 3c
       0.006718011 -0.13714266 0.1925991 0.024951411
0003d0 a5 55 f3 3d ba e5 c6 bd bf 61 1e 3e ba 4d 28 3e
       0.1188157 -0.097117856 0.15466975 0.164359
0003e0 38 8a f1 bd 03 4b 29 be 8f 13 56 3c a5 c0 0e be
       -0.11793941 -0.16532521 0.013066187 -0.13940676
0003f0 d2 fd 4b 3d 08 9b 4e bd f5 34 52 3d dc 07 55 bd
       0.04980261 -0.050440818 0.051320035 -0.05200945

weight f4 [1, 62]
000000 34 28 14 bf 17 53 5a 3f 44 a6 ca 3e fb 85 20 bf
       -0.57873845 0.85283035 0.39579976 -0.6270444
000010 55 0b 33 3f a6 01 7c 3f 2a 6c 0c be b4 3c 3c bf
       0.69939166 0.98440015 -0.13713136 -0.73530126
000020 61 0c 5f bf 1c b5 ff be 2e 5f a9 3e 1f 7a a0 3e
       -0.87128264 -0.49942863 0.3308043 0.3134317
000030 16 d3 d6 be 26 a8 ec be 77 fa 68 3f 3b fc ee 3e
       -0.4195792 -0.46222037 0.9100718 0.46676812
000040 2e 98 a6 be 0d cf 20 3f ba ca 46 3f 1d ff 03 bf
       -0.3253798 0.62815934 0.77653086 -0.51561147
000050 02 69 41 bf 74 57 29 bf 4d 97 94 be 29 83 c5 be
       -0.75550854 -0.6614907 -0.29021683 -0.3857663
000060 ec 47 f6 3e b1 71 df be 28 44 cf be a3 5d 0a 3f
       0.48101747 -0.43641427 -0.40481687 0.5404913
000070 5f b4 b4 be da eb 28 3f 4a ef 5e 3e f1 55 1d 3f
       -0.35293862 0.6598488 0.21770969 0.6145926
000080 0a e5 5d bf db bd d9 be 1e 40 0a 3e 6d 57 ac be
       -0.8667761 -0.4252766 0.13501021 -0.3366045
000090 e3 41 b2 3e 63 ca 8a 3e fc 82 a6 be 6f 53 3f 3f
       0.34815893 0.27107534 -0.32521808 0.74736685
0000a0 14 51 14 bf 41 17 b1 bd c7 a3 72 bf bd 59 d8 be
       -0.57936215 -0.086470135 -0.94781154 -0.42255965
0000b0 14 9d 62 3f ad c4 21 bf ac cb af 3e 32 13 6d bf
       0.8852093 -0.6319073 0.34335077 -0.92607415
0000c0 3b 05 ef be e2 29 46 bf 60 d0 43 3f ff 76 5e 3f
       -0.46683678 -0.7740766 0.7648983 0.86900324
0000d0 ca bd 5a bf de e1 96 3e 42 56 c5 3e dc 80 5f bf
       -0.85445845 0.29469198 0.38542372 -0.87306
0000e0 12 f9 4d be a6 11 6c 3f 5c e9 d3 be ea 2a 17 bf
       -0.20114544 0.9221443 -0.41388977 -0.59049857
0000f0 6b 8e 0c bf e3 dc c1 3e
       -0.5490481 0.37863836
