gcn_fair_pokec1.pth (torch, 73375 bytes, 3 tensors)

bias f4 [62]
-1.3943475 -1.4225733 1.5080379 -1.43512 1.5661913 -1.4962709 -1.4024163 1.5684029
-1.412624 1.4766153 -1.4489901 -1.389129 1.4035808 -1.4624003 1.3819399 -1.5415438
1.4495147 -1.3686777 -1.5226659 1.4175131 1.5898758 1.5574939 -1.4318057 1.5948122
-1.3651016 -1.5398988 -1.3805685 1.3473035 -1.5511575 1.3539097 1.3787782 -1.5721251
-1.4806668 1.4620416 1.4243482 1.5059212 1.4168762 -1.465728 1.4829006 1.3928244
-1.4377055 -1.477985 -1.351656 1.4467047 1.5851467 1.4360554 1.5950242 -1.3549731
-1.4481983 -1.5833318 -1.493303 1.5372192 -1.480788 1.3678646 -1.3700569 -1.3835956
1.4690992 -1.5293311 1.3510054 -1.5437148 -1.3660918 -1.5291544
00000000: fb79 b2bf e216 b6bf 6307 c13f 03b2 b7bf
00000010: f578 c83f ce85 bfbf 6182 b3bf 6dc1 c83f
00000020: ddd0 b4bf bb01 bd3f 8278 b9bf fbce b1bf
00000030: 89a8 b33f ef2f bbbf 68e3 b03f 4f51 c5bf
00000040: b389 b93f d530 afbf b7e6 c2bf 1271 b53f
00000050: 0d81 cb3f f65b c73f 6945 b7bf ce22 cc3f
00000060: a6bb aebf 671b c5bf 78b6 b0bf 7174 ac3f
00000070: 548c c6bf ea4c ad3f ce7b b03f 653b c9bf
00000080: 7d86 bdbf 2e24 bb3f 0b51 b63f 07c2 c03f
00000090: 335c b53f fa9c bbbf b0cf bd3f 1248 b23f
000000a0: bc06 b8bf 9d2e bdbf 1003 adbf 9f2d b93f
000000b0: 16e6 ca3f aad0 b73f c129 cc3f c26f adbf
000000c0: 905e b9bf 9eaa cabf 8d24 bfbf 99c3 c43f
000000d0: 768a bdbf 3016 af3f 065e afbf a919 b1bf
000000e0: 710b bc3f 1fc1 c3bf bfed ac3f 7298 c5bf
000000f0: 19dc aebf 55bb c3bf

weight f4 [62, 276]
-1.2717597 -1.4573892 -1.3045824 -1.3795742 -1.4757142 -1.5037149 -1.3983061 -1.3330679
1.4048384 -1.3038185 -1.3756186 -1.3203305 -1.4334774 -1.3764166 -1.5226368 -1.2846645
-1.4019222 -1.383798 -1.2971165 -1.4820523 -1.4178824 -1.5089061 -1.4658024 -1.316362
-1.3579129 -1.4739623 -1.3435203 -1.3708141 -1.4380267 -1.4817559 -1.3794129 -1.444618
-1.3005209 -1.4091412 -1.2507006 -1.2862021 -1.4946218 0.40162987 -1.336863 -1.4426169
-1.3907776 -1.286929 -1.4124569 -1.404873 -1.4424322 -1.4988362 -1.3769146 -1.3721907
-1.4426665 -1.4676039 -1.489099 -1.4161191 -1.5199296 -1.2659036 -1.3917353 -1.4548662
-1.3856826 1.3078513 -1.2737808 -1.3122554 -1.3836465 -1.5354971 -1.3641154 -1.3003545
-1.4626676 -1.3980448 -1.4542646 -1.463615 -1.3276987 -1.3971882 -1.3628962 -1.4658798
-1.2713834 -1.5009098 -1.4998989 -1.2937871 -1.4236414 -1.321516 -1.453641 1.3998483
-1.4170914 -1.3321604 -1.5455406 -1.4950061 -1.5263526 -1.2775607 -1.3940601 -1.3260107
-1.3090518 -1.3166432 -1.380732 -1.5158451 -1.4955088 -1.2818506 -1.2727671 -1.416757
-1.3023422 -1.4282682 -1.4628661 -1.2970539 -1.502658 -1.5057427 -1.3220073 -1.3690976
-1.3024594 -1.3704765 -1.3091861 -1.3146893 -1.3520944 -1.3447508 -1.3538969 -1.4725376
-1.37033 -1.3408751 1.4352165 -1.3781985 -1.4983243 -1.4450687 -1.3976566 -1.5040263
-1.4147254 -1.3850809 -1.3357834 -1.3937643 -1.36079 -1.3623953 -1.4965013 -1.314306
-1.5089056 -1.2795682 -1.1529498 -1.3502718 -1.3201249 -1.4022694 -1.3087976 -1.3005123
-1.4605776 -1.3479973 -1.3130835 -1.4591101 1.4640445 -1.4671988 -1.3840852 -1.4778817
-1.5369514 -1.3053696 -1.2968469 -1.394469 -1.5325645 -1.4503002 -1.2721734 -1.5185695
-1.4839039 -1.4158964 -1.3447253 -1.5041875 -1.3939745 -1.5139506 -1.2791393 -1.50929
-1.3095769 -1.3787947 -1.5187637 -1.4424629 -1.3863124 -1.2763033 -1.4514545 -1.4987122
-1.3652703 -1.4403291 -1.4905012 -1.2735307 -1.4226102 -1.3772225 -1.4959831 -1.286889
-1.2826005 -1.3420844 -1.2950346 -1.4004014 -1.2824831 -1.3524208 -1.3065586 -1.3612766
-1.3557925 -1.3624885 -1.4903413 -1.0203654 -1.3603971 -1.4300271 -1.3605326 -1.5147966
-1.2874646 -1.3681691 -1.2637247 1.2587987 -1.3609922 -1.5217865 -1.3670577 -1.4175977
-1.3084804 -1.3429939 -1.5188395 -1.5400667 -1.4065084 -1.4428018 -1.2784094 -1.2846726
-1.359431 -1.342041 -1.2730756 -1.3187956 -1.4972955 -1.4492308 -1.3120346 -1.3233683
-1.3589678 -1.5256087 -1.4206177 -1.3615505 -1.3453801 -1.4211525 -1.3933102 -1.4667019
-1.2959923 -1.352517 -1.5129813 -1.5288718 -1.3697374 -1.5160066 -1.3504767 -1.3307874
-1.3033866 -1.4400358 -1.2780098 -1.4480191 -1.4367985 -1.3662949 -1.3622891 -1.3410848
-1.368423 -1.3665739 -1.2732013 -1.4586788 -1.3410712 -1.3148977 -1.2879175 1.1740565
-1.3172871 -1.4265975 -1.2735715 -1.2955121 -1.4255311 -1.3986928 -1.3357084 -1.0976292
00000000: 06c9 a2bf bb8b babf 8efc a6bf e395 b0bf
00000010: 34e4 bcbf bb79 c0bf b2fb b2bf f8a1 aabf
00000020: bfd1 b33f 86e3 a6bf 4514 b0bf 9700 a9bf
00000030: 307c b7bf 6b2e b0bf c3e5 c2bf e36f a4bf
00000040: 3072 b3bf 4b20 b1bf ea07 a6bf e4b3 bdbf
00000050: 2c7d b5bf d623 c1bf 6a9f bbbf 8d7e a8bf
00000060: 17d0 adbf ccaa bcbf 79f8 abbf d676 afbf
00000070: 4211 b8bf 2daa bdbf 9a90 b0bf 3ee9 b8bf
00000080: 7877 a6bf bd5e b4bf f516 a0bf 45a2 a4bf
00000090: c44f bfbf 6ea2 cd3e 541e abbf aca7 b8bf
000000a0: 0005 b2bf 17ba a4bf 63cb b4bf e1d2 b3bf
000000b0: 9ea1 b8bf ddd9 bfbf bd3e b0bf f2a3 afbf
000000c0: 4ca9 b8bf 72da bbbf cc9a bebf 6443 b5bf
000000d0: 0e8d c2bf 2109 a2bf 6224 b2bf 0e39 babf
000000e0: 0c5e b1bf ac67 a73f 400b a3bf fcf7 a7bf
000000f0: 541b b1bf 2b8b c4bf 559b aebf 0472 a6bf
00000100: b138 bbbf 22f3 b2bf 5825 babf bc57 bbbf
00000110: 08f2 a9bf 10d7 b2bf 6273 aebf f3a1 bbbf
00000120: b1bc a2bf d01d c0bf b0fc bfbf d19a a5bf
00000130: e239 b6bf 7027 a9bf e910 babf 3b2e b33f
00000140: 4063 b5bf 3b84 aabf 46d4 c5bf 5c5c bfbf
00000150: 865f c3bf 1c87 a3bf 9070 b2bf b8ba a9bf
00000160: 028f a7bf c487 a8bf d4bb b0bf 3607 c2bf
00000170: d56c bfbf ae13 a4bf 08ea a2bf 4b58 b5bf
00000180: 26b3 a6bf 7ed1 b6bf 323f bbbf dd05 a6bf
00000190: 1957 c0bf 2dbc c0bf 8937 a9bf 973e afbf
000001a0: fdb6 a6bf c66b afbf 6993 a7bf bd47 a8bf
000001b0: 6e11 adbf cb20 acbf 7e4c adbf 1d7c bcbf
000001c0: f966 afbf cca1 abbf 2db5 b73f cf68 b0bf
000001d0: 17c9 bfbf 03f8 b8bf 69e6 b2bf ef83 c0bf
000001e0: b915 b5bf 554a b1bf f3fa aabf de66 b2bf
000001f0: 5e2e aebf f862 aebf 5b8d bfbf 2e3b a8bf
00000200: d223 c1bf e4c8 a3bf dc93 93bf b5d5 acbf
00000210: daf9 a8bf 907d b3bf ae86 a7bf 3077 a6bf
00000220: 35f4 babf 2d8b acbf 1f13 a8bf 1fc4 babf
00000230: cf65 bb3f 2ccd bbbf b429 b1bf 3a2b bdbf
00000240: d3ba c4bf 5a16 a7bf 14ff a5bf f67d b2bf
00000250: 132b c4bf 70a3 b9bf 94d6 a2bf 7c60 c2bf
00000260: 90f0 bdbf 183c b5bf f51f acbf 3789 c0bf
00000270: c26d b2bf 22c9 c1bf d6ba a3bf 6a30 c1bf
00000280: 37a0 a7bf 587c b0bf d966 c2bf a0a2 b8bf
00000290: af72 b1bf e85d a3bf 43c9 b9bf cdd5 bfbf
000002a0: 2dc1 aebf b45c b8bf bec8 bebf 0e03 a3bf
000002b0: 1718 b6bf d448 b0bf 607c bfbf c7b8 a4bf
000002c0: 412c a4bf 6cc9 abbf b2c3 a5bf 5a40 b3bf
000002d0: 6828 a4bf 201c adbf 503d a7bf 503e aebf
000002e0: 9c8a adbf 0666 aebf 81c3 bebf 559b 82bf
000002f0: 7e21 aebf 210b b7bf ef25 aebf dbe4 c1bf
00000300: a4cb a4bf 2a20 afbf bbc1 a1bf 5120 a13f
00000310: fe34 aebf e6c9 c2bf bffb aebf d773 b5bf
00000320: 497c a7bf 39e7 abbf 5569 c2bf e820 c5bf
00000330: 7808 b4bf bbad b8bf eba2 a3bf 2770 a4bf
00000340: d601 aebf 00c8 abbf 24f4 a2bf 4bce a8bf
00000350: 61a7 bfbf 6580 b9bf c0f0 a7bf 2264 a9bf
00000360: a8f2 adbf 2547 c3bf cdd6 b5bf 4947 aebf
00000370: 6a35 acbf 53e8 b5bf fd57 b2bf e3bc bbbf
00000380: 13e3 a5bf 471f adbf 5fa9 c1bf 12b2 c3bf
00000390: 8e53 afbf 810c c2bf 6cdc acbf 3e57 aabf
000003a0: 5fd5 a6bf 1853 b8bf d395 a3bf b158 b9bf
000003b0: 03e9 b7bf c0e2 aebf 7d5f aebf aba8 abbf
000003c0: 7c28 afbf e5eb aebf 43f8 a2bf fdb5 babf
000003d0: 39a8 abbf 914e a8bf 7bda a4bf 7c47 963f
000003e0: dd9c a8bf bf9a b6bf 6404 a3bf 57d3 a5bf
000003f0: ce77 b6bf 5e08 b3bf 7ef8 aabf 1d7f 8cbf

weight f4 [1, 62]
-1.7780743 -1.773321 1.6397183 -1.6598729 1.5987942 -1.651041 -1.4768654 1.5530487
-1.7518924 1.6592594 -1.6804445 -1.7837772 1.7330084 -1.6844689 1.7475075 -1.5506158
1.6346606 -1.8611875 -1.6467726 1.7706304 1.5735959 1.5920217 -1.7035923 1.5085514
-1.8291285 -1.5960265 -1.8074493 1.7769142 -1.5551775 1.8847347 1.7874874 -1.5407776
-1.6967137 1.6656883 1.7119883 1.6686788 1.7755558 -1.6576988 1.5943552 1.763473
-1.7450907 -1.6749443 -1.8916662 1.7381772 1.5380763 1.7336161 1.582451 -1.8135703
-1.7326268 -1.5944455 -1.6724937 1.5574458 -1.6933603 1.7993588 -1.8581972 -1.7218783
1.6792407 -1.5573099 1.8586314 -1.6044165 -1.7532442 -1.6147842
00000000: f097 e3bf 2ffc e2bf 4ae2 d13f b776 d4bf
00000010: 4aa5 cc3f 5055 d3bf ed09 bdbf 4dca c63f
00000020: 033e e0bf 9d62 d43f ce18 d7bf d052 e4bf
00000030: 38d3 dd3f ad9c d7bf 53ae df3f 947a c6bf
00000040: 8f3c d13f 643b eebf 72c9 d2bf 04a4 e23f
00000050: 976b c93f 5ec7 cb3f 500f dabf 3618 c13f
00000060: e220 eabf 994a ccbf 805a e7bf ed71 e33f
00000070: 0e10 c7bf fd3e f13f 63cc e43f 3338 c5bf
00000080: ea2d d9bf 4635 d53f 6f22 db3f 4497 d53f
00000090: 6a45 e33f 792f d4bf d513 cc3f 7cb9 e13f
000000a0: 225f dfbf 9364 d6bf 1e22 f2bf 977c de3f
000000b0: afdf c43f 22e7 dd3f c18d ca3f 1223 e8bf
000000c0: b7c6 ddbf ca16 ccbf 4614 d6bf 625a c73f
000000d0: 08c0 d8bf 6451 e63f 68d9 edbf 8266 dcbf
000000e0: 5cf1 d63f ee55 c7bf a2e7 ed3f 855d cdbf
000000f0: 4e6a e0bf 40b1 cebf
