gcn_fair_pokec1.pth (torch, 73375 bytes, 3 tensors)

bias f4 [62]
0	0xbe99d27b	-0.30043396
1	0xbe9c4d02	-0.30527502
2	0x3e91d362	0.28481585
3	0xbe9ece92	-0.31016976
4	0x3ecaade5	0.39585796
5	0xbeb20000	-0.34765625
6	0x3d1a54c7	0.037678506
7	0x3ec602dd	0.3867406
8	0xbe9d8d5d	-0.30771914
9	0x3eab5ff7	0.33471653
10	0xbe80e7c2	-0.25176817
11	0xbe9894de	-0.29801077
12	0x3e99f521	0.3006983
13	0xbe89fa25	-0.26948658
14	0x3e95841e	0.2920236
15	0xbeba4698	-0.36381984
16	0x3ea17fa7	0.31542704
17	0xbe914ba3	-0.2837802
18	0xbeaa3c64	-0.332492
19	0x3e9fa6ef	0.31182048
20	0x3ea3b9c5	0.31977668
21	0x3e95aa14	0.29231322
22	0xbea01f73	-0.31273994
23	0x3ecd74bb	0.4012812
24	0xbe94eb22	-0.29085642
25	0xbebdb58f	-0.3705258
26	0xbe855fc8	-0.26049638
27	0x3e8fd865	0.28094783
28	0xbea2386a	-0.31683666
29	0x3e94e7f6	0.29083222
30	0x3e965ef8	0.2936933
31	0xbec6193f	-0.38691136
32	0xbea5ee0e	-0.32408184
33	0x3ea69e31	0.32542565
34	0x3e7f4023	0.2492681
35	0x3eaa2003	0.33227548
36	0x3e95083e	0.2910785
37	0xbea7287e	-0.3264808
38	0x3ea90c16	0.33017033
39	0x3e7fa1e2	0.24964097
40	0xbe9955b3	-0.29948196
41	0xbead4fce	-0.3384995
42	0xbe91a374	-0.28445017
43	0x3ea25e84	0.31712735
44	0x3ecbddcd	0.39817658
45	0x3e8e55a4	0.27799714
46	0x3ecec91f	0.40387818
47	0xbe91ffa2	-0.28515345
48	0xbe9d4ddb	-0.30723462
49	0xbebe9901	-0.37226108
50	0xbe9c9fdf	-0.30590722
51	0x3e8fa7d0	0.28057718
52	0xbea478b0	-0.32123327
53	0x3e945a19	0.2897499
54	0xbe93b106	-0.28845996
55	0xbe953e93	-0.29149303
56	0x3eaa525e	0.33265966
57	0xbeb62f3f	-0.3558292
58	0x3e92f52b	0.28702673
59	0xbec0791a	-0.37592393
60	0xbe92a17b	-0.28638825
61	0xbe911a58	-0.2834041

weight f4 [62, 276]
0	0xbe35a857	-0.17739998
1	0xbeb9d1ed	-0.36292973
2	0xbe576bee	-0.21037266
3	0xbe91abea	-0.28451473
4	0xbec3659f	-0.38163468
5	0xbed27cf6	-0.41110963
6	0xbe9cdaf4	-0.30635798
7	0xbe76010b	-0.24023835
8	0x3ea2bf49	0.31786564
9	0xbe5a5b7d	-0.21323963
10	0xbe8fdaad	-0.28096524
11	0xbe6fb559	-0.23409022
12	0xbead829d	-0.33888713
13	0xbe907529	-0.28214386
14	0xbedbb0f5	-0.42908445
15	0xbe451988	-0.1924802
16	0xbe9ddf0f	-0.30834243
17	0xbe94818e	-0.29005092
18	0xbe51a43d	-0.20472808
19	0xbec696b8	-0.38786864
20	0xbea62bad	-0.32455197
21	0xbed453eb	-0.41470274
22	0xbebf0605	-0.3730928
23	0xbe63a20f	-0.22229789
24	0xbe86e917	-0.26349708
25	0xbec31c4f	-0.38107535
26	0xbe7e9977	-0.2486323
27	0xbe90314d	-0.28162614
28	0xbeb0e132	-0.3454681
29	0xbec5f9a0	-0.3866701
30	0xbe918284	-0.28419888
31	0xbeb40b1a	-0.3516472
32	0xbe524be4	-0.20536762
33	0xbea1066f	-0.3145022
34	0xbe2a308a	-0.16620079
35	0xbe47f875	-0.19528373
36	0xbece1728	-0.40252042
37	0xbdd544dc	-0.104135245
38	0xbe77c449	-0.2419597
39	0xbeb1f5cb	-0.34757838
40	0xbe98545c	-0.2975186
41	0xbe45543b	-0.19270413
42	0xbea2b5f3	-0.3177944
43	0xbea46224	-0.32106125
44	0xbeb1d9b0	-0.34736395
45	0xbecefe64	-0.4042846
46	0xbe91ed78	-0.28501487
47	0xbe8e2d7b	-0.27769074
48	0xbeb1fe17	-0.34764168
49	0xbebf5ce6	-0.37375563
50	0xbeca2c04	-0.39486706
51	0xbea6e790	-0.32598543
52	0xbed94273	-0.4243351
53	0xbe2fb4d0	-0.17158818
54	0xbe99cb5f	-0.30037972
55	0xbeb862a9	-0.36012772
56	0xbe94c502	-0.29056555
57	0x3e60975d	0.2193274
58	0xbe39cf45	-0.18145473
59	0xbe618e55	-0.22026952
60	0xbe93feee	-0.28905433
61	0xbee126ce	-0.43974918
62	0xbe8a1ebd	-0.26976576
63	0xbe523d33	-0.20531158
64	0xbebcc545	-0.36869255
65	0xbe9cda17	-0.3063514
66	0xbeb809a3	-0.35944852
67	0xbebcd42e	-0.3688063
68	0xbe6f1a8a	-0.23349968
69	0xbe9ba4a6	-0.30399054
70	0xbe891412	-0.26773125
71	0xbebf309e	-0.3734178
72	0xbe3578cd	-0.17721863
73	0xbed013cc	-0.40640104
74	0xbecf7338	-0.40517592
75	0xbe4ef54e	-0.20210764
76	0xbea8ab2c	-0.32943094
77	0xbe6873bd	-0.227004
78	0xbeb933f7	-0.3617246
79	0x3ea14eeb	0.31505522
80	0xbea50ead	-0.3223776
81	0xbe74135c	-0.2383551
82	0xbee61612	-0.44938713
83	0xbecd0caf	-0.4004874
84	0xbedca7a7	-0.4309666
85	0xbe586c43	-0.21135049
86	0xbe997879	-0.29974726
87	0xbe6c32ce	-0.23066255
88	0xbe5bd626	-0.2146841
89	0xbe6497c2	-0.22323516
90	0xbe9329f6	-0.2874295
91	0xbed857d2	-0.42254502
92	0xbece52f0	-0.4029765
93	0xbe4511be	-0.1924505
94	0xbe37288f	-0.17886566
95	0xbea53a93	-0.3227125
96	0xbe56e3cf	-0.2098534
97	0xbeaba46d	-0.33523884
98	0xbebc2805	-0.36749282
99	0xbe4f930a	-0.20270935
100	0xbed19128	-0.40931058
101	0xbed22c52	-0.4104944
102	0xbe6811b1	-0.22662999
103	0xbe8dfbd5	-0.27731195
104	0xbe550391	-0.20802142
105	0xbe8d903f	-0.27649114
106	0xbe5b40d7	-0.21411453
107	0xbe618e67	-0.22026978
108	0xbe83eb10	-0.25765276
109	0xbe7fbf01	-0.24975206
110	0xbe84a115	-0.25904146
111	0xbec24d0c	-0.37949407
112	0xbe8d8954	-0.27643836
113	0xbe7d7e8d	-0.24755307
114	0x3eadfdec	0.3398279
115	0xbe9189ab	-0.28425345
116	0xbececad8	-0.40389132
117	0xbeb3e0fc	-0.35132587
118	0xbe9b8e66	-0.3038208
119	0xbed1f8a6	-0.41010016
120	0xbea35901	-0.31903842
121	0xbe94323e	-0.28944582
122	0xbe784eae	-0.24248764
123	0xbe993197	-0.29920647
124	0xbe889740	-0.26677895
125	0xbe89549b	-0.2682236
126	0xbece0ed5	-0.4024569
127	0xbe60ee94	-0.2196601
128	0xbed47b5c	-0.41500366
129	0xbe3f60a6	-0.18689212
130	0xbe1a2bf4	-0.1505583
131	0xbe8bcd1d	-0.27304927
132	0xbe6774d0	-0.22603154
133	0xbe9da45e	-0.30789465
134	0xbe5c1060	-0.21490622
135	0xbe52686e	-0.2054765
136	0xbebb5bca	-0.36593467
137	0xbe81b368	-0.2533219
138	0xbe618c0a	-0.22026077
139	0xbebc4cae	-0.36777252
140	0x3ebe38a5	0.3715259
141	0xbebfc7ea	-0.3745721
142	0xbe944b09	-0.28963497
143	0xbec5a21e	-0.38600248
144	0xbee21375	-0.4415547
145	0xbe57b757	-0.21066032
146	0xbe4e5c5a	-0.20152417
147	0xbe9b5392	-0.30337197
148	0xbee0048c	-0.4375347
149	0xbeb620c9	-0.35571888
150	0xbe3625e9	-0.17787899
151	0xbed97e64	-0.4247924
152	0xbec79dde	-0.3898763
153	0xbea4ccf5	-0.3218762
154	0xbe8140ed	-0.25244847
155	0xbed17342	-0.40908247
156	0xbe9975dc	-0.29972732
157	0xbed726ed	-0.42021886
158	0xbe3d661c	-0.18495983
159	0xbed45e0b	-0.41478
160	0xbe5cdd1d	-0.21568723
161	0xbe91c700	-0.28472137
162	0xbed8c0f1	-0.42334703
163	0xbeb283f6	-0.34866303
164	0xbe95403e	-0.29150575
165	0xbe42ca99	-0.19022597
166	0xbeb71892	-0.35760933
167	0xbeceb1fa	-0.4037016
168	0xbe8c0d73	-0.2735401
169	0xbeb1a76a	-0.3469804
170	0xbecace5b	-0.39610562
171	0xbe37b690	-0.17940736
172	0xbea88e74	-0.32921183
173	0xbe911807	-0.28338644
174	0xbecdb563	-0.4017745
175	0xbe455c37	-0.19273458
176	0xbe409378	-0.18806255
177	0xbe7e69c9	-0.24845041
178	0xbe5556ee	-0.20833942
179	0xbe9c75f9	-0.30558756
180	0xbe4316ea	-0.1905171
181	0xbe851391	-0.2599149
182	0xbe5ae068	-0.21374667
183	0xbe885582	-0.26627737
184	0xbe86dc15	-0.26339784
185	0xbe8da731	-0.2766662
186	0xbecc8591	-0.39945653
187	0xbcf072c0	-0.029351592
188	0xbe88a8bc	-0.26691234
189	0xbeabe9af	-0.33576724
190	0xbe87eebc	-0.26549327
191	0xbed69550	-0.4191079
192	0xbe4ea40d	-0.20179768
193	0xbe8ed1d9	-0.27894476
194	0xbe5ab6da	-0.21358815
195	0x3e302dc4	0.17204958
196	0xbe889121	-0.26673225
197	0xbedaf04f	-0.42761466
198	0xbe8bd5a3	-0.2731143
199	0xbea69720	-0.32537174
200	0xbe5ce2fa	-0.2157096
201	0xbe7e6294	-0.24842292
202	0xbed8e678	-0.42363334
203	0xbee3b250	-0.4447198
204	0xbe9f717d	-0.31141272
205	0xbeb3497c	-0.35017002
206	0xbe3c7cb9	-0.18406953
207	0xbe422935	-0.18961032
208	0xbe87c11b	-0.26514515
209	0xbe7e318b	-0.24823587
210	0xbe37e32c	-0.17957753
211	0xbe68e5f5	-0.22743972
212	0xbeceff01	-0.40428928
213	0xbeb5937a	-0.35464078
214	0xbe61f108	-0.22064602
215	0xbe6a7c18	-0.228989
216	0xbe872fc2	-0.26403624
217	0xbedc1179	-0.4298208
218	0xbea70c80	-0.32626724
219	0xbe88d15c	-0.2672223
220	0xbe80786b	-0.25091872
221	0xbea78870	-0.3272128
222	0xbe988ef3	-0.29796562
223	0xbebe2c54	-0.37143195
224	0xbe4dac7b	-0.20085327
225	0xbe83b433	-0.2572342
226	0xbed5a484	-0.41727078
227	0xbede67d8	-0.43438601
228	0xbe8d80d2	-0.27637345
229	0xbed785fc	-0.4209441
230	0xbe82d6d3	-0.25554523
231	0xbe71b43f	-0.23603915
232	0xbe55802a	-0.20849672
233	0xbeb0fab0	-0.3456626
234	0xbe400a66	-0.18753967
235	0xbeb53da0	-0.3539858
236	0xbeb64309	-0.3559802
237	0xbe8b3fa1	-0.27196983
238	0xbe89744b	-0.26846537
239	0xbe81a23c	-0.25319088
240	0xbe8e3cbe	-0.27780718
241	0xbe8c0123	-0.27344617
242	0xbe381434	-0.17976457
243	0xbeba2965	-0.36359707
244	0xbe859f1f	-0.26097962
245	0xbe669d42	-0.22520927
246	0xbe48b523	-0.19600348
247	0x3dff99c7	0.124805026
248	0xbe6454b6	-0.2229794
249	0xbea9c1f0	-0.33155775
250	0xbe37c9d1	-0.1794808
251	0xbe504f63	-0.20342784
252	0xbeab8dd4	-0.33506644
253	0xbe9bcb43	-0.30428514
254	0xbe84aa78	-0.25911307
255	0xbdaba178	-0.08380407

weight f4 [1, 62]
0	0xbf134360	-0.5752468
1	0xbf0b2bd1	-0.54363734
2	0x3eb272eb	0.348533
3	0xbef7aaff	-0.48372647
4	0x3ed6b5e1	0.41935638
5	0xbeeb681b	-0.45977864
6	0xbd0b910a	-0.034073867
7	0x3ec6ccbd	0.38828078
8	0xbf0ce424	-0.55035615
9	0x3eeffe0c	0.4687351
10	0xbeb8dd55	-0.36106363
11	0xbf14b656	-0.5809072
12	0x3f0ab022	0.5417501
13	0xbec5ca36	-0.38630837
14	0x3f1027e2	0.56310856
15	0xbec72b9b	-0.38900456
16	0x3eed35d8	0.46330142
17	0xbf1eee83	-0.6208269
18	0xbed0c794	-0.40777266
19	0x3f0f50af	0.5598249
20	0x3e992b69	0.29915932
21	0x3e97c825	0.29644886
22	0xbf02d250	-0.5110216
23	0x3eb8b9d9	0.3607929
24	0xbf1feeac	-0.6247356
25	0xbed54de6	-0.41660994
26	0xbf04d67a	-0.51889765
27	0x3f1b6f7b	0.6071698
28	0xbeab6279	-0.33473566
29	0x3f2b97c3	0.67028445
30	0x3f16ef62	0.5895902
31	0xbec280c4	-0.37988865
32	0xbeee6d43	-0.46567735
33	0x3ef38ab5	0.47566763
34	0x3ec98b1d	0.39363948
35	0x3edf43f3	0.4360653
36	0x3f068582	0.52547467
37	0xbef04169	-0.46924904
38	0x3edb46e6	0.4282753
39	0x3ee7b464	0.45254815
40	0xbeffd578	-0.4996755
41	0xbef56724	-0.47930253
42	0xbf2a0737	-0.6641726
43	0x3f03f4eb	0.5154559
44	0x3ec18a99	0.37801054
45	0x3ee90dde	0.45518392
46	0x3ec96f89	0.39342907
47	0xbf1ef6a0	-0.6209507
48	0xbefd1530	-0.49430227
49	0xbebf8b81	-0.3741112
50	0xbed2d885	-0.41180816
51	0x3e9eb3d7	0.30996582
52	0xbeeb32ff	-0.45937344
53	0x3f1a928d	0.6037987
54	0xbf209b97	-0.6273741
55	0xbf0c63f6	-0.5484003
56	0x3ef79cd8	0.4836185
57	0xbeca4001	-0.39501956
58	0x3f274c25	0.6535056
59	0xbed84b03	-0.4224473
60	0xbf140fdc	-0.578367
61	0xbea2165b	-0.3165768
