gcn_nba.pth (torch, 29087 bytes, 3 tensors)

bias f4 [62]
00000000: a83c ba3d de02 cc3d d1d1 5b3e 9238 b83d
00000010: 9994 10be aaf7 c6bd 4b72 b2bd 4228 d1bd
00000020: b3b5 cb3d b4fe cb3d 8849 a8bd 9107 c5bd
00000030: 832c b43d 4831 cebd 1804 b3bd 2b69 c9bd
00000040: 8b20 c03d a1b3 443d eaee f3bd fd31 c33d
00000050: 392a cbbd 624d dfbd eaf0 b9bd cba7 8cbc
00000060: 0ac4 bc3d 04bc 55be f394 cfbd cf4b d13d
00000070: 1165 c83d 2210 b8bd 79af c6bd 1d2d ccbd
00000080: 513d b9bd 5cc6 c53d 44a9 c1bd 04cb c83d
00000090: eb44 d0bd 6009 cdbd 5462 cabd 1744 3cbd
000000a0: 5124 83be 29c8 b33d 6802 a5bd 670d bf3d
000000b0: 781f aa3d 1757 c53d bfd4 c33d 7762 c9bd
000000c0: 7904 cbbd 842f d1bd fc10 cc3d b18a c4bd
000000d0: e22d cb3d 1228 cdbd 3a03 cbbd 88c4 3cbe
000000e0: f715 e0bd 3307 c1bd 167d d33d c1a8 bc3d
000000f0: a24a d33d cb56 a6bd
0.090936005 0.099614844 0.21466757 0.08995165 -0.14119186 -0.09715207 -0.08713206 -0.10212757
0.09946766 0.0996069 -0.0821715 -0.09620584 0.087975524 -0.100679934 -0.08741015 -0.09834512
0.09381207 0.04802287 -0.119108036 0.09531019 -0.09920163 -0.109034315 -0.09079154 -0.017169854
0.09217079 -0.20872504 -0.10135832 0.102195375 0.09784902 -0.08987452 -0.097014375 -0.09969542
-0.09044898 0.09656975 -0.09456113 0.09804347 -0.10169395 -0.10011554 -0.09882036 -0.045963373
-0.25613645 0.08778412 -0.080570996 0.09328728 0.083067834 0.09635752 0.095620625 -0.09833234
-0.099129625 -0.10214141 0.09964177 -0.09596766 0.09920861 -0.100174084 -0.09912725 -0.18434346
-0.109416895 -0.09425201 0.103265926 0.09211875 0.103169695 -0.08122023

weight f4 [62, 95]
00000000: b3c1 84be dbb3 3f3e 5ac1 263c 02dd 2bbd
00000010: 8128 a1be 1f09 7c3e 4e56 3d3d fbe8 e9be
00000020: 07bc 2ebe 6b8b d53b 59f0 e1bd 7ccc f7bd
00000030: 7ad3 60be a3ed 95bd 32b4 69be f26d e8bc
00000040: 4a11 2ebe 1c78 af3d fa4f 55be d6c7 e5bd
00000050: d8b3 d93c 3bdd ef3c f5f2 32be 11e8 10be
00000060: 3d99 69be 75b7 0f3e 8cf8 e03e 8ac9 73be
00000070: 301c ab3c 741e 8b3e b4ba b9be ebc8 e53c
00000080: a736 e8bd 6579 fa39 4488 99be 1def ec3d
00000090: c906 a83d 2ade 3e3e 6028 abbe d1ec 093e
000000a0: 2545 4dbd b45f 0b3e ce80 09be 2f6f b1ba
000000b0: 3d17 6f3e 24ae 14be 6855 74be 331d adbe
000000c0: ee3f de3d a3cd ab3d 595d 8fbe 4570 c33d
000000d0: 7e53 0b3e dbb2 d63e 022f 643c fd87 4b3d
000000e0: 4fca e7bd 0f6e 27be e56b 86bd e2e7 ddbe
000000f0: 41a7 e0bd e002 343e dce0 dcbd 84a2 4c3e
00000100: 40c0 12be 980d 203e 3490 d2bd 81a4 8b3d
00000110: 143b 3b3e e8e5 11be d10a 80be 7f1d 613e
00000120: a41a 37be 01b0 c63e 11ad 13be 09c5 49be
00000130: 025d 7cbc 826a 243d 6a40 41bc 3e5b 68bd
00000140: 81d9 17be 135b debd b9ce 40be 0edb 7c3d
00000150: 2532 02bd 264d 1c3e a541 c13d 1904 1f3c
00000160: 0e32 463d 021a 0ebc fe29 773e dee6 86bd
00000170: 9483 333e bd0b 153d c96d 9c3d 4f5e a4be
00000180: 2ff8 d53d 35ad adbc d23e cebd f786 95be
00000190: 4098 233e 52ab 563e cc18 39bd d805 1cbd
000001a0: 126d 1f3d b2f8 85be 8ec0 79bd f51e 13be
000001b0: c7d4 5d3d a324 8ebe 80b9 0fbd 620b ee3d
000001c0: 0b80 563d c9ca 46be 7102 82be 4209 6a3d
000001d0: 0a68 693c 9dea 87be d108 aabd 0fb6 a1bd
000001e0: 4496 2a3e 9e86 8b3d 00b4 a6be 50d6 4e3e
000001f0: 52b9 9abd 7f0e bcbd 80f6 853e a541 8c3d
00000200: f322 07be 68d8 b83d a013 323e 33bd 0ebd
00000210: b606 e63d 0ad3 04bd 678e e53d e05c ea3d
00000220: f45a ff3c c2cc 123d ac64 503c d36e 1cbd
00000230: d537 a53d d7a1 063c 6090 b23d 805d ac3d
00000240: e9f3 663a f1bb d0bd 34dd 973d 3376 10be
00000250: 937c db3a d573 233e 88fc c1bd 8f6f 633d
00000260: 4ef2 0c3e 65f1 ad3d 9636 40be eac6 f4bc
00000270: bd6b 56bd d063 183e 9c47 2f3e 2469 eebd
00000280: 3cfa a63c 3f87 f53d 3c47 723e a793 003e
00000290: 2fdd 0c3e b2e4 5ebd 4483 133d fc1e 23be
000002a0: 938f 2fbd d270 12be 1725 f9bd 5658 b7bc
000002b0: bc21 f23c 2e42 063e 6fa5 053e f801 05be
000002c0: 3105 523c b86d 663c fa2f 27be ec2b c3bd
000002d0: e03c 85bd be33 05be 0484 3d3e 544d a33d
000002e0: 020d b7bc 8839 723e 2cbc 01be 91cb 053e
000002f0: f00d 09be 5610 543c e0c7 12bf 6d0c e03e
00000300: 1709 d03e 86cb 783d 3b93 cebe 7ae4 d53e
00000310: 8d3f 183f d222 1abf b519 883d 5be8 92be
00000320: a911 b2bd b050 e6be 6fd9 92be 4ff4 0ebe
00000330: a596 18bf f55b 4b3d 7c1f 5bbc acfc 2a3d
00000340: 53d7 50bd 76e3 7fbe 238e fc3e dc76 6b3e
00000350: dc5b 51be a680 8e3e 73da 97be 44b1 f63e
00000360: c3d1 ea3e 328e f8be 97b4 8d3e 196f d73e
00000370: 5246 26bf 582c 0f3e ea80 1f3e b5d3 ef3d
00000380: 4f14 97be 37b6 a43d aeac 813e ea8b 883e
00000390: 6cbb 45bf 1b0a bd3e b747 853e dd1d f43e
000003a0: ac5a b1bd 53e7 89be b89e e43e 481f d4be
000003b0: 8fc4 4dbd 4cd1 d7be 2439 5abe 8604 9e3e
000003c0: c240 39bf 60fd 4f3e a020 68bd 2487 093f
000003d0: 50c8 913e 684d 5d3e f878 053e 066b f5bc
000003e0: 24ed 0f3e b3d3 25bf 7fc3 27bd 2293 c43c
000003f0: 82b0 4bbe 4dbb 023f 8a99 aabe c859 b6bd
-0.2592903 0.18720953 0.010177935 -0.041958816 -0.31476215 0.24612854 0.046224885 -0.45685562
-0.17063914 0.006516864 -0.11032171 -0.12099549 -0.21955672 -0.07320716 -0.22822645 -0.028372739
-0.16998783 0.08567831 -0.2083129 -0.11219756 0.026575014 0.029280296 -0.17475493 -0.14151026
-0.22812362 0.14034827 0.43939626 -0.2380735 0.020887464 0.2717167 -0.36275256 0.028049907
-0.11338549 0.00047774162 -0.29986775 0.11569045 0.08204419 0.18639436 -0.3342924 0.13469245
-0.05011477 0.13610727 -0.13428041 -0.0013537164 0.23348708 -0.14519554 -0.23860705 -0.3381134
0.10852037 0.083888315 -0.28000906 0.09542898 0.13606068 0.4193333 0.013927223 0.049690235
-0.11317884 -0.16350578 -0.06563548 -0.43340975 -0.10969401 0.17579222 -0.10785076 0.1998387
-0.1433115 0.15630186 -0.10281411 0.06818486 0.18284255 -0.14247859 -0.25008252 0.21983908
-0.17881256 0.38806155 -0.14421488 -0.19704069 -0.015403034 0.040140636 -0.011795143 -0.05672764
-0.14829065 -0.10857215 -0.18828858 0.061732344 -0.031786103 0.15263805 0.09436349 0.009705567
0.04838758 -0.008673193 0.24137112 -0.06587003 0.17530662 0.036388148 0.07638127 -0.32103202
0.10447728 -0.021200756 -0.10070576 -0.29204533 0.15976048 0.20963791 -0.045189664 -0.03809151
0.038922377 -0.26166302 -0.06097465 -0.14367278 0.054158 -0.27762327 -0.035089016 0.11623265
0.052368205 -0.19413294 -0.25392488 0.057137735 0.014245996 -0.26546183 -0.08302463 -0.07896053
0.16658884 0.068127856 -0.32559204 0.20198941 -0.07554878 -0.091824524 0.26164627 0.06848458
-0.13196926 0.09025651 0.17390299 -0.034848403 0.11231749 -0.032427825 0.11208802 0.11443496
0.0311713 0.035839804 0.012719315 -0.038191628 0.0806729 0.008217297 0.087189436 0.08416271
0.0008810149 -0.10192097 0.07415238 -0.1410759 0.00167455 0.15962155 -0.09471995 0.055526312
0.13764307 0.08493308 -0.18770823 -0.029880006 -0.05234884 0.14881825 0.1711716 -0.11641148
0.020382993 0.11988687 0.23659986 0.12556325 0.1375625 -0.05441732 0.036013857 -0.15929788
-0.042861532 -0.1430085 -0.121652775 -0.022380989 0.029557101 0.13111183 0.13051389 -0.12989032
0.012818621 0.014064245 -0.16326895 -0.09529862 -0.065057516 -0.1300802 0.18507391 0.079737335
-0.02234507 0.23654759 -0.12669438 0.13065936 -0.13384223 0.012943348 -0.57336235 0.4375948
0.40631935 0.06074097 -0.40346703 0.41775876 0.5947197 -0.6020938 0.06645528 -0.28692898
-0.08694775 -0.44983435 -0.28681514 -0.13960384 -0.59604865 0.049648244 -0.013374206 0.041744873
-0.0509866 -0.24989113 0.49327192 0.2299456 -0.20445198 0.27832526 -0.2965885 0.48182118
0.4586316 -0.48545986 0.27676842 0.42076948 -0.6495105 0.1398176 0.1557652 0.11710302
-0.29507682 0.08042567 0.25327057 0.26669246 -0.7723911 0.36921772 0.26031277 0.47679034
-0.086598724 -0.269343 0.44652343 -0.41430116 -0.05023628 -0.42151868 -0.2131086 0.30862826
-0.7236444 0.20311499 -0.05667174 0.53721833 0.2847314 0.2161156 0.13034427 -0.02995826
0.14055306 -0.6477615 -0.040957924 0.02399594 -0.19891551 0.5106705 -0.33320266 -0.08903843

weight f4 [1, 62]
00000000: e71f 54bf 927c ddbe 8e42 42bf 98b4 13bf
00000010: fd5a 6a3f 0a46 233f 4b9e 993e e96e 493f
00000020: 08e5 90be 594a c2be b918 133f 6c43 973e
00000030: 8153 d3be 605b 1d3f c5d4 9e3e 32fc 163f
00000040: 34a8 9cbe 4021 3dbf ea8d 823f 124d 33bf
00000050: 270c 163f c0e6 583f 19d4 983e 5557 413f
00000060: e221 1cbf 3aed 343f 5c89 2b3f c556 92be
00000070: ca9a 06bf 9713 343f c96c af3e 1608 253f
00000080: e6a9 1b3f f31f 09bf bcce 673f 1cd2 d7be
00000090: 48f4 d83e e62b ed3e 1657 f13e 80f4 40bf
000000a0: 17fe 1d3f 7764 28bf ec71 a33e a9ba 0abf
000000b0: 3e4c 3cbf 6bd1 83be c647 56be 1f41 163f
000000c0: f672 fd3e 79c3 5c3f ee6a 92be 171e da3e
000000d0: da4a 9fbe c1c4 283f 8a49 003f 1bdf 493f
000000e0: da1e ed3e a919 853e bd06 c5be 4209 e6be
000000f0: afc5 8ebf 9ec0 3a3f
-0.8286118 -0.43259102 -0.75882804 -0.5769744 0.9154509 0.63778746 0.3000358 0.7868486
-0.28299737 -0.37947348 0.574596 0.29543626 -0.41274646 0.6146755 0.31021705 0.5897857
-0.3059708 -0.7387886 1.0199559 -0.70039475 0.58612293 0.84727097 0.29849318 0.75523883
-0.609892 0.7067448 0.6700647 -0.28581825 -0.5257994 0.7034239 0.34262684 0.64465463
0.6080612 -0.53564376 0.90549827 -0.42152488 0.42373872 0.46322554 0.47136754 -0.7537308
0.61715835 -0.657783 0.31922853 -0.5419107 -0.73553836 -0.2574571 -0.20925817 0.58693117
0.4950177 0.8623577 -0.28597206 0.42601082 -0.31111795 0.6592522 0.5011221 0.78856057
0.463126 0.2599614 -0.38481703 -0.44928938 -1.1154078 0.7295016
