gcn_fair_pokec2.pth (torch, 73375 bytes, 3 tensors)

bias f4 [62]
0	0xbd060d6e	-0.03272765
1	0xbcfaed97	-0.03063087
2	0x3cf43f2c	0.029815279
3	0xbd07885b	-0.033089023
4	0x3d29539f	0.041339513
5	0xbd0f610d	-0.035004664
6	0x3ce8cefa	0.028419007
7	0x3d22bbfd	0.03973006
8	0xbd072395	-0.032992918
9	0x3d0bc235	0.034120757
10	0xbcf9a383	-0.030473476
11	0xbd059e61	-0.032621745
12	0x3d06237b	0.03274868
13	0xbcf888b6	-0.030338626
14	0x3d0547f9	0.03253934
15	0xbd148fd2	-0.03626997
16	0x3d085715	0.033286173
17	0xbcfd2b22	-0.030904356
18	0xbcf06d14	-0.029348888
19	0x3d0500c7	0.032471444
20	0x3cd233ba	0.02565943
21	0x3ceb3a30	0.02871427
22	0xbd07c193	-0.03314359
23	0x3d3245a9	0.043523464
24	0xbd051067	-0.032486346
25	0xbd16deae	-0.036833458
26	0xbcfc95f4	-0.030833222
27	0x3d046f6e	0.03233283
28	0x3cb853ee	0.022500958
29	0x3d0556e2	0.03255356
30	0x3d0560c2	0.03256298
31	0xbd22002e	-0.039550953
32	0xbcf549f8	-0.029942498
33	0x3d097a4d	0.0335639
34	0x3cfadb72	0.030622218
35	0x3cf0f751	0.029414805
36	0x3cfaec88	0.030630365
37	0xbd0997ca	-0.033592023
38	0x3d0aefb8	0.03392002
39	0x3cfc3144	0.03078521
40	0xbcfa311b	-0.030540993
41	0xbd0cee5c	-0.034407005
42	0xbcffe5e6	-0.031237554
43	0x3cfb0999	0.030644225
44	0x3d2d6f16	0.042342268
45	0x3cf9c42a	0.030489046
46	0x3c87c634	0.016574003
47	0xbd048ea7	-0.032362606
48	0xbcf9b9e5	-0.03048415
49	0xbcce3aa5	-0.025174448
50	0xbcf4c373	-0.029878354
51	0xbcc84059	-0.024444746
52	0xbcf6a826	-0.030109476
53	0x3d050482	0.032475002
54	0xbcfe4a46	-0.031041276
55	0xbd056405	-0.03256609
56	0x3d0b38fb	0.033989888
57	0xbd11921e	-0.03553974
58	0x3d04d0e6	0.032425784
59	0xbd1a03e0	-0.03760135
60	0xbd04dfd4	-0.03244002
61	0xbcf1b052	-0.029503021

weight f4 [62, 276]
0	0x3dbe9d3b	0.09307333
1	0xbdbd7944	-0.09251645
2	0x3d737e78	0.059446782
3	0xbc2e8098	-0.010650776
4	0xbde77c4a	-0.11303003
5	0xbe197128	-0.14984572
6	0xbd413007	-0.047164943
7	0x3cd92512	0.026506934
8	0x3d9281b8	0.07153648
9	0x3d49ce3b	0.049268942
10	0xbb8eadad	-0.0043542
11	0x3c295d38	0.0103371665
12	0xbd7df1cf	-0.061998185
13	0xbc498c7a	-0.012301559
14	0xbe27160f	-0.16317008
15	0x3d8b971f	0.068159334
16	0xbd2ac2bb	-0.041689616
17	0xbcb67582	-0.022272829
18	0x3d69f5e2	0.057119258
19	0xbdf2309e	-0.11825679
20	0xbd707929	-0.058709297
21	0xbe148fd2	-0.14507988
22	0xbde27850	-0.11058104
23	0x3d44d995	0.048059065
24	0x3c08ddda	0.008353675
25	0xbdf0e7ec	-0.117629856
26	0x3cd45b69	0.025922494
27	0xbd0502ce	-0.032473378
28	0xbdaa3907	-0.08311658
29	0xbde4f057	-0.11178654
30	0xbbefac10	-0.0073142126
31	0xbdb28fee	-0.08718859
32	0x3d91afd5	0.071136154
33	0xbd290587	-0.041265037
34	0x3d911b2c	0.07085261
35	0x3d80c6b7	0.06287902
36	0xbe109e5c	-0.1412291
37	0xbe0d46d0	-0.13796544
38	0x3d11a31e	0.03555595
39	0xbd90ec36	-0.07076304
40	0xbcdda074	-0.02705405
41	0x3dab5cfc	0.08367345
42	0xbd25fc32	-0.040523715
43	0xbd9d09a5	-0.07667855
44	0xbd8b4432	-0.068001166
45	0xbe085450	-0.13313413
46	0xbcd5edbf	-0.026114343
47	0xbbc27b1d	-0.0059350864
48	0xbd95d851	-0.0731665
49	0xbdd7d658	-0.1053893
50	0xbdfeab81	-0.124350555
51	0xbd924a64	-0.07143095
52	0xbe15ed98	-0.14641416
53	0x3dca50fc	0.09878728
54	0xbd2eb37c	-0.04265164
55	0xbdb16b1c	-0.086630076
56	0xbc6b53ea	-0.014363268
57	0xbd3253e4	-0.043537036
58	0x3daeb407	0.08530431
59	0x3d47eed6	0.048811756
60	0xbc3e0be3	-0.011599514
61	0xbe245e18	-0.16051519
62	0x3a1014ee	0.0005496283
63	0x3d8ebe00	0.069698334
64	0xbdcbffbd	-0.099608876
65	0xbd3dc5cd	-0.046331216
66	0xbda8eed2	-0.08248676
67	0xbdbabab7	-0.09117644
68	0x3d136554	0.035985306
69	0xbd20d835	-0.03926869
70	0x3bff6fe3	0.0077953204
71	0xbde5163b	-0.11185881
72	0x3dbcddfc	0.09222028
73	0xbe09f125	-0.13470896
74	0xbe079f1c	-0.13244289
75	0x3d919edf	0.071103804
76	0xbd75c7d7	-0.060005035
77	0x3d39f4d1	0.04539949
78	0xbdd1d96d	-0.10246549
79	0x3da1b771	0.07896317
80	0xbd452279	-0.04812858
81	0x3d0fca44	0.035105005
82	0xbe2be6eb	-0.16787307
83	0xbe04a243	-0.12952523
84	0xbe1e947a	-0.15486327
85	0xbc90afe7	-0.017662002
86	0xbcd236f1	-0.025660964
87	0x3d4c251c	0.049840078
88	0x3d647e20	0.055784345
89	0x3d2f39f9	0.042779896
90	0xbcb564af	-0.022142736
91	0xbe2184e8	-0.15773356
92	0xbe111667	-0.14168702
93	0x3d6b5368	0.05745259
94	0x3dbb16b1	0.091351874
95	0xbd57a744	-0.05264975
96	0x3d5d6bf9	0.05405805
97	0xbd8ee325	-0.06976918
98	0xbdb8367e	-0.089947686
99	0x3d8a8e76	0.067654535
100	0xbe13e5b6	-0.14443097
101	0xbe09d63e	-0.13460633
102	0x3d556365	0.052096743
103	0xbc42d2f7	-0.011891118
104	0x3d80b49d	0.06284449
105	0xbbff5b91	-0.007792898
106	0x3d7cc1b3	0.061708163
107	0x3d6325a5	0.055455822
108	0x3c57e569	0.013177254
109	0x3ccafa4b	0.024777552
110	0x3c703941	0.014662088
111	0xbdece722	-0.115675226
112	0xbb8e5e24	-0.0043447185
113	0x3cbb77a7	0.022884203
114	0x3d639e90	0.05557114
115	0xbc1341b7	-0.008987836
116	0xbe089a80	-0.13340187
117	0xbdab5fe7	-0.08367901
118	0xbd10a86a	-0.035316862
119	0xbe11118c	-0.1416685
120	0xbd21a4e1	-0.03946388
121	0xbc224189	-0.00990332
122	0x3d011dff	0.031522747
123	0xbcaaecc5	-0.020864854
124	0x3c29a6aa	0.010354677
125	0x3aa5db28	0.0012653815
126	0xbe08a3d8	-0.13343751
127	0x3d5dc1f1	0.054140035
128	0xbe14be67	-0.14525758
129	0x3da89971	0.082323916
130	0xba0bbbfe	-0.0005330442
131	0xbd23e618	-0.040014356
132	0x3d304b15	0.043040354
133	0xbd15f76e	-0.03661292
134	0x3d5ffd2a	0.054684795
135	0x3d922a2f	0.07136952
136	0xbdbc08ab	-0.09181341
137	0x3cc1c681	0.023654224
138	0x3d4724df	0.048619147
139	0xbdda5098	-0.10659903
140	0x3dc6b065	0.09701613
141	0xbddc4b01	-0.10756493
142	0xbc99faa1	-0.018796267
143	0xbe02de62	-0.12780145
144	0xbe285268	-0.16437685
145	0x3d8b6de4	0.06808069
146	0x3da16cc0	0.078820705
147	0xbd4549e7	-0.048166182
148	0xbe2799f8	-0.16367328
149	0xbdaacc92	-0.083398
150	0x3dbd0d7b	0.09231087
151	0xbe21993d	-0.15781112
152	0xbdf87d5a	-0.12133284
153	0xbd593234	-0.053026393
154	0x3c10c195	0.008835216
155	0xbe09ab6d	-0.134443
156	0xbced2e69	-0.028952794
157	0xbe1ca316	-0.15296587
158	0x3db15eb9	0.08660645
159	0xbe12bde6	-0.14330253
160	0x3d602ea6	0.054731987
161	0xbc65ea2f	-0.0140328845
162	0xbe163a19	-0.146706
163	0xbda3f7fd	-0.080062844
164	0xbc8b1823	-0.016979283
165	0x3d54b92d	0.05193441
166	0xbdb02bcc	-0.086021036
167	0xbe02fe1b	-0.12792246
168	0xbbafadec	-0.0053613093
169	0xbd94f384	-0.072730094
170	0xbe00d2c9	-0.12580408
171	0x3db8e9b6	0.09028952
172	0xbd824ebd	-0.063626744
173	0xbc789d8c	-0.015174281
174	0xbe07652d	-0.13222189
175	0x3d9d0d69	0.076685734
176	0x3dac6854	0.084183365
177	0x3c9ff45f	0.019525705
178	0x3d0689c7	0.03284624
179	0xbd01e71d	-0.031714547
180	0x3d90f844	0.07078603
181	0x3b4ae2ab	0.0030957859
182	0x3d51e22f	0.051241096
183	0x3c12a590	0.008950606
184	0xb90b64a0	-0.00013293559
185	0xbd17eda4	-0.037091866
186	0xbe135537	-0.14387976
187	0x3dcaed4f	0.09908544
188	0x3b3f6655	0.0029205282
189	0xbd7ea387	-0.06216767
190	0x3c4cfeef	0.012511953
191	0xbe0f2597	-0.13979183
192	0x3d3f5d5e	0.0467199
193	0xbcb03e62	-0.021514121
194	0xbcd16aeb	-0.025563678
195	0xbdc2988a	-0.09501751
196	0x3b4b9a5e	0.0031067352
197	0xbe222f6e	-0.15838405
198	0xbb8d1c50	-0.0043063536
199	0xbd8475dc	-0.064677924
200	0x3d46fbff	0.048580166
201	0x3cc7f4eb	0.024408778
202	0xbe17d7b9	-0.14828385
203	0xbe2cbb81	-0.16868402
204	0xbd1211fc	-0.035661682
205	0xbdb09627	-0.08622389
206	0x3db78dad	0.089625694
207	0x3db35d17	0.0875799
208	0x3b9f21bf	0.004856318
209	0x3ca41bfe	0.020032879
210	0x3db366c4	0.08759835
211	0x3cf7793b	0.030209174
212	0xbe0fc3e9	-0.14039578
213	0xbda889ac	-0.08229384
214	0x3d26b53b	0.04070018
215	0x3d3893fb	0.045063
216	0x3c4d2d4d	0.012523008
217	0xbe1a3140	-0.1505785
218	0xbd5877bb	-0.05284856
219	0x3b448b0e	0.002999011
220	0x3ca5ef5c	0.020255737
221	0xbd6fb228	-0.058519512
222	0xbcac74e5	-0.021051833
223	0xbdc277e4	-0.094955236
224	0x3d9d5966	0.07683067
225	0x3ca88636	0.02057181
226	0xbe0da34e	-0.13831827
227	0xbe25a062	-0.16174462
228	0xbb972bd8	-0.004613381
229	0xbe13cd9a	-0.144339
230	0x3c950f75	0.018195847
231	0x3d1a6938	0.037698
232	0x3d8a277b	0.067458116
233	0xbd9a54f6	-0.07535736
234	0x3d909e9e	0.07061504
235	0xbdae5444	-0.08512166
236	0xbdfeda55	-0.12443987
237	0x39142b38	0.0001413048
238	0x3b0df9d0	0.0021663792
239	0xbb288624	-0.002571472
240	0xbc7cd11f	-0.015430718
241	0xbc01057b	-0.007874842
242	0x3db16b1d	0.08663008
243	0xbdb3f462	-0.08786847
244	0xbd151c69	-0.036404047
245	0x3d11dd6e	0.035611562
246	0x3d859189	0.06521899
247	0xbd613e4f	-0.054991063
248	0x3d612d44	0.05497481
249	0xbd5bbb6d	-0.05364554
250	0x3dbda50c	0.09259996
251	0x3d831079	0.06399626
252	0xbd9ebddd	-0.07751057
253	0xbd09e3f2	-0.03366465
254	0xbd0fd225	-0.03511252
255	0x3d8b706f	0.068085544

weight f4 [1, 62]
0	0xbe6ca071	-0.23108079
1	0xbe2a5e1f	-0.16637467
2	0x3dbf52af	0.093419425
3	0xbe302f53	-0.17205553
4	0x3d627b27	0.05529323
5	0xbddc2210	-0.107486844
6	0x3d302bbd	0.043010462
7	0x3d66c5f8	0.05634114
8	0xbe50e386	-0.20399293
9	0x3e0155b0	0.12630343
10	0xbe2a8023	-0.16650443
11	0xbe74a33e	-0.23890397
12	0x3e5cbbd8	0.21556032
13	0xbe13498d	-0.14383526
14	0x3e7e14ce	0.24812624
15	0xbd963d1b	-0.07335874
16	0x3e1ea22c	0.15491551
17	0xbe834789	-0.25640514
18	0xbd81b174	-0.063326746
19	0x3e46cacf	0.19413303
20	0x3c5bc3c7	0.013413376
21	0x3d4bd65c	0.049764976
22	0xbe3578fc	-0.17721933
23	0x3d35929b	0.044329267
24	0xbe901b3f	-0.28145787
25	0xbd942ae0	-0.0723474
26	0xbe843421	-0.2582102
27	0x3e9d222b	0.3069013
28	0x3a52de3b	0.0008043979
29	0x3e9d4901	0.3071976
30	0x3e830090	0.25586367
31	0xbd5edd55	-0.054410297
32	0xbdc43fbb	-0.09582468
33	0x3e107eab	0.1411082
34	0x3e4b8aa3	0.19877104
35	0x3d92c56d	0.07166562
36	0x3e3a4eed	0.1819417
37	0xbe0c6060	-0.13708639
38	0x3df6aa35	0.12044183
39	0x3e7a9da8	0.24474204
40	0xbe1ca096	-0.15295634
41	0xbdfff0ad	-0.12497077
42	0xbe967280	-0.29384232
43	0x3e0c3dca	0.13695446
44	0x3d433101	0.047654156
45	0x3e2c85ad	0.16847868
46	0x3bec51f9	0.0072119203
47	0xbe985b8e	-0.2975735
48	0xbe0c868e	-0.13723204
49	0xbc5137c1	-0.01276964
50	0xbdc4e6ff	-0.096143715
51	0xbbe34e44	-0.00693682
52	0xbdcb7b71	-0.09935654
53	0x3e8c8fc0	0.27453423
54	0xbe8268cb	-0.25470576
55	0xbe79927e	-0.24372289
56	0x3e08fe87	0.13378344
57	0xbda7cffa	-0.08193965
58	0x3e9e64e9	0.30936363
59	0xbd8dd946	-0.06926207
60	0xbe8bf00e	-0.27331585
61	0xbd9bb8e3	-0.07603624
