gcn_income.pth (torch, 5407 bytes, 3 tensors)

bias f4 [16]
0	0x3c3d6c3e	0.0115614515
1	0xbc860d1d	-0.016363675
2	0xbc2b8adf	-0.010470121
3	0x3d36ffcc	0.04467754
4	0xbc56bf9f	-0.0131072095
5	0xbc281e88	-0.0102611855
6	0xbc62ab00	-0.013834715
7	0x3c867c3b	0.01641666
8	0x3c8b2076	0.016983252
9	0x3c6c5279	0.01442396
10	0x3c529e6b	0.012855153
11	0xbc8eb5a5	-0.0174206
12	0x3c4a605c	0.012352075
13	0x3c6df560	0.014523834
14	0xbc6cf89a	-0.014463568
15	0x3c83e1c8	0.016098872

weight f4 [16, 14]
0	0x3e944efd	0.28966513
1	0xbe589153	-0.21149187
2	0xbdb77869	-0.08958513
3	0x3e8dd301	0.27700046
4	0x3f3d2b03	0.73893756
5	0x3e4ab7f5	0.19796737
6	0xbd5fcb38	-0.054637164
7	0xbeed91c9	-0.46400288
8	0x3eca2015	0.39477602
9	0xbd8b5f24	-0.06805256
10	0xbddaabaf	-0.10677277
11	0x3e0c7fd5	0.13720639
12	0xbdb8c6b9	-0.09022278
13	0x3ea494e7	0.32144853
14	0x3e346866	0.1761795
15	0xbed29d07	-0.41135427
16	0xbeb2ffdf	-0.3496084
17	0xbd40ab78	-0.047038525
18	0xbe0cd8dd	-0.13754602
19	0x3e36ef9d	0.17864843
20	0xbe0515d1	-0.12996604
21	0x3e02381a	0.12716714
22	0xbebda4db	-0.37039837
23	0xbeb37160	-0.35047436
24	0xbeb224a9	-0.34793594
25	0x3ea12fba	0.31481725
26	0x3e4667e0	0.19375563
27	0xbe3e1e66	-0.18566284
28	0xbd939e1d	-0.07207892
29	0x3dad4f39	0.08462376
30	0x3cee2c91	0.029073985
31	0xbe265e0b	-0.16246812
32	0xbe3c2646	-0.18373975
33	0x3f02f378	0.51152754
34	0x3c0247c6	0.007951682
35	0x3dc6d234	0.09708062
36	0x3edeefdf	0.43542382
37	0x3eb3ec7a	0.35141355
38	0xbea54a6d	-0.32283345
39	0x3eb71994	0.35761702
40	0xbe013b42	-0.12620261
41	0xbea51c4c	-0.3224815
42	0x3e093c6f	0.1340196
43	0xbe4e0c5a	-0.20121899
44	0xbdb907c2	-0.09034683
45	0xbd13468e	-0.035955958
46	0xbf0193c0	-0.50616074
47	0x3effd048	0.49963593
48	0x3b5eccc1	0.0033996555
49	0x3f15b449	0.5847822
50	0xbe4a8faf	-0.19781373
51	0xbd87dbc4	-0.06633714
52	0xbef8660a	-0.4851535
53	0xbd8c6ae8	-0.06856328
54	0xbeff1ab4	-0.4982506
55	0xbe1e8895	-0.1548179
56	0xbe3fe334	-0.18739015
57	0x3d445bbc	0.047939047
58	0x3eb609bd	0.35554305
59	0x3e1278f2	0.1430395
60	0xbf100060	-0.5625057
61	0x3cd87fcd	0.026428128
62	0xbe56a703	-0.20962147
63	0x3f0495cd	0.5179108
64	0xbd2ef3f1	-0.04271311
65	0x3d7d8365	0.061892886
66	0xbd9900aa	-0.0747083
67	0xbea4729f	-0.321187
68	0x3c3f67cc	0.011682462
69	0x3e35e8ac	0.17764539
70	0xbd937d2d	-0.0720161
71	0xbe9904fa	-0.2988661
72	0xbe44960b	-0.19197862
73	0x3d25479c	0.040351495
74	0xbf3309c5	-0.6993678
75	0x3c71f974	0.014768947
76	0xba57143c	-0.0008204614
77	0x3cfeb96c	0.031094275
78	0x3e13ddcd	0.14440079
79	0xbe06a156	-0.13147482
80	0xbe1be73b	-0.15224926
81	0xbe4e3ac5	-0.20139606
82	0xbf1e5f5d	-0.6186426
83	0x3e907a5b	0.2821835
84	0xbacc73b4	-0.0015598447
85	0x3e8fbeae	0.28075165
86	0xbd89afb9	-0.067229696
87	0xbdcba028	-0.09942657
88	0xbf3e5702	-0.74351513
89	0x3cadba9b	0.021207144
90	0x3e0d3fbe	0.13793847
91	0xbea1ad11	-0.31577352
92	0xbde12cc2	-0.10994865
93	0x3e6bc4fb	0.23024361
94	0x3e3f8e57	0.18706642
95	0x3df86275	0.12128154
96	0xbe85a596	-0.26102895
97	0xbd8e581b	-0.069503985
98	0x3c80f34b	0.015741011
99	0xbd942722	-0.072340265
100	0x3e37abcd	0.1793663
101	0xbe0da274	-0.13831502
102	0x3db7f355	0.08981959
103	0xbdcda881	-0.10041905
104	0xbe7679f4	-0.24069959
105	0xbe5e1d33	-0.21690826
106	0x3e398d09	0.18120207
107	0x3e5098dd	0.20370813
108	0x3edf9d3c	0.43674648
109	0xbe823875	-0.25433698
110	0x3e4c1bc1	0.19932462
111	0xbdad2c05	-0.08455662
112	0xbe15dd91	-0.14635302
113	0xbe1ee688	-0.15517628
114	0x3dd5b750	0.10435355
115	0x3d6fd467	0.058552172
116	0x3db31200	0.087436676
117	0xbeff2509	-0.49832943
118	0xbe83e8f6	-0.25763673
119	0x3ea2750d	0.31729928
120	0xbdfb9142	-0.12283565
121	0xbd76ec83	-0.06028415
122	0xbdcd46a6	-0.10023241
123	0xbe334dc8	-0.1751014
124	0xbe5a64d4	-0.21327525
125	0xbe5b640b	-0.21424882
126	0x3eb77481	0.35831073
127	0x3e32ebb5	0.17472728
128	0xbe1a530a	-0.1507074
129	0xbe2998ea	-0.16562238
130	0x3f251d62	0.6449796
131	0x3de6ec4d	0.112755395
132	0x3e8e4124	0.27784073
133	0x3bc65ee0	0.0060537905
134	0x3e2ec56a	0.17067495
135	0xbae7624f	-0.00176532
136	0xbe401672	-0.18758562
137	0xbec61adc	-0.38692367
138	0x3eed6135	0.46363226
139	0xbc942eaa	-0.018088657
140	0x3e8cdddd	0.27513018
141	0x3ddfb0d1	0.10922397
142	0xbec8d413	-0.392243
143	0xbe6b03b3	-0.2295063
144	0x3f0ac875	0.54212123
145	0xbea7f660	-0.32805157
146	0xbea20adb	-0.31648907
147	0x3c4a7884	0.012357835
148	0xbcbef3f9	-0.023309695
149	0xbded66bd	-0.115918614
150	0x3e861252	0.26185852
151	0x3e0afa9a	0.1357216
152	0x3d8d5582	0.06901075
153	0x3ee426d9	0.44560888
154	0x3de85543	0.113443874
155	0xbd13dd97	-0.036099996
156	0xbdab002f	-0.083496444
157	0xbebf472a	-0.3735898
158	0xbc2a5501	-0.010396243
159	0x3dcdafee	0.100433215
160	0xbe424abe	-0.18973824
161	0x3ed55430	0.41665792
162	0x3e50fc61	0.20408775
163	0x3d8fe87e	0.07026766
164	0xbe261372	-0.16218355
165	0xbe3ded21	-0.18547489
166	0xbe092e81	-0.13396646
167	0x3e929d55	0.2863566
168	0x3e2122a5	0.15735872
169	0xbdcac751	-0.09901298
170	0x3edaa302	0.4270249
171	0xbc70b1f3	-0.014690864
172	0x3f46a852	0.77600586
173	0xbe0d6adb	-0.13810293
174	0x3e22c0cb	0.15893857
175	0x3dd06643	0.10175755
176	0xbe882e6d	-0.2659792
177	0x3ea9d934	0.33173525
178	0x3dc65a98	0.09685248
179	0xbe95a6b6	-0.29228753
180	0x3e0ff087	0.14056598
181	0xbe9de119	-0.30835798
182	0xbe04977e	-0.12948415
183	0xbe4c0b08	-0.19926083
184	0x3e9210c9	0.2852843
185	0xbdb189db	-0.08668872
186	0x3e8e16ba	0.27751714
187	0x3c028301	0.007965804
188	0x3d76bd4b	0.060239118
189	0xbed086e8	-0.40727925
190	0x3df34149	0.118776865
191	0x3e5ec021	0.21752979
192	0xbe89bfbb	-0.2690409
193	0x3ece47d0	0.40289164
194	0xbd821acb	-0.063527666
195	0xbdf3ecff	-0.11910438
196	0xbeeaa890	-0.45831728
197	0x3e97cdb6	0.29649132
198	0x3d9b1ba6	0.07573633
199	0x3ebb998b	0.3664058
200	0xbeb959fb	-0.36201462
201	0x3eef0e4d	0.46690598
202	0xbd92a4b5	-0.071603216
203	0xbe5c97d6	-0.21542296
204	0x3de89628	0.11356765
205	0xbd8f7c4b	-0.07006129
206	0xbdfd2885	-0.12361244
207	0xbe83fabf	-0.25777242
208	0xbe578fbb	-0.21050923
209	0x3d8fa51c	0.07013914
210	0x3e84e15a	0.2595318
211	0xbe72a4ee	-0.23695728
212	0x3e557c5e	0.20848224
213	0x3d2c4596	0.04205855
214	0x3f2ded9d	0.67940694
215	0x3dadf526	0.08494024
216	0xbe40146a	-0.18757787
217	0x3e8ff09a	0.28113252
218	0xbef569a1	-0.4793215
219	0x3e9316a4	0.2872821
220	0x3de6f920	0.112779856
221	0x3e807fe6	0.2509758
222	0xbc9541e6	-0.0182199
223	0x3e9b8619	0.30375746

weight f4 [1, 16]
0	0x3ed815f5	0.42204252
1	0xbec61109	-0.38684872
2	0xbe99663b	-0.29960808
3	0xbe8c0de0	-0.27354336
4	0xbf299af9	-0.66252095
5	0xbec48bf7	-0.38388035
6	0xbe96c36f	-0.2944598
7	0x3f111b66	0.5668243
8	0x3eda55ea	0.42643672
9	0x3f2697f3	0.65075606
10	0x3f6024f6	0.875564
11	0xbf1ea2f4	-0.61967397
12	0x3ef50e88	0.4786265
13	0x3e93fe19	0.289048
14	0xbf2401ed	-0.6406544
15	0x3ec8ba08	0.3920443
