gcn_pokec1.pth (torch, 74225 bytes, 3 tensors)

bias f4 [62]
0.019245252 0.020010594 0.01883951 0.020399662 0.01393786 -0.021275485 -0.017123256 -0.009159944
-0.013020354 0.01933733 0.018777888 -0.018253664 -0.018883672 -0.01705489 0.01909162 0.017814357
-0.01977008 0.020077141 0.007418296 -0.0138288345 -0.019774988 0.013370407 0.016907789 0.018707596
0.013654831 -0.00966187 -0.004115682 0.018712688 0.0147584 -0.009999793 0.008757218 -0.019010851
0.019327173 -0.017418562 -0.012978341 -0.017318595 0.020298135 0.014841457 0.020500135 0.0132034365
-0.017014932 0.02007735 -0.018536909 -0.01991706 0.017299877 0.013613856 -0.016256202 -0.018311512
0.019284163 -0.009580968 -0.020289507 0.0070457906 -0.014958423 0.012175909 0.017313495 -0.011478787
0.013427311 -0.0074512907 -0.014892109 -0.020475551 0.02127522 0.019257983
00000000: 38a8 9d3c 42ed a33c 5155 9a3c 311d a73c
00000010: 9f5b 643c ed49 aebc 1246 8cbc 9713 16bc
00000020: 5353 55bc 5269 9e3c 16d4 993c b588 95bc
00000030: eeb1 9abc b2b6 8bbc 0766 9c3c 6aef 913c
00000040: ddf4 a1bc d178 a43c 2d15 f33b 5692 62bc
00000050: 28ff a1bc 8d0f 5b3c 3482 8a3c ac40 993c
00000060: 83b8 5f3c d24c 1ebc d8dc 86bb 5a4b 993c
00000070: 37cd 713c 2cd6 23bc 6f7a 0f3c a5bc 9bbc
00000080: 0554 9e3c 5fb1 8ebc 1ca3 54bc badf 8dbc
00000090: 4648 a63c 9529 733c e6ef a73c 3a53 583c
000000a0: e662 8bbc 4179 a43c b7da 97bc 1a29 a3bc
000000b0: 79b8 8d3c a70c 5f3c ba2b 85bc 0602 96bc
000000c0: d2f9 9d3c 7ef9 1cbc 2e36 a6bc 60e0 e63b
000000d0: 2c14 75bc 777d 473c 08d5 8d3c 8611 3cbc
000000e0: 39fe 5b3c f529 f4bb 08fe 73bc 58bc a7bc
000000f0: 5f49 ae3c ebc2 9d3c

weight f4 [62, 277]
-0.03916246 0.040339366 -0.043285612 -0.08447852 0.04467916 0.010249072 -0.10089079 0.0148530025
-0.059322614 0.023416946 0.02412311 0.011136606 0.055964213 -0.10373316 0.016701171 0.086598575
0.009605914 0.10492692 -0.05493201 0.013062853 -0.08747152 -0.017859736 -0.06629401 0.04904589
0.02694478 0.00093880785 -0.060906284 -0.03671574 0.0657872 -0.040893342 -0.13587047 0.04891636
0.0244196 0.06846445 0.046769544 0.0062603005 -0.09250167 -0.030088343 0.0078086792 0.010380723
-0.10173784 -0.036541615 -0.07135162 -0.05807843 -0.110254616 0.0892395 0.0805264 -0.022003938
-0.070146255 0.037915003 0.017049253 -0.016840285 -0.010743757 -0.15209273 -0.046787944 0.0505124
-0.104440466 0.0567514 -0.044647958 -0.09918714 -0.051517256 0.09171401 -0.099867694 0.04951355
-0.0004754269 0.04155882 -0.11153384 -0.094249934 -0.031274386 -0.037637305 -0.04036202 0.027762815
0.061174396 0.081490286 -0.08363136 -0.05959352 0.087543815 -0.029481139 -0.050169166 0.048524912
-0.05891949 0.03337716 -0.020260422 -0.0030260645 -0.04742392 -0.13964026 0.009410617 -0.018970115
-0.08110491 0.023091774 -0.13426423 -0.058761984 0.045227565 0.06839865 0.09235599 -0.057153784
0.039491694 -0.06931561 0.058470685 0.030147783 -0.004755357 -0.06682963 -0.07659732 -0.10783515
-0.026369093 0.055386007 0.026310075 0.07638956 -0.10792516 0.10274089 -0.04198329 0.056479514
-0.08959786 -0.08468794 0.09373269 0.070469156 -0.07408224 -0.10850575 0.027801976 0.058501452
0.08605389 -0.022001812 -0.050925832 0.039612696 -0.084005035 -0.020824868 0.10108581 0.05940319
0.038275704 -0.04773041 0.19990617 -0.11065185 -0.05980066 -0.06497721 -0.05755156 0.09609988
0.010340618 0.079189345 0.016287671 0.015626194 -0.020569688 0.11518575 0.07083256 -0.062324915
0.0027014355 -0.015108556 -0.091075614 -0.12919673 0.09228211 0.06822056 -0.08179458 0.095501795
-0.06688446 -0.13675174 0.0043939287 0.018998781 -0.03824909 -0.010809757 -0.00608667 -0.052815698
0.08368023 -0.06267079 -0.057801843 -0.11832629 -0.045071963 0.041202042 -0.011449953 -0.08255615
-0.020228507 -0.044347975 0.044462994 0.13388829 0.0050116363 -0.041079134 0.15733956 -0.10877077
0.08318823 0.062340938 0.07750534 0.09222309 -0.0056446176 -0.07847741 -0.0480983 -0.105015665
0.04765504 -0.036863353 0.07052249 -0.110045776 0.06846047 0.030392308 0.0814644 -0.10350181
0.049659196 -0.043900892 -0.020305444 0.11790206 -0.054260157 0.06548485 0.0028557812 -0.005177407
0.076756835 0.012063121 -0.061284136 0.10872722 0.059045564 -0.06045609 0.06346786 0.00010795467
0.021081772 -0.0047976873 -0.081787236 0.097559676 0.12259079 -0.09957611 -0.093242735 0.1176956
0.05845269 0.004310658 -0.046578817 0.089291126 0.07259752 -0.14066902 -0.05794365 -0.04877916
-0.11559282 -0.035856538 0.032296292 -0.037991893 -0.12367403 -0.026814222 -0.0013719172 -0.103423245
0.019009404 -0.07599184 0.025729178 -0.02748757 -0.024191476 0.046619084 0.060269974 0.01750322
0.12555829 0.11246026 -0.024575904 0.03413882 0.09621046 -0.07490614 0.0062967506 -0.104228124
0.041715708 0.051675055 0.07474601 -0.006448368 -0.073989965 -0.061449703 -0.11897289 -0.024935236
00000000: d168 20bd e43a 253d 414c 31bd 1303 adbd
00000010: 7f01 373d b9eb 273c d59f cebd 025a 733c
00000020: 45fc 72bd e5d4 bf3c d49d c53c 5076 363c
00000030: bb3a 653d 0d72 d4bd e5d0 883c 985a b13d
00000040: 2062 1d3c ede3 d63d 6300 61bd 9405 563c
00000050: 4524 b3bd 954e 92bc 27c5 87bd 58e4 483d
00000060: 4dbb dc3c 541a 763a de78 79bd 3e63 16bd
00000070: 71bb 863d c77f 27bd a121 0bbe 855c 483d
00000080: 9d0b c83c 1737 8c3d 6c91 3f3d 3523 cd3b
00000090: 8471 bdbd d47b f6bc f3df ff3b e813 2a3c
000000a0: ee5b d0bd a9ac 15bd cc20 92bd a6e3 6dbd
000000b0: 2ccd e1bd 33c3 b63d 06eb a43d 9a41 b4bc
000000c0: d7a8 8fbd c34c 1b3d e0aa 8b3c a3f4 89bc
000000d0: 9506 30bc 32be 1bbe b7a4 3fbd 17e6 4e3d
000000e0: e2e4 d5bd 2874 683d c7e0 36bd a122 cbbd
000000f0: c203 53bd 8ed4 bb3d 6f87 ccbd b8ce 4a3d
00000100: b842 f9b9 9539 2a3d db6b e4bd 1c06 c1bd
00000110: 9219 00bd 9329 1abd a552 25bd d86e e33c
00000120: 0192 7a3d 61e4 a63d eb46 abbd 5618 74bd
00000130: 2c4a b33d 6e82 f1bc 2f7e 4dbd 0fc2 463d
00000140: 9055 71bd 7db6 083d 2ff9 a5bc f050 46bb
00000150: 963f 42bd dbfd 0ebe fd2e 1a3c 3767 9bbc
00000160: 551a a6bd f62a bd3c 907c 09be 68b0 70bd
00000170: 8a40 393d 9714 8c3d 2325 bd3d 161a 6abd
00000180: 0bc2 213d 58f5 8dbd f57e 6f3d 7cf8 f63c
00000190: d3d2 9bbb f9dd 88bd 0edf 9cbd add8 dcbd
000001a0: ff03 d8bc 70dc 623d 3a88 d73c 2172 9c3d
000001b0: de07 ddbd d169 d23d acf6 2bbd 1057 673d
000001c0: 157f b7bd df70 adbd edf6 bf3d 2252 903d
000001d0: 6eb8 97bd 4338 debd f8c0 e33c 389f 6f3d
000001e0: 063d b03d 253d b4bc 9b97 50bd ec40 223d
000001f0: d50a acbd ea98 aabc 1406 cf3d c250 733d
00000200: fcc6 1c3d f680 43bd 34b4 4c3e 709d e2bd
00000210: 89f1 74bd c512 85bd 2fbb 6bbd 04d0 c43d
00000220: b26b 293c 062e a23d b96d 853c 8102 803c
00000230: c381 a8bc 82e6 eb3d a910 913d 6948 7fbd
00000240: 910a 313b e089 77bc da85 babd 264c 04be
00000250: 67fe bc3d 39b7 8b3d eb83 a7bd 7296 c33d
00000260: b8fa 88bd a608 0cbe f2fa 8f3b 55a3 9b3c
00000270: 14ab 1cbd 681b 31bc b072 c7bb 4655 58bd
00000280: 8a60 ab3d 8b59 80bd a0c1 6cbd 0e55 f2bd
00000290: 619d 38bd 79c3 283d 9598 3bbc 3313 a9bd
000002a0: 41b6 a5bc 39a6 35bd d41e 363d 031a 093e
000002b0: a738 a43b 9842 28bd 9f1d 213e 36c3 debd
000002c0: 975e aa3d 3659 7f3d 1fbb 9e3d 76df bc3d
000002d0: 7cf6 b8bb c4b8 a0bd b902 45bd 7412 d7bd
000002e0: ee31 433d 07fe 16bd 186e 903d ae5f e1bd
000002f0: 0135 8c3d 4af9 f83c cfd6 a63d c2f8 d3bd
00000300: 7167 4b3d 6cd1 33bd 9a57 a6bc a376 f13d
00000310: e63f 5ebd ec1c 863d 0f28 3b3b 3da7 a9bb
00000320: b032 9d3d 66a4 453c 1305 7bbd 60ac de3d
00000330: c3d9 713d cea0 77bd 70fb 813d b965 e238
00000340: aeb3 ac3c eb35 9dbb 1180 a7bd 5ecd c73d
00000350: e110 fb3d 8fee cbbd 0cf6 bebd 640a f13d
00000360: 166c 6f3d 6c40 8d3b 6ec9 3ebd 44de b63d
00000370: 02ae 943d 8a0b 10be 5256 6dbd a8cc 47bd
00000380: eebb ecbd 4ede 12bd 1e49 043d 639d 1bbd
00000390: cf48 fdbd 80a9 dbbc e7d1 b3ba 91cf d3bd
000003a0: 9cb9 9b3c 9ca1 9bbd ffc5 d23c 9d2d e1bc
000003b0: 342d c6bc a7f3 3e3d a6dd 763d ea62 8f3c
000003c0: 5a92 003e 9151 e63d 6853 c9bc 26d5 0b3d
000003d0: fd09 c53d 6468 99bd f954 ce3b 8e75 d5bd
000003e0: 17de 2a3d 39a9 533d 7014 993d d54c d3bb
000003f0: 0d88 97bd afb2 7bbd 0fa8 f3bd fb44 ccbc

weight f4 [1, 62]
-0.32053533 -0.32051435 -0.2925668 -0.29282302 -0.17903496 0.36987743 0.20071827 0.09942228
0.14509815 -0.31971243 -0.28772214 0.27099547 0.2750398 0.212361 -0.28832728 -0.24582772
0.3127155 -0.3262542 -0.12640065 0.14748089 0.32678762 -0.19297513 -0.21758273 -0.2633939
-0.16281518 0.1594135 0.06056975 -0.2796799 -0.19920781 0.1653105 -0.115514025 0.30208823
-0.2981315 0.23719716 0.14027552 0.19935605 -0.33758512 -0.21939626 -0.36047342 -0.13634871
0.22131458 -0.31738353 0.27837473 0.32636184 -0.22669624 -0.19045405 0.20491487 0.2688303
-0.2613354 0.16217554 0.3168426 -0.07512774 0.18844984 -0.18772775 -0.2345317 0.113778085
-0.1479155 0.11642875 0.1642836 0.36953843 -0.35005006 -0.309167
00000000: 351d a4be 751a a4be 51cb 95be e6ec 95be
00000010: f154 37be 9360 bd3e 1789 4d3e e99d cb3d
00000020: 9c94 143e 59b1 a3be 5150 93be ebbf 8a3e
00000030: 04d2 8c3e 2975 593e a29f 93be 43ba 7bbe
00000040: 3f1c a03e ca0a a7be 2c6f 01be 3b05 173e
00000050: b550 a73e 469b 45be 02ce 5ebe 91db 86be
00000060: 06b9 26be 4b3d 233e fc17 783d 3432 8fbe
00000070: 22fd 4bbe 2847 293e 9e92 ecbd 4fab 9a3e
00000080: b1a4 98be d0e3 723e 63a4 0f3e fe23 4c3e
00000090: f5d7 acbe 6aa9 60be f98f b8be ff9e 0bbe
000000a0: 4aa0 623e 1880 a2be 2287 8e3e e618 a73e
000000b0: 0f23 68be 6306 43be 34d5 513e 20a4 893e
000000c0: c1cd 85be 5811 263e 3139 a23e 93dc 99bd
000000d0: fff8 403e b43b 40be 1429 70be 7c04 e93d
000000e0: 2977 17be 3272 ee3d f639 283e 2434 bd3e
000000f0: c339 b3be 234b 9ebe
