gcn_pokec2.pth (torch, 71473 bytes, 3 tensors)

bias f4 [62]
0	0xbc36bf61	-0.011154027
1	0x3c346b2e	0.011011882
2	0xbc1de767	-0.00963769
3	0x3c2e495f	0.01063761
4	0x3c1e537c	0.009663459
5	0xbc353b9b	-0.011061574
6	0xbc2d10c9	-0.010563084
7	0xbc27b4ff	-0.010236024
8	0x3c095ca0	0.0083839
9	0x3c2932a1	0.010327012
10	0xbb945f68	-0.004527975
11	0xbc13b616	-0.009015581
12	0xbc275ecf	-0.010215475
13	0xbc17d5a9	-0.009267249
14	0xbbff2b35	-0.007787133
15	0x3c3affbe	0.011413513
16	0x3bdd37d9	0.0067510423
17	0x3c35db2a	0.011099616
18	0xbbded718	-0.0068005435
19	0xbc2b3902	-0.010450603
20	0x3c3ba953	0.011453944
21	0xbc1f8cfd	-0.009738204
22	0x3c293f42	0.010330023
23	0x3c2b6d0b	0.01046301
24	0xbc2cd510	-0.010548845
25	0x3c2e270b	0.010629426
26	0x3c2e5409	0.010640153
27	0x3c2c62f1	0.010521636
28	0x3c31cf3d	0.010852632
29	0x3c18833e	0.009308634
30	0x3c12ccc1	0.00895995
31	0xbc1a6b90	-0.009425059
32	0xbc2ae9ef	-0.010431751
33	0xbc2b30c8	-0.010448642
34	0xbc11c601	-0.0088973055
35	0x3c3c6a24	0.011499915
36	0x3c2541fd	0.010086534
37	0x3c1bc28c	0.009506833
38	0xbc331a63	-0.010931584
39	0xbc1f321b	-0.009716536
40	0xbc3c8218	-0.011505626
41	0x3c325e6a	0.010886768
42	0xbc2bab2b	-0.010477821
43	0xbc388e0d	-0.011264336
44	0xbbf3fbed	-0.0074458034
45	0xbc1a9969	-0.00943599
46	0x3c2b3aae	0.010451002
47	0x3c2377cb	0.009977291
48	0xbbc22703	-0.0059250607
49	0xbc3061f5	-0.010765542
50	0x3c3085a3	0.010774049
51	0x3c1ffcf4	0.009764899
52	0x3b07908d	0.0020685524
53	0x3bc924ae	0.0061384058
54	0x3c24ff0e	0.010070575
55	0x3c10f808	0.008848198
56	0xbc2e59b9	-0.010641509
57	0x3c2e5cbf	0.01064223
58	0xbc22091b	-0.009889866
59	0x3c31ddfb	0.010856147
60	0xbc3c5403	-0.011494639
61	0xbc139fe4	-0.009010289

weight f4 [62, 266]
0	0x3cf01ad2	0.029309664
1	0x3d5b8875	0.053596932
2	0x3a13c8c0	0.0005637519
3	0xbc5dda35	-0.013540794
4	0xbc8955ce	-0.016764548
5	0xbdc4de1e	-0.09612678
6	0x3e34e65f	0.17666005
7	0x3c632190	0.013862982
8	0xbdbc7bdb	-0.09203311
9	0xbdedbf35	-0.116087355
10	0x3da04112	0.07824911
11	0x3ddb4a68	0.10707551
12	0x3d066db1	0.032819454
13	0x3d1c0202	0.038087852
14	0xbc93eb70	-0.018056601
15	0x3d84d03a	0.064850286
16	0xbc81cf3d	-0.01584589
17	0x3e11afe3	0.14227252
18	0x3c271877	0.010198704
19	0xbd599025	-0.053115983
20	0x3cd2ca5c	0.025731258
21	0x3d95ed8c	0.07320699
22	0xbdf3c763	-0.119032644
23	0x3d0bedca	0.03416232
24	0xbd98cb6e	-0.07460676
25	0x3da4b531	0.08042372
26	0xbdafdef5	-0.085874476
27	0xbe01af70	-0.1266458
28	0xbdcf1520	-0.10111451
29	0xbd818c62	-0.06325604
30	0x3d8bed73	0.06832399
31	0xbe109ceb	-0.1412236
32	0xbe136e86	-0.1439763
33	0xbbb2d6b6	-0.0054577244
34	0xbcfded30	-0.030996889
35	0xbd91eddf	-0.071254484
36	0xbd1b9ef0	-0.03799337
37	0x3cbb027d	0.022828335
38	0x3df1f1c2	0.1181369
39	0xbb864c28	-0.004098434
40	0x3d2faddb	0.04289041
41	0xbd9269e4	-0.07149103
42	0xbd6b8f96	-0.05750998
43	0xbb1683fc	-0.0022966852
44	0xbdc6a2c1	-0.096990116
45	0x3da39f63	0.07989385
46	0xbd52759e	-0.0513817
47	0xbd80ed1d	-0.06295226
48	0x3d67d0f9	0.056595776
49	0xbdd7fce7	-0.10546284
50	0xbd294760	-0.041327834
51	0xbdbe5363	-0.092932485
52	0xbd9e28f7	-0.07722657
53	0x3cdf8fdf	0.027290283
54	0xbcc5bbbe	-0.024137374
55	0x3d0fd908	0.035119087
56	0xbc10c980	-0.008837104
57	0xbd7bfc5f	-0.061519977
58	0x3df12585	0.117747344
59	0x3db81043	0.08987477
60	0xbddd824d	-0.108158685
61	0xbb638c9b	-0.0034721259
62	0xbcd9611d	-0.026535565
63	0xbde76dab	-0.113002144
64	0xbdc008b5	-0.09376661
65	0xbc9cffd0	-0.01916495
66	0x3d7721fd	0.060335148
67	0xbd2d9b48	-0.042384416
68	0xbdced632	-0.10099448
69	0x3cfb42b6	0.030671459
70	0x3db9582d	0.09050021
71	0x3d881d90	0.066462636
72	0x3d0d3951	0.03447849
73	0x3a161550	0.00057252217
74	0xbd07a4a7	-0.03311601
75	0xbe04cb2c	-0.12968129
76	0xbd54c956	-0.05194982
77	0x3d59312b	0.053025406
78	0x3c4c8a43	0.012484136
79	0xbd0a85cb	-0.033819
80	0xbd8dd6b1	-0.06925715
81	0x3d986145	0.07440428
82	0xbda4c58e	-0.08045493
83	0x3dba870c	0.091077894
84	0x3db3bc4b	0.087761484
85	0xbe150f68	-0.14556658
86	0xbdfe434e	-0.12415181
87	0xbd5e6bc3	-0.05430199
88	0xbd8637aa	-0.06553586
89	0x3ca15302	0.019692902
90	0x3d2e50d2	0.042557545
91	0xbd812fcd	-0.063079454
92	0x3d05399e	0.03252565
93	0xbb8afb40	-0.004241377
94	0x3dd00977	0.10158055
95	0x3dcb97fa	0.099410966
96	0xbcf15346	-0.029458653
97	0xbd109d6c	-0.03530638
98	0xbd6d56c0	-0.05794406
99	0xbd623c8e	-0.05523353
100	0x3d7ccbce	0.0617178
101	0x3d4dc3ec	0.050235674
102	0xbd68dec0	-0.056853056
103	0x3dd57d8a	0.10424335
104	0xbe11373f	-0.14181231
105	0xbd902d9b	-0.070399486
106	0xbdbb6084	-0.09149268
107	0x3d0124d6	0.03152927
108	0xbe02368e	-0.12716123
109	0xbccfd0fa	-0.025368202
110	0x3d12983f	0.035789724
111	0x3d2a4c77	0.04157683
112	0x3de1d88c	0.11027631
113	0xbd049ad6	-0.032374226
114	0xbd09ca26	-0.03364005
115	0x3c85a3d6	0.016313475
116	0xbd3031f1	-0.043016378
117	0xbd8ba743	-0.06819012
118	0x3cfb775e	0.030696567
119	0x3c222509	0.009896525
120	0xbd971274	-0.073765665
121	0x3df70e76	0.12063305
122	0xbcad8369	-0.021180825
123	0xbdf65ade	-0.1202905
124	0xbdc5f9e1	-0.09666801
125	0xbc8db33e	-0.017297383
126	0xbd5d190c	-0.053978965
127	0x3c874bb5	0.016515592
128	0x3c5aa30a	0.013344536
129	0xbce3535f	-0.027749715
130	0x3dbcc7c6	0.09217791
131	0xbd41ba19	-0.047296617
132	0x3df22ea6	0.11825304
133	0xbd862ee5	-0.06551913
134	0x3dc2bfef	0.09509265
135	0xbd5cd3d8	-0.053912967
136	0x3db55401	0.08853913
137	0xbd681903	-0.056664478
138	0xbc9d1d89	-0.019179123
139	0xbdd6f469	-0.10495836
140	0xbc841740	-0.016124368
141	0x3b2a09e4	0.0025945837
142	0xbdeee61b	-0.11664983
143	0x3c811620	0.01575762
144	0xbde7425c	-0.11291954
145	0x3d885899	0.06657524
146	0xbcb2fc0b	-0.0218487
147	0xba70b971	-0.00091829064
148	0x3dd2d5af	0.10294663
149	0x3d9f725c	0.07785484
150	0x3dd82c29	0.10555298
151	0x3da02b98	0.07820815
152	0x3d7923f6	0.06082531
153	0x3db24747	0.08705001
154	0x3dc8f7f6	0.0981292
155	0x3d6dac36	0.05802556
156	0x3cd01740	0.025401711
157	0xbc654c85	-0.013995294
158	0xbd91fe4d	-0.07128582
159	0x3dd77f1a	0.105222896
160	0xbdf792d5	-0.12088553
161	0xbda0f025	-0.07858304
162	0xbdaa976f	-0.08329665
163	0x3db35dde	0.08758138
164	0x3cb0c9e4	0.021580644
165	0xbd8d63d5	-0.06903807
166	0xbcf8b230	-0.030358404
167	0x3ce2562b	0.027628979
168	0xbc8fd08e	-0.017555501
169	0x3cded7ad	0.027202452
170	0x3d2fbaf0	0.042902887
171	0x3dd6c325	0.104864396
172	0x3d51ddbf	0.051236864
173	0x3e0699eb	0.13144653
174	0xbbfa3030	-0.007635139
175	0xbd783e08	-0.060606033
176	0x3da6717c	0.08127114
177	0x3d6755a7	0.05647817
178	0xbd5fff4a	-0.054686822
179	0x3d621b87	0.055202033
180	0xbc0d474b	-0.008622955
181	0xbe10691a	-0.14102593
182	0x3bf3bc1f	0.0074381973
183	0x3d6604a5	0.056156773
184	0x3c0173e3	0.007901165
185	0x3d7ae3f0	0.061252534
186	0x3c77bc13	0.015120524
187	0x3c069ff1	0.008216844
188	0xbdc7e225	-0.097599305
189	0x3e006a29	0.12540497
190	0x3d9a127a	0.075230554
191	0xbdc1bc89	-0.09459788
192	0x3d3832a1	0.04497016
193	0xbd8d3f22	-0.06896807
194	0x3d9f337f	0.07773494
195	0xbdadcdbb	-0.084865056
196	0x3d8ec965	0.06972007
197	0xbdc52366	-0.09625892
198	0xbdf72c94	-0.120690495
199	0x3d56ebda	0.05247102
200	0xbdd556c6	-0.10416941
201	0xbdfb32a4	-0.12265518
202	0xbcbb21f9	-0.022843348
203	0xbd9d573c	-0.07682654
204	0x3e0461a0	0.12927866
205	0x3b3613a5	0.0027782705
206	0xbcaf8214	-0.02142433
207	0x3bf57163	0.0074903234
208	0xbce7c4a8	-0.028292015
209	0xbc94294f	-0.018086104
210	0xbd3af29d	-0.04564153
211	0x3b97871f	0.004624262
212	0xbd32f632	-0.04369182
213	0x3d9139ab	0.070910774
214	0xbdd126fc	-0.10212514
215	0x3d7e6ec0	0.06211734
216	0x3c027345	0.007962053
217	0x3da1401e	0.078735575
218	0xbcbb9280	-0.022897005
219	0xbe0c3f73	-0.13696079
220	0x3ddfa839	0.10920758
221	0xbd83bf3a	-0.06432958
222	0x3c5a3faf	0.013320847
223	0xbd4e8a84	-0.050425068
224	0x3d0e4b2b	0.034739655
225	0xbdf6895c	-0.12037918
226	0x3c4d2565	0.012521123
227	0x3d0d6fff	0.034530636
228	0xbda6c6ce	-0.08143388
229	0x3c857c39	0.016294586
230	0x3d8a69ba	0.06758447
231	0xbde3e6f2	-0.11128034
232	0x3da2c67d	0.07948015
233	0xbd92483c	-0.07142684
234	0xbd86cca0	-0.06581998
235	0x3d54f22e	0.051988773
236	0xbb3ce332	-0.0028821942
237	0xbdca7e63	-0.098873876
238	0x3d81807d	0.06323335
239	0xbdc25132	-0.09488143
240	0xbcb61cf0	-0.022230595
241	0x3d6f1067	0.058365252
242	0xbd0dbb13	-0.034602236
243	0xbda0bca6	-0.07848482
244	0x3caa5e48	0.02079691
245	0x3d16e1b6	0.03683635
246	0xbe13e2d1	-0.14441992
247	0x3ce77bf9	0.028257357
248	0xbdb351f7	-0.08755868
249	0xbd01d58c	-0.031697795
250	0x3d315b11	0.04329974
251	0xbd31b5b4	-0.043386176
252	0xbd8a8fc6	-0.06765704
253	0x3d8ebc73	0.069695376
254	0xbe2286e0	-0.15871763
255	0x3d993459	0.07480688

weight f4 [1, 62]
0	0xbe7e7623	-0.24849753
1	0x3e912762	0.2835036
2	0xbe65b7b8	-0.22433364
3	0x3e76cab7	0.24100767
4	0x3e176425	0.14784296
5	0xbe7bf3a2	-0.24604657
6	0xbe82abe3	-0.25521764
7	0xbe6b558d	-0.22981854
8	0x3dd3c1f0	0.10339725
9	0x3e58dc21	0.21177723
10	0xbd738a34	-0.059457973
11	0xbdeb1583	-0.114787124
12	0xbe6e38cc	-0.23263854
13	0xbe0a4a10	-0.13504815
14	0xbdbd5dad	-0.09246383
15	0x3e9b28ae	0.30304474
16	0x3da439b2	0.08018817
17	0x3e4f5037	0.20245443
18	0xbda464f1	-0.080270655
19	0xbe163594	-0.14668876
20	0x3e8b52af	0.2721152
21	0xbe2d6a70	-0.16935134
22	0x3e4a1c4f	0.19737361
23	0x3e73872f	0.23782037
24	0xbe6d3e9d	-0.23168416
25	0x3e85570e	0.2604298
26	0x3e6b1837	0.22958456
27	0x3e611264	0.21979672
28	0x3e82e25a	0.25563318
29	0x3df31547	0.11869293
30	0x3df20077	0.11816495
31	0xbe215cd9	-0.15758075
32	0xbe66c99b	-0.22537844
33	0xbe6257ba	-0.22103778
34	0xbdec0996	-0.11525266
35	0x3e8ad1e6	0.27113265
36	0x3e5e438c	0.21705455
37	0x3e17c1b3	0.14819984
38	0xbe9a48ee	-0.30133766
39	0xbdffa2c7	-0.12482219
40	0xbe513668	-0.2043091
41	0x3e48d36f	0.19611906
42	0xbe64a484	-0.22328383
43	0xbe1d2470	-0.15345931
44	0xbdb8f664	-0.0903137
45	0xbe037a19	-0.12839545
46	0x3e611408	0.21980298
47	0x3e11e07b	0.14245789
48	0xbd96f138	-0.073702276
49	0xbe815a44	-0.2526418
50	0x3e6b717d	0.22992511
51	0x3e53d501	0.20686723
52	0x3cb91734	0.022594072
53	0x3d8e2cf8	0.06942171
54	0x3e4cb3f9	0.19990529
55	0x3de7ef6e	0.113249645
56	0xbe8e8376	-0.27834672
57	0x3e5136b8	0.2043103
58	0xbe1b4fe5	-0.15167196
59	0x3e20e3cc	0.15711898
60	0xbe580cba	-0.21098605
61	0xbdf18e76	-0.117947504
