gcn_nba.pth (torch, 29087 bytes, 3 tensors)

bias f4 [62]
000000 26 ba dd bd 0d b5 b7 3d 0e f4 bb bd b2 df b9 3d
       -0.108265206 0.089700796 -0.09177409 0.090758696
000010 81 f3 88 3d 68 03 b5 3d de c4 b7 3d 37 78 b9 bd
       0.0668707 0.0883854 0.08973096 -0.09056132
000020 47 0b d3 bd 4a bb bd 3d c6 de b3 bd b4 23 b0 bd
       -0.10304885 0.09264238 -0.08782725 -0.0860056
000030 28 35 a9 bd 75 5c ce 3d 6b 1d e3 3d 1b 52 b1 bd
       -0.08262092 0.100762285 0.110895954 -0.086582385
000040 ff b0 c2 3d f5 a0 c9 3d 5f 76 be 3d c0 ce c7 bd
       0.095064156 0.09845153 0.09299921 -0.09756231
000050 3c c4 af 3d ab d0 9f 3d f1 89 ae bd e7 71 a7 bd
       0.085823506 0.07803472 -0.08522404 -0.08176022
000060 aa 84 bd bd 4b c8 b2 3d c7 04 c0 bd 2a 15 b4 3d
       -0.09253819 0.08729609 -0.09375911 0.08793099
000070 ae 4b b4 bd 43 48 ad bd 18 c3 c2 3d e1 f5 1e 3e
       -0.08803497 -0.084610485 0.095098674 0.15523483
000080 26 aa 8f 3d f2 76 ad bd 7a 47 d8 3d 11 06 0f 3d
       0.07014875 -0.08469953 0.10560508 0.034917895
000090 3b 58 b6 bd ce 69 7b bd 72 c2 94 bd 40 a0 b8 3d
       -0.089035474 -0.0613802 -0.0726365 0.0901494
0000a0 2a b4 b2 3d c4 06 db bd bf 0e b0 bd 73 a1 76 bd
       0.0872577 -0.1069465 -0.085965626 -0.060212564
0000b0 72 2b a6 bd a4 39 ec 3d 84 56 c0 bd 3e 19 6b bd
       -0.08113755 0.115344316 -0.093915015 -0.05739712
0000c0 81 85 bc bd 24 fd bd 3d 0f 94 40 3e ce b9 b1 bd
       -0.09205151 0.09276798 0.1880648 -0.086780176
0000d0 cb 18 24 3e 8c eb ad 3d bb da ba 3d d5 76 b6 3d
       0.16025083 0.084921926 0.09123751 0.08909384
0000e0 4a 4f a6 bd c0 83 bf 3d 28 f1 ce 3d b9 f9 44 3e
       -0.08120592 0.09351301 0.10104591 0.19235887
0000f0 03 c1 b2 bd 69 1a c3 3d
       -0.0872822 0.09526522

weight f4 [62, 95]
000000 fc 40 03 3f 81 28 31 be 97 6e b8 bd 71 89 55 bd
       0.51271033 -0.17300607 -0.09005468 -0.052133027
000010 81 9b bf 3e b8 58 2b be 65 69 86 be c0 77 bf 3e
       0.37423328 -0.16733062 -0.26252285 0.3739605
000020 3c 57 07 be 32 6f 5b 3e a9 72 f0 3c a0 ec 99 3e
       -0.13216871 0.21429136 0.02935155 0.30063343
000030 92 1d 99 3e 3c f7 d1 3d 07 e7 d9 3e dd ee 59 be
       0.29905373 0.10252234 0.42559072 -0.21282525
000040 24 a4 18 bc 97 1d 80 bc d1 f0 5c 3c 27 e3 d8 3d
       -0.009316478 -0.01563911 0.0134851495 0.10590201
000050 14 ab ec bd 82 62 0c be 63 23 4b 3e 7e 5e d6 bd
       -0.11556068 -0.13709453 0.19837718 -0.10467242
000060 75 3b 7c 3e 5e 22 94 bd 1c 6c 98 be dc e2 ad 3e
       0.24632056 -0.072331175 -0.2976998 0.33962142
000070 b1 c8 15 be bd 98 8d bd 0c 62 02 3f a9 8e 79 bd
       -0.14627339 -0.06913898 0.5093086 -0.060927067
000080 64 f5 05 3b 8a 52 35 be 04 38 83 3e 6d 4c 4d 3d
       0.0020440454 -0.17707267 0.25628674 0.050121713
000090 1d c0 e0 3c 95 65 5e be b9 84 cc 3e 07 e0 7a 3c
       0.027435357 -0.21718438 0.3994501 0.015312201
0000a0 3f 80 43 be 8b 4e 2d be 7a e8 13 3e 71 4d 97 3e
       -0.19091891 -0.16924493 0.14444152 0.2955127
0000b0 7a 91 a8 be ac 9a 96 3e 67 9f ba 3d b1 93 93 3e
       -0.3292349 0.2941488 0.09112435 0.28823617
0000c0 db c7 a0 bc 12 7a 6b be a4 8d fd 3d 9c 23 7a bd
       -0.019626549 -0.22995785 0.123805314 -0.061069116
0000d0 53 84 ae bc b3 7d 12 bf 98 9e 58 be 83 bd b5 3c
       -0.021303331 -0.5722305 -0.21154249 0.022185093
0000e0 e8 5f 20 3e b0 85 ce 3d c0 bb 80 bd 75 6a 28 3f
       0.15661585 0.100840926 -0.062858105 0.6578744
0000f0 fa 0a c4 3d ab 5d c9 bd c1 95 44 3e 6d a1 8c be
       0.09572406 -0.09832319 0.19197752 -0.27466908
000100 49 39 91 3d b0 0e 12 3e f7 c7 b7 3d 42 f6 aa be
       0.070910044 0.14263415 0.08973687 -0.33391005
000110 73 90 1a be aa 32 f3 3b 65 95 63 3e eb 3a f9 bb
       -0.15094166 0.007421811 0.22224958 -0.0076059005
000120 78 cc aa 3d f4 67 e7 be e7 18 e7 bd bd 08 f4 bd
       0.083397806 -0.45196497 -0.112840466 -0.11915729
000130 7b c2 31 be 18 4e b0 3d 83 75 15 3e 28 86 ff bd
       -0.17359345 0.08608645 0.14595608 -0.1247676
000140 d9 ee 5e 3b e7 b4 e8 3d 70 de 08 3c c9 71 23 3e
       0.0034016876 0.113626294 0.0083538145 0.15961374
000150 42 1a 7a 3d 04 c0 d7 3d cf 8e bf bb 99 84 f1 bc
       0.061060198 0.10534671 -0.0058458815 -0.029482173
000160 70 ce 3f be ca 03 20 3e 7b 7c 0b bf 66 33 ea bc
       -0.18731093 0.15626445 -0.5448682 -0.028588962
000170 21 8a 19 be b5 6a 7f 3e 19 bb 05 3e c3 11 f7 bd
       -0.14994098 0.24943049 0.13059653 -0.12063935
000180 9e 76 1a 3e 2d 31 c8 3c af 1d 29 bc 5b f0 63 be
       0.15084311 0.024437511 -0.0103220185 -0.22259657
000190 5f a8 bd 3d 03 52 ce 3c 0e 34 50 be a7 59 1a be
       0.0926063 0.02518559 -0.20332357 -0.15073262
0001a0 52 30 33 be 11 19 ea bd 3e 26 1b be a3 97 06 be
       -0.17498901 -0.11430562 -0.15151307 -0.13143782
0001b0 b5 cd 44 bc 65 93 e4 bd 07 30 1d be 74 24 20 be
       -0.012011935 -0.11160926 -0.15350352 -0.15638906
0001c0 f5 a4 f8 3d 68 6f 3f be 36 f8 2b be cc db bb bc
       0.12140838 -0.18694842 -0.16793904 -0.022931956
0001d0 b1 87 85 bd 39 3c 88 be 7e 00 9c bc d4 ed f6 bd
       -0.06520022 -0.26608446 -0.019043203 -0.12057081
0001e0 c3 5c 0f bd 25 43 20 3d 0b 15 ab be 13 16 51 3e
       -0.035000574 0.039126534 -0.33414492 0.20418577
0001f0 cb 8f 17 3e 6f b5 f2 be 62 de 07 3e 77 a8 a1 3d
       0.14800946 -0.47404048 0.13268426 0.0789346
000200 6f 3a f4 3d 50 bf 85 be 73 ed 9f 3d 10 59 d0 3d
       0.11925208 -0.26122522 0.07808962 0.10173237
000210 fc 1a 8c bd 2e db c1 be 0d 6c bb 3d 6e d8 ca 3d
       -0.06841084 -0.37862533 0.091514684 0.09904562
000220 02 ca 38 3b 34 8d 33 bd a2 64 69 be ad 5c 8c 3e
       0.0028196578 -0.043835834 -0.22792295 0.27414456
000230 1c b6 09 3d b6 dd dc 3d 1c 13 a3 3c 84 f2 2f 3d
       0.03362094 0.107844755 0.019906573 0.04295589
000240 d9 3e fd 3c 57 d6 03 be 0b 36 01 3e b9 4a ca bd
       0.030913757 -0.12874733 0.12618272 -0.098775335
000250 ce 5d a8 3e bd 0b 27 3e 42 09 30 3e 09 a1 9f ba
       0.32884067 0.16313072 0.17191032 -0.001217873
000260 ef e3 3d be 5e 23 0e 3e ff 8c 07 bf f7 2f f1 3c
       -0.18543981 0.13880679 -0.5294952 0.029441817
000270 9b c3 ee 3d 32 e1 3c be ae 97 25 bb 7a a5 0c 3c
       0.116584025 -0.1844528 -0.002526741 0.008584375
000280 b6 44 b3 3c 67 8d 20 3e 02 b0 2f bd f0 cd 02 3d
       0.02188335 0.1567894 -0.042892464 0.03193468
000290 7f 01 ee 3d 91 4a 16 be 12 be 36 bd 5d da d9 bd
       0.11621379 -0.14676882 -0.04461486 -0.106373526
0002a0 b5 6d 65 3e fb 4d 09 3e 1c bd 93 bd f6 f9 20 3d
       0.22405131 0.13408653 -0.07213804 0.03930088
0002b0 63 9c 10 3e 49 c6 f1 bc 1a 3d 23 be a6 54 57 be
       0.14122157 -0.029513495 -0.15941277 -0.21028385
0002c0 d9 b7 43 3e c8 1b 84 be 41 e5 f0 3d c4 c7 5d be
       0.19113101 -0.25802445 0.11762477 -0.21658236
0002d0 21 86 fb 3d 57 b3 05 3e 17 70 37 bd 53 c0 0e 3e
       0.122814424 0.13056694 -0.04478463 0.13940553
0002e0 44 4e 27 3c 79 9d 91 3e b6 1c cf 3c a5 69 0a 3c
       0.010211531 0.28440455 0.025282245 0.008448039
0002f0 ad 30 5d 3c 1e ea d4 3d 51 83 f0 3e 01 b2 83 bd
       0.013500375 0.10396217 0.46975186 -0.06430436
000300 c2 fb ab bd 31 0e e1 bd 16 84 0a 3e 3a 37 69 be
       -0.08397628 -0.10989035 0.1352695 -0.22774974
000310 5a 52 95 be 10 e7 ea 3e 79 b2 4a 3d cf 84 7c 3d
       -0.29164392 0.45879412 0.04948661 0.061650094
000320 4d cd 08 bd e5 45 70 3e e2 d8 30 3e c1 22 9c 3e
       -0.033398915 0.23464163 0.17270234 0.30495265
000330 97 a6 8b 3e 9c 84 a2 bd 53 ac 7d 3d 96 01 2d bc
       0.27275535 -0.079354495 0.06193192 -0.01055946
000340 5a d4 24 bd 4b 49 c9 3d 11 7d 7b be 92 e6 8b bd
       -0.040241577 0.09828433 -0.24559428 -0.06831087
000350 32 dc 30 3e e4 07 7b bd 58 bf 0a 3e 37 0a 2e be
       0.17271498 -0.061286822 0.13549554 -0.16996084
000360 32 15 39 be 5e 60 9d 3e 7f 95 60 bb ea a6 20 3d
       -0.18074492 0.30737585 -0.0034268794 0.03922168
000370 a9 90 c9 3e 3c 47 3e bc 6b 86 8c bd b4 52 5b 3d
       0.3936818 -0.011613663 -0.06861576 0.05354567
000380 ab 91 5a 3e bb f5 38 be ad 71 90 3d a5 ac 6a be
       0.2134463 -0.18062489 0.07052932 -0.22917421
000390 20 15 f0 3e d4 6b 44 be 88 1c 3b be 76 5a 41 be
       0.46891117 -0.19181758 -0.18272603 -0.18882164
0003a0 46 80 b5 bd a1 8a 46 3c 32 18 a1 be ab 33 93 3c
       -0.08862357 0.012118013 -0.31463772 0.017968973
0003b0 1c e0 c7 3d b7 ef 37 3e f0 ae 11 bd 58 a8 54 bc
       0.09759542 0.17962538 -0.035567224 -0.012979589
0003c0 26 e4 c7 3e 79 af 49 be ab b4 09 3e 71 6d a3 be
       0.3904125 -0.19695844 0.13447826 -0.31919435
0003d0 57 f5 6c be 38 53 58 be 5b c5 d8 3d 7d 5a 1c be
       -0.23140465 -0.21125495 0.105845176 -0.15268894
0003e0 bd 5e 48 be 9a 02 eb 3e c9 87 6d bd 92 46 3e 3d
       -0.1956739 0.45900422 -0.057990823 0.04645402
0003f0 b8 d4 13 3d af 53 a0 be b6 04 33 3e e9 5f ba bb
       0.036091536 -0.31313846 0.17482266 -0.005687703

weight f4 [1, 62]
000000 05 6b 26 3f 44 6d 4a bf 44 06 c6 3e 4c a3 d0 be
       0.6500705 -0.79072976 0.38676655 -0.40749586
000010 df 29 79 bf a8 24 3d bf 61 5b b1 be a0 d1 fb 3e
       -0.97329515 -0.7388406 -0.3464003 0.4918337
000020 8d 25 43 3f 30 e5 f8 be 61 e9 c5 3e 35 36 92 3e
       0.7622917 -0.48612356 0.38654616 0.28556982
000030 21 bf 02 3f 9a 3c 5e bf 65 63 30 bf b8 e4 2e 3f
       0.5107289 -0.8681122 -0.68901664 0.6831775
000040 b7 dd e0 be 6a ea 44 bf 0f 7b 06 bf 4b c4 60 3f
       -0.43919155 -0.7692019 -0.5253152 0.8779952
000050 31 dc 6b be ac 62 fa be aa 08 19 3f e9 7a 1b 3f
       -0.23033215 -0.48903406 0.59778845 0.6073442
000060 da dd 07 3f 4a 0b c3 be 05 d9 1d 3f 9a c4 b9 be
       0.53072894 -0.3809455 0.6165927 -0.36282808
000070 1a 48 ae 3e ec b8 d6 3e df 66 50 bf b6 b2 fc be
       0.34039384 0.4193796 -0.8140697 -0.49355096
000080 10 4f 4c be 51 1e 26 3f 1c ec 63 bf 21 b2 62 be
       -0.19952035 0.6489001 -0.8903215 -0.22138263
000090 fb a2 8c 3e ae 02 89 3f 6c 23 ef 3e a3 9b ff be
       0.27468094 1.0703943 0.46706712 -0.4992343
0000a0 5f a0 bf be a1 1e 83 3f 8d 01 81 3e 81 1b 7a 3e
       -0.3742704 1.0243722 0.25196496 0.24424554
0000b0 24 f7 3a 3f 99 83 65 bf 84 b4 f9 3e f1 71 56 3f
       0.73033357 -0.8965393 0.48770535 0.8376761
0000c0 22 29 81 3f 6b 4d 03 bf 86 1f 2e bf e3 1c da 3e
       1.0090678 -0.51290005 -0.6801685 0.42600164
0000d0 30 d8 25 bf fc b1 e2 be f0 57 d5 be 46 72 f1 be
       -0.64783 -0.44276416 -0.41668653 -0.47157496
0000e0 a2 13 5c 3f a8 47 c4 be bf ea 30 bf b5 d1 62 bf
       0.8596746 -0.3833592 -0.69108194 -0.8860124
0000f0 62 15 2c 3f 97 70 28 bf
       0.6722013 -0.657968
