gcn_nba.pth (torch, 29087 bytes, 3 tensors)

bias f4 [62]
000000 42 17 78 bb bc 1f d1 3b 9e 16 34 bb fc 1e 98 bd
       -0.003785566 0.006381957 -0.0027479301 -0.07427785
000010 60 f0 9c 3b 74 0f de bb 1a d1 90 ba 1c 04 4d bc
       0.004789397 -0.0067767445 -0.0011048645 -0.012513187
000020 5f c6 bf 3b af 06 23 bb 61 ad 9e bb 01 8e a1 bb
       0.005852505 -0.002487581 -0.0048424457 -0.0049302583
000030 33 4a 48 3c ac 52 85 bb b1 99 4c bb e8 eb 88 bb
       0.012224722 -0.004068693 -0.0031219537 -0.004178513
000040 37 1e 21 bb 55 82 4d bd 3b ce c7 3c 16 b6 b3 bb
       -0.002458466 -0.050173122 0.02439033 -0.005484353
000050 d8 2e fb bb 7e 41 c5 3b 59 53 1a 3e 2a 46 d9 3b
       -0.0076654963 0.00601977 0.15070857 0.0066306787
000060 34 12 e1 bb 57 17 aa bb e5 2d 6e 3b c4 99 e1 3b
       -0.006868625 -0.0051907706 0.0036343273 0.0068847854
000070 3b e7 54 bb 18 e0 5c bc ac 70 f8 39 3c c8 32 bc
       -0.0032486457 -0.0134811625 0.00047386193 -0.010911997
000080 f8 32 24 3c d2 da c3 bb 5a d7 66 3a d3 d7 0d bc
       0.0100219175 -0.005977013 0.00088058936 -0.008657414
000090 2a 9e 6f bb 60 0c 93 3b 7e f2 77 3d e0 d5 89 3c
       -0.003656278 0.004487559 0.060533993 0.016825616
0000a0 f8 ef c2 bb 8a 16 af bb 05 48 e9 ba 27 7f 31 3a
       -0.0059490167 -0.005343263 -0.0017797953 0.00067709613
0000b0 87 8f b3 3b 8d 0c c7 3b c9 4d ae bb 91 f6 c4 3b
       0.0054797563 0.006074494 -0.0053193313 0.0060108383
0000c0 69 9d 01 bc a1 8c dd 3b 03 2a f1 b9 67 74 38 bb
       -0.007911065 0.006761149 -0.00045998403 -0.0028145553
0000d0 ab 87 72 bc 0a 61 43 3b 30 0d 00 3b 2e d2 2a bc
       -0.014802854 0.0029812478 0.001953911 -0.010426087
0000e0 6c d6 aa 3b 3e 2a df 3b b5 f5 91 3b 35 27 c9 bb
       0.0052135494 0.0068104556 0.0044543394 -0.006138707
0000f0 1a 5b 7d 3c cb 71 a2 bd
       0.015463615 -0.079318605

weight f4 [62, 97]
000000 3d 56 e2 3d f0 91 d0 3e 81 dc 84 3e f3 da e6 bd
       0.11051605 0.4073634 0.2594948 -0.1127223
000010 b6 25 fb bd 36 87 dd bc 98 df e9 bb 97 c6 28 3e
       -0.12263052 -0.027042013 -0.00713725 0.16482006
000020 3e 88 35 3e 27 e7 03 bc 92 fc 09 be 56 32 30 be
       0.17727754 -0.0080507165 -0.13475254 -0.17206702
000030 7a a5 da 3e 4c e0 7c be f4 c5 50 be c3 10 8f 3e
       0.42704374 -0.24694937 -0.20388013 0.27942476
000040 5c 5d 1c be 6f 46 8f 3d 66 2f 51 be 7b bf a0 3d
       -0.15269989 0.06995856 -0.20428237 0.07849022
000050 fa a2 4f 3e b1 e4 35 bc 44 a2 ed bd e6 e5 d6 3d
       0.20277014 -0.011101888 -0.11603215 0.104930684
000060 e3 cd 08 bd 14 aa 7e be 12 8e 09 bd ac 77 e4 bd
       -0.033399474 -0.24869567 -0.033582754 -0.11155638
000070 d1 15 a8 3d 02 dd 2b bc c5 6b 84 3d cb 46 2c 3e
       0.08207286 -0.010489704 0.06465868 0.1682388
000080 7b 85 b1 bd 1c aa 9d 3d 17 85 10 be e9 51 1e 3e
       -0.086680375 0.076984614 -0.1411327 0.15460934
000090 d9 f1 45 3e 9b 8d 37 3e 23 16 a2 3c 15 fb 34 be
       0.19330539 0.17925112 0.019785946 -0.17673905
0000a0 a0 cc 07 3e 77 34 f8 3c f0 98 07 be ef 6a 04 be
       0.13261652 0.030298455 -0.13241935 -0.12931417
0000b0 ad 1f 41 bd ef 39 04 3e 35 8b 72 be 57 4e 9a 3b
       -0.04714935 0.12912725 -0.23685916 0.004709046
0000c0 1d bc f3 bd 59 96 e8 bc 39 aa 25 be 1e 9d 22 be
       -0.11901114 -0.028392004 -0.16178216 -0.15880248
0000d0 50 d4 a0 bd 30 f4 5f be b0 11 12 3c ca c4 3b 3d
       -0.078529954 -0.21870494 0.00891535 0.04584197
0000e0 0f ff 47 3d ff fc 38 3d 6c b3 bf 3d 08 f6 6b 3c
       0.048827227 0.04516315 0.09360394 0.01440192
0000f0 55 40 b9 3d b8 7b 22 3d a1 28 25 bd 49 c6 5a bd
       0.090454735 0.03966877 -0.04032195 -0.053411756
000100 41 b9 2d bd d1 ad 79 3e 63 8d 21 3e 17 9b 04 bd
       -0.042413 0.24382712 0.15776591 -0.032374468
000110 ad 47 bd bd b5 57 eb bd 4f d8 88 3e aa d0 b7 3d
       -0.09242187 -0.11491338 0.2672753 0.089753464
000120 b0 fa c4 be 80 43 c9 3d 06 63 d8 bc aa d9 96 bd
       -0.3847251 0.09827328 -0.026414406 -0.07365735
000130 00 19 59 bd ef 3e 33 3e 7d 51 d2 3c 6c e5 0f 3e
       -0.053002357 0.17504476 0.025673622 0.14052361
000140 58 eb bc 3c 16 7e 77 bd 32 68 ec 3d a1 c0 f0 bd
       0.02306144 -0.06042298 0.11543311 -0.11755491
000150 f1 c1 de bd 70 71 37 3e 87 30 b3 3e 94 17 38 3e
       -0.10876835 0.17914367 0.3499796 0.17977744
000160 63 47 66 3e 08 df 81 be c8 bd c3 3d 58 6b c6 bd
       0.2248817 -0.25365472 0.09557682 -0.09688443
000170 e0 d8 77 3d 6e ca d5 3c 6f 6b d5 bd f3 f8 cb bc
       0.060509562 0.026097503 -0.10420882 -0.024898982
000180 9e 07 93 be 89 6a 01 bd 34 ba a1 be a0 7d 1f be
       -0.2871675 -0.03159574 -0.31587374 -0.15575266
000190 a7 0b 2d 3e 05 f2 c3 bd 7c ea e4 bc e1 70 4e be
       0.16898976 -0.09567646 -0.027943842 -0.20160247
0001a0 4d 16 51 be aa b6 ab be d2 e0 52 3e c3 41 9e bd
       -0.20418663 -0.335378 0.20593575 -0.07727387
0001b0 bd 64 42 3e d6 04 f4 bd d3 4a bd 3d 7b 7f 82 3e
       0.18983741 -0.11914985 0.09242787 0.25487885
0001c0 c3 52 66 be 86 d9 33 3d 41 a9 b8 3d 2f 74 a2 bc
       -0.22492509 0.04390862 0.090166576 -0.019830791
0001d0 72 fe ba bc 8e 95 fa bd 4e 09 27 3e 51 c9 1f 3e
       -0.022826407 -0.122355565 0.16312143 0.1560414
0001e0 f8 2f 81 3b e8 09 91 bd 53 ec 4a 3e e4 04 fe bd
       0.003942486 -0.070819676 0.19816713 -0.124032766
0001f0 7c 65 70 be 4c a9 99 3d 29 fb 5e bc 31 9d 01 3e
       -0.23476213 0.07502994 -0.013609686 0.1265762
000200 95 40 35 be a1 e3 3b be 5f 6f ef bd 40 12 46 3e
       -0.17700417 -0.18348552 -0.11691164 0.193429
000210 c9 0e 03 be 74 18 48 be e4 b7 3d 3d 68 92 c6 bd
       -0.12798609 -0.19540578 0.04631795 -0.096958935
000220 c7 23 57 3e a9 a6 dd bd 19 fc 0f 3e b4 b5 d2 bd
       0.21009742 -0.108228035 0.14061011 -0.10288563
000230 75 5f 9f 3d 01 dc 28 be bd bf a0 bd f0 cc 24 3d
       0.07781879 -0.16490175 -0.07849071 0.040234506
000240 c6 1d 1c be 30 c4 11 be 51 5f 9a 3d df da c0 bb
       -0.15245733 -0.14234996 0.075377114 -0.0058854665
000250 11 79 02 be cd 94 aa 3d c2 fb 18 3c e0 22 d7 3c
       -0.12741496 0.08329163 0.0093373675 0.026261747
000260 18 f9 fe bd 8d 6e 11 be d8 7c 65 3e 15 01 62 be
       -0.124498546 -0.14202328 0.22410905 -0.22070725
000270 78 97 49 be 73 0f ff bd d6 3c fc bc 05 cf c6 bb
       -0.19686687 -0.124541186 -0.030790728 -0.006067159
000280 87 72 97 bd f3 ed cb 3c ce 4d 0d be bc fc 29 3e
       -0.07394891 0.024893736 -0.13799211 0.16600317
000290 86 ae ab bd eb 6d ad 3d 54 70 d9 bd a7 cb 89 bd
       -0.08382897 0.08468231 -0.10617128 -0.06728297
0002a0 4a 9c 7e 3d 87 23 c1 3e 1b 82 56 3d bb 0d 51 be
       0.062160768 0.37722418 0.052370172 -0.20415394
0002b0 a0 68 31 3e c7 66 96 3b 5a 85 fd bd ae 08 27 be
       0.17325068 0.0045898887 -0.123789504 -0.16311905
0002c0 80 ce bd bc 30 95 eb 3d 44 22 2c 3e 2a b4 07 3e
       -0.023169756 0.11503065 0.16809946 0.13252321
0002d0 d4 20 d6 3d d9 cd 90 bd c1 15 62 be e2 c6 1c be
       0.1045548 -0.07070512 -0.22078611 -0.15310243
0002e0 67 ce ee bd 34 a4 1e bd 8a a7 27 3c 36 48 15 be
       -0.11660462 -0.038730815 0.0102328155 -0.14578328
0002f0 ff 0c e4 bd 95 a7 5d 3d 49 cd 19 be c1 4a bc 3c
       -0.11135291 0.054114897 -0.15019716 0.022984864
000300 eb 4a 5d 3d 3b c4 a0 bd c8 75 1b be 74 fc bb 3e
       0.054026525 -0.07849928 -0.15181649 0.36716044
000310 2d 58 a7 3d 0d 08 3c be 52 2f 7b bd 51 eb 44 3e
       0.08171115 -0.18362446 -0.061324425 0.19230391
000320 aa 7f f0 bd a5 ab c1 bd a8 a5 e3 3d c6 c5 ea bd
       -0.117431 -0.09456567 0.11115581 -0.114635035
000330 67 86 e6 3d db 36 71 be e5 64 7f 3e 5c 6d b9 bb
       0.11256104 -0.23556082 0.24940832 -0.0056587886
000340 77 93 7d 3d 71 24 1d 3e 75 2b 14 be b9 90 85 be
       0.06190821 0.15345933 -0.14469703 -0.26086977
000350 87 b3 08 be ae 74 2b bd d6 0e 28 bd a7 61 0f be
       -0.13349734 -0.04185932 -0.041029774 -0.14002095
000360 69 66 b6 bd 0e 42 6f 3d 0e 3e 5c 3b a7 8e ac 3d
       -0.08906252 0.058412604 0.0033606323 0.08425646
000370 eb 71 1b 3e f1 c6 65 3e 45 cf 11 be 09 f8 59 3d
       0.15180175 0.22439171 -0.14239223 0.05321506
000380 81 b3 a0 3d 39 05 cb 3e 7a bc f5 bc 59 38 d7 3c
       0.07846738 0.39652422 -0.0299971 0.026271986
000390 75 26 09 3e 32 81 94 3e bc b5 07 be 1d 25 80 3e
       0.13393576 0.29004818 -0.1325292 0.25028315
0003a0 19 75 33 3e 05 06 4a be 61 2a 02 3d 28 68 f6 bd
       0.17525138 -0.19728859 0.031778697 -0.12031585
0003b0 b7 c6 b9 bd d0 30 49 be 3b 0e 42 3e ed 2f 1f 3e
       -0.09071105 -0.19647527 0.18950741 0.15545626
0003c0 48 60 41 be 02 71 f8 3d 8e 91 a6 3d ed 38 0d 3e
       -0.18884385 0.121309295 0.08133231 0.13791247
0003d0 84 25 8f 3d 19 c5 87 bd 7f 6a 36 3d 54 b8 0c be
       0.069895774 -0.0662939 0.044535156 -0.1374219
0003e0 3f 89 64 be d4 b5 34 3c f4 b7 76 3e 83 0a 3e be
       -0.2231798 0.011029679 0.2409361 -0.18558697
0003f0 b1 be 00 3d 3d 66 5a 3e 7c ed f4 bd a9 3e 9e 3e
       0.031431857 0.21328063 -0.11959359 0.3090718

weight f4 [1, 62]
000000 b4 33 46 3f 66 63 dd be 77 16 7a 3f 7e 17 4f bf
       0.7742264 -0.43239897 0.9769053 -0.8089522
000010 79 a9 b5 be 52 e9 91 3e 2e d2 5c 3f de fe 2b bf
       -0.3548086 0.28498322 0.8625821 -0.6718577
000020 c9 99 f1 be e3 a8 8b bf 2f 00 eb 3e df 49 d7 3e
       -0.4718764 -1.0910915 0.45898578 0.42048547
000030 c3 25 a0 3e c9 ee 9e 3e c0 62 19 bf f9 ab 86 3f
       0.3127881 0.31041554 -0.59916306 1.0521232
000040 6f 0a 71 3f ab be 57 bf be 80 00 3f b9 1a d2 3e
       0.94156545 -0.8427531 0.50196445 0.41036013
000050 ef d5 b6 3e 80 5c 81 be 52 97 1c 3f be 5a f4 be
       0.35710093 -0.25265884 0.61168396 -0.4772548
000060 5c 71 bb 3e 86 bb cb 3e c8 85 d5 be 54 8f fa 3e
       0.36609924 0.39791507 -0.4170363 0.48937476
000070 61 32 cc 3d 15 84 64 bf 5e 18 13 3f bc 90 2d bf
       0.099705465 -0.8926404 0.57459056 -0.6779897
000080 cd ca b8 bd 5c c8 c0 3e c1 2c 42 bf a2 6c aa 3e
       -0.09023056 0.37652862 -0.7584954 0.33286005
000090 1e 0d 1b bf f0 3c f6 be 3f 57 49 3f 0f b2 63 3f
       -0.6056689 -0.48093367 0.7864875 0.8894357
0000a0 32 6c 2c 3f 5c 6b 30 bf c1 f1 68 3e d6 c4 5d 3f
       0.6735259 -0.6891382 0.22748472 0.8662847
0000b0 98 18 3e 3f 2a b6 06 bf 99 70 77 3e b5 64 28 bf
       0.7425628 -0.5262171 0.24164046 -0.65778667
0000c0 23 04 34 bf fc b3 b5 be 39 7f 06 bf aa b1 4a 3f
       -0.7031881 -0.3548888 -0.52537876 0.79177344
0000d0 fa 0f 55 bf 1c dd 2e bf 96 89 42 bf a7 80 69 bf
       -0.83227503 -0.68306136 -0.7599119 -0.9121193
0000e0 f5 2f 1b bf 1a 6b 92 be 3d 05 17 bf f6 e9 c2 3e
       -0.6062005 -0.28597337 -0.5899237 0.38069123
0000f0 66 03 46 3f 6b ca 15 bf
       0.77348936 -0.5851199
