gcn_bail.pth (torch, 9375 bytes, 3 tensors)

bias f4 [62]
00000000: 5312 83ba 6812 833a 6912 833a 6912 833a
00000010: 6612 833a 6712 83ba 6812 833a 6712 83ba
00000020: 6712 833a 5e12 833a 6812 83ba 4f12 833a
00000030: 6912 83ba 6212 833a 6a12 833a 6812 833a
00000040: 6a12 833a 6912 833a 6912 83ba 5712 833a
00000050: 5212 833a 6a12 83ba 3512 833a 6a12 83ba
00000060: 6312 83ba 6a12 833a 5812 833a 6912 83ba
00000070: 5b12 833a 6a12 833a 6a12 833a 6a12 83ba
00000080: 6512 83ba 6312 83ba 4b11 833a 5f12 833a
00000090: 6512 833a 6a12 83ba 4012 83ba 6812 833a
000000a0: 6012 83ba 6912 83ba 6012 833a 5912 83ba
000000b0: 6a12 833a 6812 83ba 6012 833a 6712 83ba
000000c0: 6712 833a 6112 833a 6912 83ba 5c12 83ba
000000d0: 3a12 83ba 6712 83ba 6a12 833a 6812 833a
000000e0: 6912 833a 6912 833a 5712 83ba 6b12 83ba
000000f0: 6712 833a 6a12 83ba
-0.0009999968 0.0009999992 0.0009999993 0.0009999993 0.000999999 -0.0009999991 0.0009999992 -0.0009999991
0.0009999991 0.0009999981 -0.0009999992 0.0009999963 -0.0009999993 0.0009999985 0.0009999995 0.0009999992
0.0009999995 0.0009999993 -0.0009999993 0.0009999973 0.0009999967 -0.0009999995 0.0009999933 -0.0009999995
-0.0009999987 0.0009999995 0.0009999974 -0.0009999993 0.0009999977 0.0009999995 0.0009999995 -0.0009999995
-0.0009999989 -0.0009999987 0.000999966 0.0009999982 0.0009999989 -0.0009999995 -0.0009999946 0.0009999992
-0.0009999983 -0.0009999993 0.0009999983 -0.0009999975 0.0009999995 -0.0009999992 0.0009999983 -0.0009999991
0.0009999991 0.0009999984 -0.0009999993 -0.0009999978 -0.0009999939 -0.0009999991 0.0009999995 0.0009999992
0.0009999993 0.0009999993 -0.0009999973 -0.0009999996 0.0009999991 -0.0009999995

weight f4 [62, 18]
00000000: 5853 1f3e f11c de3d ed53 eb3d a4cf 2c3e
00000010: d8b5 8a3e 2360 763e 858a 963d aaca 1ebe
00000020: 95cc 69be b217 82be 87d0 323e 7414 cd3d
00000030: fda1 4e3e 1b84 463e e5a1 2cbe 29a8 ea3d
00000040: 7c28 d83c 240f 2bbe 0584 6e3d 1ce9 82be
00000050: 7647 eabc 195f 713e 3aff f03c 4be7 e6bd
00000060: 5f08 493e 3267 bb3d 1d36 49be 6536 60bd
00000070: 4bbc 763e b44e 0cbd 490c 20be e720 11be
00000080: ab9e 1bbe 8bae 66be cd99 713e da39 24be
00000090: 68d8 88bd ad7f 6dbc d499 cbbd 79f6 733e
000000a0: 5849 45be 354f 82bc ab4e 613e fccf cf3c
000000b0: 9f43 d5bc f16b cdbc 021e 74be f455 57be
000000c0: 90d4 c4bd 73a8 71be c7cd a4bc 1dae 2bbe
000000d0: 7b7e 613d 868c a93c e2fe 4dbe 07d8 38be
000000e0: 3f3d 683e 29ef 1d3e 2f1d 74be 4325 f03d
000000f0: 612b 94ba 46ed 16be c3ce 6f3e 36f6 f0bd
00000100: ab5a 7a3e a40f 01be 4f77 51be 1c79 8dbd
00000110: 931f 1e3e dd15 ff3d 86ca f33d 0a1e fc3d
00000120: ee10 71be 1707 193e 68f6 d63b 6974 34be
00000130: 4bad 0f3e 4f67 873d 5121 e9bd 490a d0bd
00000140: efad 6dbe dff6 123e daec bd3d 5038 74be
00000150: d74a 703e 8fc5 033e 4a54 f33d 9e48 5bbd
00000160: daff 9d3d cb27 113e 0570 963d b164 573e
00000170: 2f14 0bbe 5809 0fbe cae2 f93d e494 e63c
00000180: 556c 69bd 9f42 823e 981a b1bd 3db5 263d
00000190: 0544 63be 37a7 b73d fba8 2fbe a993 0fbe
000001a0: 54a3 79be bbc6 c93d 767d c4bc cb03 7f3e
000001b0: 6d8f 133e 9a77 a53c 7ce3 56be c91f e7bd
000001c0: 4a5c 9a3d 6f43 9c3d d4f0 883e e5e6 87be
000001d0: 7e7d fabd e34b 1d3e 66dd acbd fe92 02be
000001e0: d990 5c3e 3602 e03d fd12 0f3e bdd0 453e
000001f0: 02e6 d2bd 43ef 763d edc9 353e fb81 2abe
00000200: c90e 4a3e f1a0 82be 3b1a 6f3d eed6 313e
00000210: a1be cb3d a971 3b3e de68 c4bd 8abb 893e
00000220: b94a 25bd 28e7 6e3e b63f 963c c6a4 94bd
00000230: a2d1 96bd 231d 703e cfad 2fbd 5a81 fa3c
00000240: 1474 3f3c 83ba 5fbe 4a41 abbd 9dfb c23d
00000250: b19c 3a3e 846d 95bc 6a93 70be 477c 903c
00000260: f709 44bd a008 803e b790 22be f74c 66be
00000270: 4a4d c93c cb0f 7f3e 27a4 333e fa66 3dbd
00000280: e533 0d3e 7d89 d5bd 46c0 063d c475 8bbe
00000290: 23f6 ec3d 003c 63be 6bec 1b3e 0e96 893e
000002a0: 8657 033d d759 e93d 0c85 1fbc d798 68be
000002b0: b313 603e ffa2 00be c953 173e 45c9 7ebe
000002c0: 1f64 ae3d 6e5e 303e cf5b 353e f3b1 13be
000002d0: acd8 62be fdac 1fbe 154c 373e 4375 aebd
000002e0: ba7f c5bd a856 423c 7469 54bc 0b8e 5cbe
000002f0: c28c f83d 0de8 2cbc 3d1a 263e c9fa 87be
00000300: 1a7a bb3b 820d 06be 0e1b c13d 254f a3bd
00000310: 9d1b 0b3e 8d32 103d f8f8 41be 5b88 f4bd
00000320: 9fe2 743e 5067 b23d b24f 38bd 09a9 243e
00000330: e339 09be e41e 89be 97ad b33d a080 893e
00000340: 278c bf3d 4c61 4c3e 93d2 35be 5b1f 933d
00000350: eaed 6cbc 4e32 d4bc b3e1 d33c 64dc 1d3e
00000360: 6632 fe3c ae99 8e3d bb55 073d b28c 84be
00000370: 965d 813e c95a 393c 8785 013e 474e 5fbe
00000380: 5801 a3bd f3ce 50bd 1393 85be d88c 263d
00000390: 7ebc 8ebd 8632 8d3d b726 833c e933 52bc
000003a0: 43eb 153e c947 2cbe a69f 0e3d 2330 b5bd
000003b0: e58b 303d 1309 4d3e 3a58 aa3c 3c15 873e
000003c0: 8e61 17bd c289 cb3d f0e5 f8bd aa2e 993d
000003d0: 739a 16be 4f2a 31bd 01c9 333e 4183 2abe
000003e0: 7912 013e a032 a3bd f889 03be 0af6 673c
000003f0: 8b6d 6abe e75b 623e b803 76be 9fdc d4ba
0.15559137 0.10845364 0.11490617 0.16876084 0.2709186 0.24060111 0.07350639 -0.15506998
-0.22831948 -0.25408703 0.1746236 0.10013667 0.20178981 0.19386332 -0.16858633 0.11457855
0.026386492 -0.16704994 0.058231372 -0.25568473 -0.028598528 0.23571433 0.029418577 -0.112745844
0.196321 0.09150542 -0.19649549 -0.054739375 0.24095266 -0.034254745 -0.15629686 -0.14172707
-0.15197246 -0.2252752 0.23593827 -0.16037694 -0.06681901 -0.014495772 -0.0994145 0.2382449
-0.1926626 -0.01590691 0.22002666 0.02536773 -0.02603322 -0.025075885 -0.23839572 -0.21028882
-0.096108556 -0.23599415 -0.020117654 -0.16765638 0.05505226 0.02069689 -0.20116761 -0.18051158
0.22679614 0.15423264 -0.23839258 0.11725857 -0.0011304432 -0.1473895 0.23418717 -0.11765711
0.2444865 -0.12603623 -0.20455669 -0.069078654 0.15441732 0.12455342 0.11903863 0.12310417
-0.23541614 0.14944111 0.0065601356 -0.17622532 0.1403095 0.066115014 -0.11383308 -0.10158212
-0.23210882 0.14351986 0.092736915 -0.23849607 0.23466049 0.12868331 0.11881311 -0.05353605
0.077148154 0.14175336 0.07345585 0.21034504 -0.13581918 -0.13968408 0.1220146 0.028147168
-0.05698808 0.25441453 -0.086476505 0.040700186 -0.22193916 0.089674406 -0.17154305 -0.14021172
-0.24378711 0.09852358 -0.023985606 0.2490379 0.14410181 0.020198632 -0.20985216 -0.112853594
0.07537134 0.076300494 0.26746237 -0.26543346 -0.12230967 0.1536098 -0.08440666 -0.12751386
0.2153963 0.10937922 0.13972087 0.19317909 -0.10297777 0.06028677 0.1775281 -0.16651146
0.19732203 -0.25513414 0.058374625 0.17367145 0.09948469 0.18305077 -0.09590314 0.26900893
-0.040354464 0.23330367 0.018340927 -0.072579905 -0.07364203 0.23448615 -0.042890366 0.030579258
0.01168539 -0.21848492 -0.08362062 0.09520648 0.18223836 -0.018240698 -0.23493734 0.017637385
-0.047861066 0.2500658 -0.15875517 -0.22490297 0.024572987 0.24908368 0.17543088 -0.046240784
0.13789327 -0.104266144 0.03289821 -0.27238286 0.11570384 -0.22190857 0.15226905 0.26872295
0.03206589 0.11394089 -0.009736311 -0.22714554 0.21882515 -0.12562178 0.14778055 -0.24881466
0.0851519 0.17223522 0.17710803 -0.14423351 -0.22152966 -0.15593334 0.17900117 -0.0851846
-0.096435025 0.011861481 -0.012964595 -0.2153856 0.121362224 -0.010553372 0.16220947 -0.2655852
0.0057213427 -0.1309109 0.094289884 -0.0797408 0.13584752 0.03520446 -0.1894263 -0.1194007
0.23914574 0.087111115 -0.04499788 0.16080107 -0.13400988 -0.2678138 0.08773344 0.26855946
0.09352904 0.19958991 -0.17756109 0.07183715 -0.01446102 -0.025902893 0.025864458 0.15416104
0.031029891 0.06962906 0.033040743 -0.25888592 0.25266713 0.011313149 0.12648593 -0.21807204
-0.07959241 -0.050978612 -0.2608877 0.040661663 -0.06969546 0.06894402 0.016009672 -0.012829759
0.14640526 -0.16824259 0.03482022 -0.08847072 0.043102164 0.20022993 0.020794023 0.26383388
-0.03695827 0.099383846 -0.12153232 0.074796036 -0.14707355 -0.04325324 0.17557146 -0.16651632
0.12604703 -0.0796864 -0.128456 0.014157781 -0.2289335 0.2210537 -0.24024856 -0.0016240067

weight f4 [1, 62]
00000000: 4b1b 32bd 7335 5d3e 972a 7e3e d5d2 733e
00000010: 39d7 1f3e 4ddc 2cbe 0d11 3a3e 04b3 35be
00000020: 7357 333e e6e9 953d 3808 56be 43b2 1a3d
00000030: 650b 62be 06a0 be3d a350 8c3e fbfc 5b3e
00000040: 5167 963e 51e3 453e 5c06 94be 520e 503d
00000050: 3324 2e3d 800f 94be 17a5 b13c 8fd9 91be
00000060: 6e1a e0bd c14f 723e 352b 583d 2380 69be
00000070: 6d62 783d 6f8b 943e 0f86 8d3e ea16 86be
00000080: 2587 08be 0a78 d0bd caee 453b 6a43 a43d
00000090: cfd8 073e 6eeb 67be a6e8 d5bc fd1e 4e3e
000000a0: 086f aabd 2255 87be 1292 a03d b5ba 5bbd
000000b0: f9c6 913e 21dc 66be 5667 b33d 4747 56be
000000c0: 7988 2e3e 4d13 b53d e11b 6bbe c890 85bd
000000d0: f7cd c1bc a610 3abe d956 5e3e efe9 4e3e
000000e0: 0751 783e 899f 653e f59f 4abd 925f 9cbe
000000f0: 91ab 2a3e 183a 87be
-0.04348306 0.2160242 0.24820934 0.23810895 0.15609445 -0.16880913 0.18170567 -0.1774407
0.17513828 0.07320003 -0.20901573 0.03776766 -0.22074659 0.09307866 0.2740527 0.21483223
0.293757 0.19324996 -0.28911102 0.050794907 0.04251499 -0.28918076 0.021685166 -0.28486297
-0.10942541 0.23663236 0.05277558 -0.22802787 0.06064074 0.2901263 0.2764134 -0.26189357
-0.13332804 -0.10179146 0.0030202144 0.08020671 0.132663 -0.22648403 -0.026111912 0.20129009
-0.08321959 -0.2643214 0.07840361 -0.053644855 0.28472117 -0.2254491 0.08759944 -0.20925628
0.17044248 0.08841572 -0.22959854 -0.065217555 -0.023657782 -0.18170413 0.21712817 0.20206426
0.2424966 0.22424139 -0.049468953 -0.30541664 0.1666701 -0.2641151
