gcn_pokec2.pth (torch, 70879 bytes, 3 tensors)

bias f4 [62]
0.0031086337 -0.0013642174 0.005090996 -0.0045507234 -0.0050880606 -0.0030191622 0.005482832 -0.0045366283
0.004192349 -0.0047537917 -0.0041770753 0.004422077 -0.0019132411 -0.0021280295 0.004316956 -0.0024504645
0.004574873 0.006006291 -0.002640224 -0.005081 -0.0038744034 0.006174923 0.0032368149 0.005045222
0.004217826 0.00488355 -0.003556269 0.0033145323 0.0015406823 -0.0020215283 0.0005494703 0.0043069934
-0.0024221805 -0.0036886677 -0.0059770267 0.004710245 -0.0019694245 -0.0051650926 -0.004853405 -0.004484468
-0.0027006923 0.0057280734 -0.0030799604 0.003193746 0.0025522728 -0.0023256661 -0.0048178034 -0.00069823593
-0.0044819564 -0.003962776 0.005164888 0.0024613196 0.005368307 0.004915892 0.002538589 -0.0049651857
-0.004901285 0.0045817285 -0.004377432 0.004547815 -0.0022291094 -0.0017665089
00000000: 38ba 4b3b 8acf b2ba 5fd2 a63b 3c1e 95bb
00000010: bfb9 a6bb 23dd 45bb 54a9 b33b ffa7 94bb
00000020: f95f 893b b2c5 9bbb d9df 88bb 12e7 903b
00000030: b8c5 faba 6976 0bbb 4075 8d3b f997 20bb
00000040: d1e8 953b 6cd0 c43b 9c07 2dbb 847e a6bb
00000050: b4e9 7dbb 0257 ca3b be20 543b 6452 a53b
00000060: b035 8a3b 3006 a03b 4b10 69bb a038 593b
00000070: b8f0 c93a 9e7b 04bb 540a 103a ae21 8d3b
00000080: 72bd 1ebb 93bd 71bb efda c3bb 6658 9a3b
00000090: 7611 01bb f03f a9bb 5009 9fbb 72f2 92bb
000000a0: 19fe 30bb 90b2 bb3b 29d9 49bb 2b4e 513b
000000b0: 0844 273b 346a 18bb aade 9dbb d209 37ba
000000c0: 60dd 92bb 2dda 81bb 393e a93b 174e 213b
000000d0: 9fe8 af3b 7e15 a13b 755e 263b ffb2 a2bb
000000e0: f59a a0bb 5322 963b 9070 8fbb d605 953b
000000f0: 4016 12bb 348a e7ba

weight f4 [62, 266]
-0.005830425 -0.08512854 0.005355651 0.0076333033 -0.06096162 0.026488291 0.013210711 -0.00428937
0.011085344 -0.037627775 -0.008693252 -0.07426634 -0.009444251 -0.010485456 0.054415803 -0.0013159913
0.01227679 -0.029132504 -0.029388275 0.036922432 -0.038144298 0.09257895 0.06742111 -0.02075258
-0.0729063 -0.05118534 0.017970666 0.0009228338 -0.06181974 -0.017382164 0.0012409816 -0.04262232
0.06395283 -0.0051708603 -0.031696834 -0.0027611356 0.060883854 -0.008495444 -0.029610435 0.045154598
-0.0064527057 -0.0624876 0.023580968 0.02723252 0.01035875 -0.05584796 -0.03305461 0.021313114
-0.022012822 0.0768615 0.009000181 0.04365607 -0.13706097 -0.07985159 -0.010218189 -0.02679293
0.016197063 -0.011723143 -0.05759043 0.0015427762 0.043017585 0.047530096 -0.017209558 -0.010643257
-0.032524783 0.07321806 -0.0003275649 0.0017306373 0.00040870637 0.054584105 0.060356714 0.0035230606
0.007045579 -0.0039491793 0.02040796 -0.014685837 -0.088313945 -0.0049268585 -0.06204742 -0.0036789319
-0.0017214705 0.038609095 -0.089448586 -0.07703675 -0.01899827 0.004493612 0.04030986 -0.0076940004
-0.042848367 -0.04870544 -0.07125317 -0.065609254 0.0090455515 0.0031987033 0.07167181 -0.027129682
0.03298309 -0.010002338 -0.008775018 0.00869296 -0.015126526 0.010691516 0.01945266 -0.058659524
-0.013558116 0.032998092 0.00885578 0.0463635 -0.06652995 0.026074234 0.02795004 -0.028958604
-0.0033073858 0.009280227 -0.0065788026 -0.041834194 0.07545077 0.019882826 0.009066896 0.023912417
0.023241617 0.055437155 0.0214452 -0.04834947 -0.021688737 0.016001312 -0.09763921 0.10838849
0.067812435 -0.10692287 0.001666829 0.039729346 0.056759007 -0.005365613 0.021816904 0.0050078025
0.03869929 -0.06699802 0.023082294 -0.04114803 -0.021095647 -0.004468555 0.09231172 0.0436327
-0.01864911 0.003690274 -0.04131003 0.05136234 -0.016593404 0.011320068 0.039233427 0.014284274
0.008769096 0.050704084 0.042693287 0.05361553 -0.021416314 0.03230285 -0.11405218 -0.022987235
-0.00872726 0.01603258 0.022005048 0.05312806 0.008804061 0.049370516 -0.055067964 0.08641474
0.017961318 -0.11142644 -0.002510955 0.039049923 -0.039602317 -0.023924071 -0.040685203 -0.032363046
-0.0073814704 0.037510894 0.070807174 0.03899163 0.08996547 -0.0055764737 0.0002644674 0.010307553
0.062112525 -0.041688893 0.014632568 0.01596726 0.06986216 -0.043842547 -0.016204093 -0.06163221
0.039600126 -0.013481117 -0.014964726 -0.06367466 0.035754617 -0.00781961 -0.042246666 0.058013335
-0.0202344 0.03153474 0.05772846 0.006548816 -0.036502935 0.056080054 0.008476857 0.052166644
-0.017603429 -0.028424017 0.027296893 -0.0053991685 0.07222387 0.025554983 0.06685459 -0.06799391
-0.070658766 -0.045220535 -0.0010337882 -0.024456102 -0.020530103 0.011876552 -0.009172296 -0.021989426
-0.019007305 -0.064619735 -0.008657304 0.06021965 0.030892558 0.039140858 -0.03487036 -0.0039041005
-0.09284412 -0.014213511 0.020091452 0.03420069 -0.029854523 0.030707434 -0.07265532 -0.0015895278
0.12461715 0.060654834 0.06428612 0.06413892 -0.0034398339 0.0024429793 -0.055609945 0.020391358
-0.036507554 -0.006786254 -0.020633895 0.024169447 -0.18320186 0.31383085 -0.114389665 -0.0025653315
00000000: 260d bfbb df57 aebd 757e af3b ca20 fa3b
00000010: e4b2 79bd f9fd d83c bd71 583c d88d 8cbb
00000020: 4d9f 353c 951f 1abd 246e 0ebc f318 98bd
00000030: 0fbc 1abc 31cb 2bbc 1be3 5e3d 577d acba
00000040: 9724 493c 4aa7 eebc aebf f0bc fa3b 173d
00000050: 323d 1cbd 089a bd3d 1414 8a3d 5101 aabc
00000060: e64f 95bd b8a7 51bd 3837 933c 54ea 713a
00000070: b236 7dbd 0a65 8ebc 6fa8 a23a be94 2ebd
00000080: b4f9 823d 5270 a9bb 8ad4 01bd 2bf4 34bb
00000090: 5961 793d 7a30 0bbc 9591 f2bc 07f4 383d
000000a0: 3871 d3bb fff2 7fbd e02c c13c bc16 df3c
000000b0: bfb7 293c d5c0 64bd 4564 07bd d798 ae3c
000000c0: 3c54 b4bc 9069 9d3d 7f75 133c b5d0 323d
000000d0: b659 0cbe 3b89 a3bd 316a 27bc d97c dbbc
000000e0: b4af 843c 6d12 40bc f1e3 6bbd fb36 ca3a
000000f0: 3533 303d ebae 423d 0ffb 8cbc 0e61 2ebc
00000100: b538 05bd 5af3 953d 04bd abb9 8dd6 e23a
00000110: a447 d639 9593 5f3d 9a38 773d 26e3 663b
00000120: 9ade e63b 1e68 81bb 982e a73c dd9c 70bc
00000130: f1dd b4bd 7c71 a1bb 6f25 7ebd 3c1a 71bb
00000140: f7a2 e1ba 9224 1e3d d230 b7bd 72c5 9dbd
00000150: 43a2 9bbc 263f 933b f41b 253d f41d fcbb
00000160: c581 2fbd 5b7f 47bd 2fed 91bd 255e 86bd
00000170: cb33 143c 56a1 513b abc8 923d 113f debc
00000180: 4719 073d d9e0 23bc 18c5 0fbc eb6c 0e3c
00000190: 40d5 77bc 782b 2f3c 2f5b 9f3c f844 70bd
000001a0: dc22 5ebc 0229 073d d517 113c a7e7 3d3d
000001b0: db40 88bd a299 d53c 7bf7 e43c 983a edbc
000001c0: bac0 58bb 180c 183c ff92 d7bb 555a 2bbd
000001d0: ef85 9a3d 4fe1 a23c 518d 143c f9e3 c33c
000001e0: 3465 be3c 1212 633d d8ad af3c 180a 46bd
000001f0: 94ac b1bc 2f15 833c 11f7 c7bd c9fa dd3d
00000200: 3fe1 8a3d 61fa dabd 8079 da3a 3dbb 223d
00000210: 227c 683d 06d2 afbb 5db9 b23c 7e18 a43b
00000220: 2683 1e3d 4236 89bd 1417 bd3c d68a 28bd
00000230: c7d0 acbc f56c 92bb ed0d bd3d 34b8 323d
00000240: 05c6 98bc 86d8 713b b534 29bd 5161 523d
00000250: e4ee 87bc ce77 393c 3bb3 203d 9608 6a3c
00000260: 41ac 0f3c 16af 4f3d 28df 2e3d f59b 5b3d
00000270: 4471 afbc fe4f 043d 3094 e9bd ba4f bcbc
00000280: c8fc 0ebc c256 833c ee43 b43c cf9c 593d
00000290: e93e 103c bd38 4a3d f28e 61bd 36fa b03d
000002a0: 9d23 933c 8c33 e4bd d68e 24bb d0f2 1f3d
000002b0: 0a36 22bd 6afc c3bc 87a5 26bd 1d8f 04bd
000002c0: 43e0 f1bb 06a5 193d 5a03 913d b0b5 1f3d
000002d0: d13f b83d daba b6bb 37a8 8a39 03e1 283c
000002e0: b469 7e3d f9c1 2abd 70bd 6f3c c5cd 823c
000002f0: e413 8f3d 3e94 33bd 72be 84bc 0e72 7cbd
00000300: be33 223d e7df 5cbc 9c2e 75bc dc67 82bd
00000310: 6f73 123d d21d 00bc d70a 2dbd 649f 6d3d
00000320: 9dc2 a5bc 922a 013d ad74 6c3d 7397 d63b
00000330: 1a84 15bd 33b4 653d 84e2 0a3c b1ac 553d
00000340: 1135 90bc 7cd9 e8bc bc9d df3c 82eb b0bb
00000350: 1cea 933d af58 d13c 0feb 883d 6440 8bbd
00000360: 8bb5 90bd 2b39 39bd 2d80 87ba 2a58 c8bc
00000370: bf2e a8bc df95 423c 6647 16bc 2b23 b4bc
00000380: 35b5 9bbc 5a57 84bd 5dd7 0dbc e1a8 763d
00000390: 6412 fd3c 2a52 203d 39d4 0ebd f0db 7fbb
000003a0: 0f25 bebd c9df 68bc d496 a43c 0616 0c3d
000003b0: 7991 f4bc 288e fb3c 50cc 94bd b457 d0ba
000003c0: 4737 ff3d 3471 783d 71a8 833d 445b 833d
000003d0: d66e 61bb 641a 203b 41c7 63bd c70b a73c
000003e0: f288 15bd 395f debb 6a08 a9bc 01ff c53c
000003f0: 4599 3bbe 70ae a03e 2145 eabd 1f1f 28bb

weight f4 [1, 62]
0.20045875 -0.08641883 0.268358 -0.24924988 -0.2684433 -0.19754045 0.3146373 -0.22700363
0.25617722 -0.2584689 -0.21860334 0.22671531 -0.09505698 -0.13292378 0.2201275 -0.1532108
0.21941537 0.36680305 -0.1453048 -0.28289604 -0.19876161 0.40442297 0.16434531 0.28270936
0.22343616 0.25969976 -0.2250732 0.17710742 0.09576884 -0.12211788 0.034139253 0.2158978
-0.14914484 -0.17931138 -0.36692753 0.2446144 -0.10751301 -0.28232622 -0.2543146 -0.22555113
-0.13877378 0.34683853 -0.15237738 0.15513133 0.12589836 -0.14668916 -0.26096424 -0.0428327
-0.24124867 -0.19004065 0.27410337 0.13540205 0.31252873 0.26024604 0.1452862 -0.27121148
-0.25532806 0.239468 -0.2451472 0.22937548 -0.14143819 -0.10046876
00000000: 0f45 4d3e 5bfc b0bd 3866 893e 5c3b 7fbe
00000010: 6671 89be 0b48 4abe 2418 a13e a473 68be
00000020: a929 833e 0956 84be 8ed9 5fbe 0f28 683e
00000030: 3cad c2bd 2c1d 08be 1a69 613e 4be3 1cbe
00000040: 6cae 603e 9ccd bb3e c8ca 14be c0d7 90be
00000050: 2a88 4bbe 8710 cf3e 234a 283e 48bf 903e
00000060: 73cc 643e 5ef7 843e 9779 66be a65b 353e
00000070: 7422 c43d f018 fabd 9ad5 0b3d 5014 5d3e
00000080: 6db9 18be 679d 37be eddd bbbe 337c 7a3e
00000090: c82f dcbd 108d 90be 8635 82be e0f6 66be
000000a0: b71a 0ebe d294 b13e d108 1cbe bfda 1e3e
000000b0: 80eb 003e af35 16be 1b9d 85be 5771 2fbd
000000c0: e409 77be 049a 42be 4757 8c3e d6a6 0a3e
000000d0: c403 a03e f83e 853e e8c5 143e 3bdc 8abe
000000e0: 5cba 82be 1937 753e de07 7bbe 68e1 6a3e
000000f0: 2cd5 10be 91c2 cdbd
