gcn_income.pth (torch, 9009 bytes, 3 tensors)

bias f4 [62]
000000 08 4e 3a 3c ba 56 8d 3b 8e 62 2b 3b 4f e2 6b bb
       0.011371143 0.004313317 0.0026151272 -0.0035993045
000010 95 57 fe 3b b7 d6 fb bb c9 7b 04 bc 5b a1 20 3c
       0.0077619054 -0.007685508 -0.008086153 0.009804095
000020 2a d7 13 bc d8 b1 07 bb cd 9b 36 bc 75 73 55 3a
       -0.009023467 -0.0020705368 -0.011145544 0.00081425096
000030 0b 21 23 bc ca 1e 4f bc 19 32 3a 3c 21 16 f8 3b
       -0.0099566085 -0.012641618 0.011364483 0.0075709973
000040 c8 fa 10 bc f0 4f d6 bb 12 95 e2 3b 2a 17 8e bb
       -0.008848853 -0.006540291 0.006914743 -0.0043362575
000050 ba 10 e6 3b bf 52 07 bb dd 80 f9 bb f9 57 38 3b
       0.007021037 -0.0020648686 -0.0076142387 0.0028128608
000060 f3 ba e1 bb 80 bd 57 bb 8f 36 1a bc f2 6b 9e 3b
       -0.006888741 -0.0032919347 -0.009412422 0.0048346454
000070 f9 e9 0b bc 6c 61 f8 38 b7 db fc bb de 75 36 3b
       -0.00853967 0.00011843708 -0.0077166217 0.002784125
000080 80 ca 50 bb 99 e5 fd bb 70 63 1a bc 78 86 4a bb
       -0.003185898 -0.0077483174 -0.009423122 -0.0030902904
000090 48 e9 29 3b 49 de 2a bc 46 fb 1b 3c 1e d0 32 bc
       0.00259264 -0.0104289735 0.0095203575 -0.010913877
0000a0 fc 14 ed ba e3 ed df 3b 3e cb 35 3b ae 3e 34 3b
       -0.0018087919 0.006833778 0.002773955 0.002750318
0000b0 ff f4 e4 ba 16 81 3b 3b 3d 64 30 bc bf b2 f2 3b
       -0.0017468034 0.0028610877 -0.010766086 0.007406562
0000c0 f0 9e 40 bc 81 0f 96 bb d3 2e 11 bb 74 d9 05 3c
       -0.011756644 -0.004579485 -0.0022153154 0.008169521
0000d0 1c c8 29 3c 8e 23 1f 3c b8 fd 1a bc 20 6e c4 bb
       0.010362651 0.009713067 -0.009459905 -0.0059945732
0000e0 58 58 40 bc ba d1 fb 3b 65 28 3f bc bc 55 2c 3c
       -0.011739813 0.0076849135 -0.011667346 0.010518488
0000f0 25 5d 4d 3b e0 73 2d bc
       0.0031336036 -0.010586709

weight f4 [62, 14]
000000 41 9e 52 3e db 88 05 be e8 e5 d0 bd 82 3c 8d bc
       0.20568182 -0.13040487 -0.10200101 -0.017240766
000010 ba bd b0 3d 73 b1 8e be a2 2b 3f 3d 24 56 a2 be
       0.086299375 -0.27869758 0.04667247 -0.31706345
000020 9b 9d 65 bd c1 dc 38 3d 50 82 1a be 62 0b 81 bd
       -0.056058507 0.045132402 -0.15088773 -0.06300999
000030 83 35 a8 3d ad 98 4a 3d 2f cf 93 3d 40 ae 59 bd
       0.082133316 0.04946201 0.072172515 -0.053144693
000040 7a ea 2f bd fe 59 d2 bb fe 78 46 3d 9c 4e 42 bc
       -0.042948224 -0.0064194193 0.04845523 -0.011859562
000050 a7 2e 3f bb 71 12 33 3e 01 86 6b bd 17 00 45 3e
       -0.0029172094 0.17487504 -0.057500843 0.19238316
000060 b8 36 01 be fc 1d 10 bd d7 1c 99 b9 fb f0 3f bd
       -0.1261853 -0.035184845 -0.0002920392 -0.046860676
000070 6c 7a 58 3e e7 42 0e bd eb 24 e5 bb 33 ae 74 bd
       0.2114045 -0.03473177 -0.0069929264 -0.05973644
000080 15 f0 a5 3e 0f ce a5 bd 3b 88 c8 bb 95 6c 9c be
       0.3240973 -0.08095943 -0.0061197556 -0.30551592
000090 e9 0e 11 3e 00 f3 6b 3c 00 7e 22 3d a5 95 3a 3d
       0.14165844 0.014401197 0.039670944 0.04555287
0000a0 b7 c1 57 3d 64 01 81 3c ed 05 ab 3c 23 74 17 bd
       0.052674975 0.015747733 0.02087685 -0.03697599
0000b0 31 1b 51 3c fb f6 3e bd f3 29 35 be 33 30 85 3e
       0.012762831 -0.046622258 -0.17691784 0.26013336
0000c0 56 b4 f0 3b 2d f3 43 3e da e8 d7 bd 75 68 77 be
       0.0073457165 0.19135733 -0.1054246 -0.24160941
0000d0 04 8d 02 be 8d 52 b7 ba d6 10 0b be 37 03 f5 bb
       -0.12749106 -0.0013986394 -0.13580641 -0.00747719
0000e0 a9 e6 10 be c4 41 b3 3d 6d 3e 92 bc 5b 17 7d 3d
       -0.1415049 0.08752778 -0.017852033 0.06178985
0000f0 3f 24 a3 3d c3 b1 e8 3d 00 d9 8c 3c 3a 76 c8 bb
       0.07965898 0.1136203 0.017193317 -0.0061176093
000100 98 34 37 3e b6 d9 04 3d 16 fd 4c 3e 77 ea c4 bb
       0.17891157 0.032434188 0.2001842 -0.0060093957
000110 4d ae 39 3e fa 07 d2 bd 21 d3 56 be 70 b0 0e 3d
       0.18132897 -0.10255428 -0.20978977 0.034836233
000120 0a c7 f1 3d f9 7f bd bd e7 3c aa be 2f 23 c3 3c
       0.11805542 -0.092529245 -0.3324959 0.023820488
000130 84 07 30 bd b3 64 ae 3e 2c 7b 25 be 1b fd 51 3e
       -0.042975917 0.34061202 -0.16160268 0.20506708
000140 6e d1 6d be 0e 51 bc 3d 6b 7e 38 be c9 d8 14 be
       -0.23224422 0.091951475 -0.18016975 -0.14535822
000150 d9 2e 80 bd 09 04 f4 bc 01 3e 01 3c a4 2c 56 bd
       -0.062589355 -0.02978708 0.007888318 -0.052288666
000160 f8 b5 61 be 24 bb c7 bd e2 d3 2e 3c c5 fb 26 be
       -0.22042072 -0.09752491 0.010670634 -0.1630698
000170 b3 cb 4a be ec af 65 3e e0 b8 fb bc 1d b4 32 3e
       -0.19804268 0.2243039 -0.030727804 0.1745152
000180 20 7d 66 3d d5 68 fd 3c 64 1c 41 be 88 76 2e be
       0.056271672 0.030933777 -0.18858486 -0.17037404
000190 98 56 0c be 9b 85 0d 3e 56 29 e1 3e 0a 7b 3b bc
       -0.13704908 0.13820498 0.4397685 -0.011442909
0001a0 63 a2 a5 bd 25 f8 83 3d 99 52 1e 3b 3b 72 10 3d
       -0.080876134 0.06443814 0.0024158119 0.03526519
0001b0 14 8c 56 3e 79 fe 64 3e 7f df 61 3c 50 b1 06 be
       0.20951873 0.22362699 0.013786196 -0.13153577
0001c0 5e 02 fe 3d df 85 ce 3d 6f fb f2 bd 56 64 77 3e
       0.12402795 0.10084128 -0.118643634 0.24159369
0001d0 4b b7 cf be 4f 30 10 3e 61 23 f4 3d e4 4d 0e 3e
       -0.4056953 0.14080928 0.119208105 0.138969
0001e0 c2 f8 77 bd b9 de f3 bb d3 e0 70 be f5 4e d8 3d
       -0.06053997 -0.007442322 -0.23523264 0.10561935
0001f0 22 a2 56 3d 25 e5 10 3e aa 68 0e bd 7c f2 33 3d
       0.052400716 0.14149912 -0.034767784 0.043932423
000200 8e 92 5d bb 33 4e 06 3e 33 1e f1 be 0c 1f ed 3d
       -0.0033809277 0.13115768 -0.47093353 0.11578187
000210 ee 52 ad 3c 5d 28 4a 3e 21 55 ab bd cf 24 29 3e
       0.021157708 0.1974196 -0.083658464 0.16517948
000220 cc 48 4a be 34 e0 96 bd 02 32 a2 bd 5f 05 fd bd
       -0.19754332 -0.07366982 -0.079196945 -0.1235454
000230 33 25 01 be 97 0f ec bd c1 0e 40 bc 8a f2 c9 3d
       -0.12611847 -0.11526411 -0.011722268 0.09860714
000240 7a 96 c7 be db d5 d6 3d 6c b1 0c bd 39 5a 3f be
       -0.38981992 0.104900084 -0.03434889 -0.18686761
000250 d8 04 02 3e 7d 5f 01 be ef 30 e7 3d a3 4f 10 bd
       0.1269716 -0.12634082 0.1128863 -0.035232197
000260 06 1a 9e be 3e a3 8a 3d 84 f6 8a bd c9 7f 75 bc
       -0.3087923 0.06769417 -0.067853004 -0.01498408
000270 9e f1 f1 3b e7 9f 25 bc a8 79 80 3e 9d 21 bb bd
       0.0073835393 -0.0101089245 0.25092816 -0.091372706
000280 61 68 e9 ba b8 09 41 bd 16 51 bb 3d 64 4f ff 3d
       -0.0017807597 -0.04712841 0.09146325 0.124663144
000290 fe 09 16 3d 81 d5 46 3d 45 a3 c8 bc 58 d1 1e 3c
       0.036630623 0.048543457 -0.024491915 0.009693466
0002a0 53 f3 72 bd c3 b7 c9 3c ef c7 8e 3d 0f 34 58 bc
       -0.059314083 0.024623757 0.06971728 -0.0131960055
0002b0 dc bb 00 be f0 ee 9b 3e 21 b1 ac 3d b8 4c 49 be
       -0.12571663 0.30455732 0.08432222 -0.19658172
0002c0 d9 57 b6 3c d3 f9 3b 3e 3f 51 1e 3e 08 60 e6 bc
       0.022258686 0.18357019 0.1546068 -0.028121963
0002d0 89 b8 0e 3e fb 89 8c 3d 6f 32 3b 3e 80 d4 b8 3d
       0.13937582 0.06862255 0.18280958 0.09024906
0002e0 f8 98 13 3e 6c 22 53 3d fb 8c 81 3d cd af 32 3e
       0.14413822 0.0515465 0.06325718 0.17449875
0002f0 3b d8 5d bb fa 6e 12 be 59 76 75 3e d8 68 87 be
       -0.0033850807 -0.14300147 0.23970927 -0.26447177
000300 97 51 38 3e 32 1c 67 bd 99 ad 07 be a4 d8 32 be
       0.17999874 -0.056423374 -0.13249816 -0.17465454
000310 74 cb 3e bd ad b7 b8 bd 0b 9d b6 3c cd 6b 98 3d
       -0.046580747 -0.090194084 0.02229168 0.07442436
000320 eb ea 21 3e 99 64 67 be f2 d3 a9 3d 64 71 cf 3d
       0.1581227 -0.22596969 0.082923785 0.101290494
000330 39 94 90 be 72 2d a6 3d 81 a7 ba bd 97 29 14 bd
       -0.28238085 0.08114137 -0.0911398 -0.036172476
000340 c1 88 b7 3d c9 dd 3b 3e 8c e8 26 3d 21 45 6b 3b
       0.089616306 0.18346323 0.040749118 0.0035899358
000350 9a 0c 25 bd 11 0e b1 bc 9f cf 97 bc 4d 34 2e be
       -0.04029522 -0.021613153 -0.018531619 -0.17012139
000360 76 c8 0d 3d 88 5a 9b be 22 3f 4e bc d5 a7 41 bd
       0.034615003 -0.30342507 -0.012588294 -0.047279198
000370 20 31 fe ba f1 61 bb 3c 68 59 0f 3d 35 6e 2e 3e
       -0.0019393303 0.02287385 0.034997374 0.17034228
000380 d9 7b 8e bd 84 da 29 3e 3b cf 07 3d 1e ba 78 bd
       -0.06957216 0.16587263 0.033156615 -0.06072437
000390 68 b0 a2 3b 20 4f 98 bd e0 c6 35 ba f0 42 ac 3e
       0.004964877 -0.07436967 -0.0006934237 0.3364482
0003a0 df b7 07 be f9 4d 3e 3e 14 90 94 be 80 cd 73 bd
       -0.13253735 0.18584432 -0.29016173 -0.059522152
0003b0 36 15 81 be 5e af ee bd 52 9a 0b 3e 85 b4 6e bd
       -0.25211495 -0.116545424 0.13633087 -0.058277626
0003c0 9d 15 b4 bd ea 14 9b 3d ce c5 96 be 57 99 a5 3e
       -0.08793185 0.075723484 -0.29447788 0.32343552
0003d0 e2 f4 24 3d 3f 45 00 be 30 b2 07 be 8c 4f 19 be
       0.0402726 -0.12526415 -0.13251567 -0.14971751
0003e0 93 4c 16 be 83 b6 03 be 52 c9 2c bd cb ae a9 bd
       -0.14677648 -0.12862591 -0.04218418 -0.08285292
0003f0 db 15 7c 3e 1c 37 70 3d e9 81 e5 3d d2 9b 94 bd
       0.24617712 0.058646306 0.11206419 -0.07256283

weight f4 [1, 62]
000000 18 48 bf 3e d3 6b 1f bb 6c f8 30 3e 04 7d f9 bd
       0.3735969 -0.0024325743 0.17282265 -0.12182048
000010 fb b8 ca 3d 14 32 ad be f8 20 00 be b0 8f d1 3e
       0.098985635 -0.3382727 -0.12512577 0.40929937
000020 19 83 e9 be 1d 9d 88 be af b9 dd be 82 14 b3 3d
       -0.45607832 -0.26682368 -0.43305728 0.08744146
000030 57 0d 3d be 1a 01 f2 bd 61 ab 85 3e 6c 13 3a 3e
       -0.1846212 -0.11816616 0.26107314 0.18171471
000040 ec 35 8f be ad 2f 8d be d5 e4 44 3e d9 ad 0e be
       -0.27970827 -0.27575436 0.19227917 -0.13933505
000050 f5 14 2d 3e 6e 9b f2 bd 5b 3e 30 be 29 b3 86 3d
       0.16902526 -0.11846052 -0.17211287 0.06577141
000060 9e 69 2c be 4c ef ed bd e5 5d c8 be e8 92 1c 3e
       -0.16837165 -0.11617908 -0.39134136 0.15290415
000070 8f bb b1 be 99 70 2e bd 40 88 6e be be 4f 41 3e
       -0.34713408 -0.04258785 -0.23294163 0.18878075
000080 b3 5f 09 be df 76 db bd 6f e0 f6 bd 01 62 21 be
       -0.13415413 -0.10716032 -0.12054526 -0.15760042
000090 ea ab 25 3e 0f c8 bf be 20 72 5a 3e 92 9f 5c be
       0.16178861 -0.3745732 0.21332598 -0.21545246
0000a0 21 8b da bd e1 7b 1e 3e 0a 17 89 3e 07 7e 48 3e
       -0.10671068 0.15476944 0.2677539 0.19579326
0000b0 13 2a 7d be 6d 00 7b 3e ba f8 94 be 85 fe 3c 3e
       -0.24723081 0.24511881 -0.29096013 0.18456466
0000c0 50 54 cb be 48 0b 7d be c1 30 f4 bd 10 00 e9 3d
       -0.39712763 -0.24711335 -0.119233616 0.11376965
0000d0 7c d2 22 3e e9 d7 26 3e 62 82 82 be e8 b5 2d be
       0.15900606 0.162933 -0.254901 -0.16963923
0000e0 b5 11 35 bd e8 26 32 3e 5a fb 2f be b9 5a 3d 3e
       -0.04420634 0.17397654 -0.17185727 0.18491639
0000f0 68 42 6d 3e b0 88 df be
       0.23169863 -0.43658972
