gcn_fair_pokec1.pth (torch, 73375 bytes, 3 tensors)

bias f4 [62]
000000 7b 5f ad bf cd f3 b0 bf 9e af bb 3f 48 7e b2 bf
       -1.3544763 -1.3824402 1.4662969 -1.3944788
000010 64 33 c3 3f c1 4b ba bf 94 c7 ad bf b2 71 c3 3f
       1.5250058 -1.4554368 -1.3576531 1.5269072
000020 c7 af af bf 10 ca b7 3f 62 23 b4 bf f6 b5 ac bf
       -1.3725518 1.435854 -1.4073298 -1.349303
000030 2c 85 ae 3f 4d e2 b5 bf 05 c6 ab 3f 39 01 c0 bf
       1.3634391 -1.4209687 1.3419806 -1.5000373
000040 f1 4f b4 3f 35 21 aa bf f3 9e bd bf 69 52 b0 3f
       1.4086896 -1.3291384 -1.4814132 1.377515
000050 41 1d c6 3f ab f6 c1 3f 90 19 b2 bf dc c9 c6 3f
       1.5477678 1.5153402 -1.3914051 1.5530353
000060 ea ad a9 bf 9b d4 bf bf a6 8c ab bf 87 63 a7 3f
       -1.3256199 -1.4986757 -1.3402297 1.3077248
000070 49 2f c1 bf 02 4a a8 3f 31 65 ab 3f d9 e8 c3 bf
       -1.5092555 1.3147585 1.3390256 -1.5305434
000080 9d 4e b8 bf 5b ee b5 3f fc 04 b1 3f 1d 82 bb 3f
       -1.4398991 1.4213365 1.3829646 1.4649082
000090 35 34 b0 3f 48 65 b6 bf 68 8b b8 3f 58 0c ad 3f
       1.3765932 -1.4249659 1.4417543 1.3519392
0000a0 ea d7 b2 bf 1c fa b7 bf 48 fe a7 bf 24 03 b4 3f
       -1.3972142 -1.4373202 -1.3124475 1.4063458
0000b0 1d 93 c5 3f ed 95 b2 3f 40 dd c6 3f 82 61 a8 bf
       1.543552 1.3952004 1.553627 -1.3154757
0000c0 55 2e b4 bf 7d 59 c5 bf 15 de b9 bf ca 60 bf 3f
       -1.407664 -1.5417935 -1.4520899 1.4951413
0000d0 cd 50 b8 bf 5e 03 aa 3f 32 50 aa bf 79 f8 ab bf
       -1.4399658 1.3282278 -1.3305724 -1.3435203
0000e0 16 d8 b6 3f d0 72 be bf 30 e7 a7 3f 95 53 c0 bf
       1.4284694 -1.4878788 1.3117428 -1.5025507
0000f0 2d c3 a9 bf ef 5a be bf
       -1.3262688 -1.4871501

weight f4 [62, 276]
000000 80 ae 9d bf 20 71 b5 bf 14 e2 a1 bf 34 7b ab bf
       -1.2318878 -1.4175148 -1.2647119 -1.3396974
000010 b0 c9 b7 bf 6f 5f bb bf a1 e1 ad bf 3f 88 a5 bf
       -1.4358425 -1.4638499 -1.3584481 -1.2932204
000020 e6 b9 ae 3f 15 cb a1 bf 43 fa aa bf cb e8 a3 bf
       1.3650482 -1.2640101 -1.3357624 -1.2805418
000030 4e 62 b2 bf e5 13 ab bf 57 cb bd bf d3 55 9f bf
       -1.393625 -1.3365446 -1.4827679 -1.2448066
000040 d4 57 ae bf f2 05 ac bf dd ed a0 bf 6e 99 b8 bf
       -1.3620553 -1.3439314 -1.257259 -1.4421823
000050 eb 62 b0 bf 5e 09 bc bf 39 85 b6 bf 43 64 a3 bf
       -1.3780187 -1.4690359 -1.4259406 -1.2764972
000060 b4 b5 a8 bf 99 90 b7 bf 04 de a6 bf 6c 5d aa bf
       -1.3180451 -1.4341003 -1.3036504 -1.330976
000070 2c f7 b2 bf 9c 8f b8 bf 26 76 ab bf 1f cf b3 bf
       -1.3981681 -1.4418826 -1.3395431 -1.4047583
000080 02 5d a1 bf 58 44 af bf 0c ff 9a bf e3 88 9f bf
       -1.2606509 -1.3692732 -1.2109084 -1.246365
000090 01 36 ba bf 8f bb bf 3e 32 04 a6 bf 62 8d b3 bf
       -1.4547731 0.37447783 -1.297003 -1.4027522
0000a0 71 eb ac bf 5f a0 9f bf 77 b1 af bf 90 bd ae bf
       -1.3509351 -1.2470816 -1.3726033 -1.36516
0000b0 9c 87 b3 bf 48 bf ba bf aa 24 ab bf 79 89 aa bf
       -1.402576 -1.4589624 -1.3370564 -1.3323203
0000c0 bb 8e b3 bf 1d c0 b6 bf 70 80 b9 bf 2c 2a b0 bf
       -1.4027933 -1.4277378 -1.4492321 -1.376287
0000d0 6b 72 bd bf a2 ee 9c bf 9a 0a ad bf 9e 1e b5 bf
       -1.4800543 -1.2260325 -1.351886 -1.4149969
0000e0 99 43 ac bf 0e 51 a2 3f ec f1 9d bf 44 df a2 bf
       -1.3458129 1.2680986 -1.2339454 -1.2724385
0000f0 79 01 ac bf 94 70 bf bf cf 80 a9 bf 7a 57 a1 bf
       -1.343795 -1.4956231 -1.3242434 -1.2604821
000100 58 1e b6 bf 70 d9 ad bf 4a 0b b5 bf c7 3d b6 bf
       -1.422801 -1.3581982 -1.414407 -1.4237603
000110 85 d7 a4 bf c2 bc ad bf ce 58 a9 bf d7 87 b6 bf
       -1.2878271 -1.3573229 -1.3230226 -1.4260205
000120 34 a2 9d bf 5d 03 bb bf 2d e2 ba bf d7 82 a0 bf
       -1.2315125 -1.4610401 -1.4600273 -1.2539929
000130 5c 1f b1 bf 08 0d a4 bf ea f6 b4 bf 17 16 ae 3f
       -1.3837695 -1.2816477 -1.4137852 1.3600491
000140 ec 48 b0 bf 8b 6a a5 bf 93 b9 c0 bf c8 41 ba bf
       -1.3772254 -1.2923139 -1.5056633 -1.4551325
000150 d7 44 be bf b1 71 9e bf 8e 56 ad bf 87 a0 a4 bf
       -1.4864758 -1.2378446 -1.3542039 -1.2861489
000160 7c 74 a2 bf 75 6d a3 bf 83 a1 ab bf da ec bc bf
       -1.2691798 -1.2767779 -1.3408664 -1.4759781
000170 9e 52 ba bf 31 fa 9e bf da cf 9d bf 01 3e b0 bf
       -1.4556463 -1.2420102 -1.2329056 -1.3768922
000180 4f 99 a1 bf 76 b7 b1 bf b3 24 b6 bf 57 eb a0 bf
       -1.2624911 -1.3884113 -1.422995 -1.257182
000190 b2 3c bb bf 9a a1 bb bf 22 1d a4 bf 99 25 aa bf
       -1.4627898 -1.4658692 -1.2821391 -1.3292724
0001a0 74 9c a1 bf 58 51 aa bf f1 78 a2 bf cc 2d a3 bf
       -1.2625871 -1.3306074 -1.2693158 -1.2748351
0001b0 e4 f6 a7 bf 3d 06 a7 bf f5 31 a8 bf d4 61 b7 bf
       -1.312222 -1.3048779 -1.3140246 -1.432673
0001c0 10 4d aa bf 25 88 a6 bf 6b 9b b2 3f 40 4f ab bf
       -1.3304768 -1.3010298 1.395368 -1.338356
0001d0 86 ae ba bf aa dd b3 bf 17 cc ad bf 8d 69 bb bf
       -1.458451 -1.4052022 -1.3577908 -1.4641587
0001e0 2c fb af bf d0 2f ac bf c1 e1 a5 bf 25 4d ad bf
       -1.3748527 -1.3452091 -1.295952 -1.3539168
0001f0 f3 14 a9 bf 7c 48 a9 bf f3 72 ba bf d5 20 a3 bf
       -1.3209518 -1.3225245 -1.456633 -1.2744395
000200 b2 09 bc bf 97 af 9e bf df a2 8e bf aa c3 a7 bf
       -1.4690459 -1.2397336 -1.1143454 -1.3106587
000210 60 df a3 bf 25 63 ae bf 70 6c a2 bf dc 5c a1 bf
       -1.2802544 -1.3624007 -1.2689342 -1.2606463
000220 f2 d9 b5 bf 2c 71 a7 bf ad f9 a2 bf 07 ab b5 bf
       -1.4207137 -1.3081412 -1.2732445 -1.4192818
000230 a4 4d b6 3f cf b3 b6 bf 28 0f ac bf 12 11 b8 bf
       1.4242444 -1.4273623 -1.3442125 -1.438021
000240 50 a0 bf bf 7f fc a1 bf e3 e4 a0 bf fa 63 ad bf
       -1.4970798 -1.2655181 -1.2569851 -1.3546135
000250 6c 10 bf bf fd 88 b4 bf 14 bc 9d bf 03 46 bd bf
       -1.4926887 -1.4104306 -1.2323022 -1.4786991
000260 16 d6 b8 bf aa 21 b0 bf eb 05 a7 bf 9a 6e bb bf
       -1.4440334 -1.3760273 -1.3048681 -1.4643128
000270 62 53 ad bf c3 ae bc bf 98 a0 9e bf ee 15 bc bf
       -1.3541071 -1.4740833 -1.2392759 -1.4694192
000280 14 86 a2 bf 1a 62 ab bf 36 4c bd bf 5c 88 b3 bf
       -1.2697167 -1.3389313 -1.4788883 -1.4025989
000290 4d 58 ac bf c0 45 9e bf 65 af b4 bf 72 bb ba bf
       -1.3464447 -1.2365036 -1.4116026 -1.4588454
0002a0 9c a8 a9 bf a1 43 b3 bf 2f ae b9 bf a1 e8 9d bf
       -1.325458 -1.4005014 -1.4506282 -1.2336618
0002b0 be fd b0 bf 77 2e ab bf e3 61 ba bf 4c 9e 9f bf
       -1.3827436 -1.3373555 -1.4561123 -1.2470183
0002c0 ce 11 9f bf 32 af a6 bf d3 aa a0 bf e2 25 ae bf
       -1.2427309 -1.3022215 -1.2552131 -1.3605311
0002d0 9f 0e 9f bf 28 02 a8 bf 5b 23 a2 bf d7 23 a9 bf
       -1.2426337 -1.3125658 -1.266704 -1.3214062
0002e0 c5 70 a8 bf 9f 4d a9 bf de a9 b9 bf 91 3b 7b bf
       -1.3159415 -1.3226813 -1.4504964 -0.98137766
0002f0 a3 07 a9 bf 20 f1 b1 bf bf 0b a9 bf 51 ca bc bf
       -1.3205456 -1.390171 -1.320671 -1.4749242
000300 12 b5 9f bf 32 08 aa bf 4f b9 9c bf ab 0b 9c 3f
       -1.2477133 -1.3283751 -1.2244052 1.2191061
000310 7b 1a a9 bf 66 af bd bf 5d e1 a9 bf c7 59 b0 bf
       -1.3211206 -1.4819152 -1.32719 -1.3777398
000320 45 62 a2 bf d3 cc a6 bf ba 4e bd bf 44 06 c0 bf
       -1.268624 -1.3031257 -1.478965 -1.5001912
000330 fc ed ae bf d7 93 b3 bf cc 88 9e bf d7 55 9f bf
       -1.3666377 -1.4029492 -1.2385497 -1.2448071
000340 53 e7 a8 bf ab ad a6 bf e8 d9 9d bf 79 b4 a3 bf
       -1.3195595 -1.3021749 -1.2332125 -1.2789451
000350 28 8d ba bf f1 65 b4 bf 77 d7 a2 bf 08 4a a4 bf
       -1.4574327 -1.409361 -1.2722005 -1.2835093
000360 65 d8 a8 bf 7f 2c be bf b0 bc b0 bf c3 2c a9 bf
       -1.3191038 -1.4857329 -1.3807583 -1.3216785
000370 e7 1a a7 bf f1 cd b0 bf 6e 3d ad bf 5a a2 b6 bf
       -1.3055085 -1.3812848 -1.3534372 -1.4268296
000380 c0 c8 a0 bf dd 04 a8 bf c2 8e bc bf d5 97 be bf
       -1.2561264 -1.3126484 -1.4731066 -1.4890085
000390 0e 3a aa bf 3e f2 bc bf d5 c1 a7 bf cd 3c a5 bf
       -1.3298967 -1.4761426 -1.3106028 -1.290918
0003a0 10 bb a1 bf 8c 38 b3 bf ce 7c 9e bf 41 3e b4 bf
       -1.2635212 -1.4001632 -1.2381837 -1.4081498
0003b0 bd d3 b2 bf 79 c8 a9 bf 72 45 a9 bf a4 90 a6 bf
       -1.3970867 -1.3264304 -1.3224318 -1.3012891
0003c0 13 10 aa bf c6 d1 a9 bf fa dd 9d bf 88 9b b5 bf
       -1.3286155 -1.3267143 -1.2333367 -1.4188089
0003d0 34 91 a6 bf a4 36 a3 bf bb c0 9f bf ff 3a 91 3f
       -1.3013062 -1.275105 -1.2480692 1.1346129
0003e0 43 83 a3 bf 94 80 b1 bf 48 ea 9d bf 4f ba a0 bf
       -1.2774433 -1.3867364 -1.2337122 -1.2556857
0003f0 d6 5e b1 bf d5 ed ad bf 8c e4 a5 bf 0a 82 87 bf
       -1.3857067 -1.3588206 -1.2960372 -1.058656

weight f4 [1, 62]
000000 3e 2f de bf 56 8b dd bf 0f 63 cc 3f b2 1e cf bf
       -1.7358167 -1.7308147 1.596773 -1.6181242
000010 4c 59 c7 3f 52 fd cd bf e9 4f b7 bf 6e 86 c1 3f
       1.5574126 -1.6092932 -1.4321262 1.511915
000020 f7 d7 da bf d1 08 cf 3f 76 80 d1 bf 77 e9 de bf
       -1.7097157 1.6174566 -1.6367328 -1.7414998
000030 9b 70 d8 3f e4 11 d2 bf 71 4c da 3f d0 35 c1 bf
       1.6909364 -1.641171 1.7054578 -1.5094547
000040 82 e8 cb 3f 30 bf e8 bf d4 61 cd bf 95 3a dd 3f
       1.5930331 -1.8183346 -1.604548 1.7283503
000050 38 05 c4 3f d7 50 c6 3f 66 af d4 bf 7f df bb 3f
       1.5314093 1.549342 -1.6616027 1.467758
000060 60 b4 e4 bf c8 fc c6 bf 30 c7 e1 bf bd 13 de 3f
       -1.7867546 -1.5545893 -1.7638912 1.7349774
000070 20 bc c1 bf 20 cd eb 3f 21 64 df 3f b7 f6 bf bf
       -1.5135536 1.8421974 1.7452432 -1.4997166
000080 e4 c3 d3 bf fb d9 cf 3f f0 85 d5 3f 11 30 d0 3f
       -1.6544156 1.6238397 1.66815 1.6264669
000090 78 ca dd 3f 4d d5 ce bf 43 c6 c6 3f 68 1b dc 3f
       1.7327414 -1.6158844 1.5529255 1.7195864
0000a0 ef e8 d9 bf 91 08 d1 bf 03 aa ec bf a7 11 d9 3f
       -1.7024211 -1.6330739 -1.8489383 1.6958512
0000b0 9f 9f bf 3f a9 61 d8 3f bb 42 c5 3f a7 ba e2 bf
       1.4970587 1.6904804 1.541099 -1.7713212
0000c0 1b 55 d8 bf 7d bf c6 bf 97 9f d0 bf 63 fd c1 3f
       -1.6900972 -1.5527188 -1.6298703 1.5155452
0000d0 a1 54 d3 bf 06 e9 e0 3f cf 61 e8 bf 0d 0a d7 bf
       -1.6510202 1.7571113 -1.8154849 -1.6799942
0000e0 62 94 d1 3f 84 0f c2 bf 6b 79 e8 3f ba 0e c8 bf
       1.6373408 -1.5160985 1.8162054 -1.5629494
0000f0 5d 0b db bf 38 33 c9 bf
       -1.7112843 -1.5718756
