gcn_fair_pokec1.pth (torch, 73375 bytes, 3 tensors)

bias f4 [62]
000000 b8 77 db be 84 27 e1 be a2 1d e3 3e 46 fc e2 be
       -0.42864776 -0.4397546 0.44358546 -0.44333094
000010 e9 ec 0a 3f aa 2d fa be 0f bb f5 bd 21 f4 08 3f
       0.54267746 -0.48862964 -0.11998569 0.5349751
000020 41 6f e0 be 2d 75 f2 3e c6 c7 ca be 22 e1 d9 be
       -0.4383488 0.47355023 -0.3960554 -0.42554575
000030 a7 1a dc 3e dd a9 d5 be db 05 d6 3e e0 94 02 bf
       0.42989084 -0.41731158 0.41801342 -0.51008415
000040 7c a2 e6 3e f3 56 d2 be fe a3 f8 be 73 0c e3 3e
       0.4504584 -0.41081962 -0.48562616 0.44345436
000050 f0 cb ff 3e ad ca ee 3e 00 43 e4 be 4f 3d 0d 3f
       0.4996028 0.46639004 -0.44582367 0.55171674
000060 b7 8b d4 be 7f 2b 04 bf 31 14 c8 be e9 bb cd 3e
       -0.41512844 -0.5162887 -0.39077905 0.40182427
000070 be 61 f7 be 2f e2 d3 3e 48 db d6 3e a2 25 09 bf
       -0.4831676 0.41383502 0.41964173 -0.5357305
000080 e0 c0 ef be bd d6 ec 3e b9 69 c6 3e 4b 57 f6 3e
       -0.4682684 0.46257582 0.38752535 0.48113474
000090 37 6d da 3e 87 a1 ed be 24 6d f0 3e 61 3a c3 3e
       0.4266145 -0.46412298 0.46958268 0.38130477
0000a0 f5 55 e0 be c8 69 f4 be ca f9 d0 be e0 b9 e8 3e
       -0.4381558 -0.47736955 -0.40815574 0.4545431
0000b0 01 36 0c 3f cb 9b d6 3e c1 b6 0e 3f 5d bf d0 be
       0.54769903 0.41915736 0.5574761 -0.40771
0000c0 90 d2 e4 be 07 55 08 bf fc 05 ea be f4 c7 e8 3e
       -0.44691896 -0.5325474 -0.4570769 0.45465052
0000d0 f4 8c ee be ca 09 d4 3e f2 80 d4 be ec b3 d5 be
       -0.46591914 0.41413718 -0.41504627 -0.41738832
0000e0 69 ef f0 3e 2e 36 00 bf af 9e d1 3e a5 8e 05 bf
       0.47057655 -0.5008267 0.40941378 -0.52170783
0000f0 8f e1 d1 be 23 e3 e5 be
       -0.409924 -0.44899854

weight f4 [62, 276]
000000 57 95 9c be c4 94 fb be b3 6f ad be 66 91 d3 be
       -0.30582687 -0.49136937 -0.33874282 -0.41321868
000010 51 8a 02 bf 48 ec 09 bf e5 18 de be 32 89 bc be
       -0.50992304 -0.5387616 -0.43378368 -0.36823422
000020 f9 2f e3 3e da 69 ae be 27 c9 d1 be d3 23 b8 be
       0.44372538 -0.34065133 -0.4097378 -0.35964832
000030 8c 72 ef be 6b 30 d2 be 4e a1 0e bf 7f da a3 be
       -0.4676708 -0.41052565 -0.5571488 -0.32002637
000040 4b 76 df be 1d 24 d6 be 63 2d aa be 89 27 04 bf
       -0.43644938 -0.41824427 -0.33237752 -0.51622826
000050 46 b8 e7 be 71 06 0b bf da 36 00 bf 6e 8b b3 be
       -0.45257777 -0.54306704 -0.50083697 -0.35067314
000060 a7 b4 c8 be 65 47 02 bf 18 33 c1 be 5e e1 d0 be
       -0.39200327 -0.5089019 -0.37734294 -0.40796942
000070 a3 44 f2 be 42 f3 03 bf e5 7d d3 be ca 86 f5 be
       -0.4731799 -0.51543057 -0.41306987 -0.47954398
000080 7e 1d ab be bb df e2 be af ef 94 be b0 1c a5 be
       -0.33420938 -0.44311318 -0.29089114 -0.3224845
000090 d8 b5 07 bf 38 77 9a bd bb da bd be e1 ed f3 be
       -0.53011847 -0.075422704 -0.3708094 -0.47642425
0000a0 3b 00 da be 85 8d a4 be 23 a9 e4 be 21 87 e4 be
       -0.425783 -0.3213922 -0.4466029 -0.44634345
0000b0 c2 e1 f3 be 19 64 08 bf f6 27 d3 be 26 fa cf be
       -0.47633177 -0.53277737 -0.41241425 -0.40620536
0000c0 ff e6 f3 be 15 83 00 bf fc f5 05 bf 85 dc e7 be
       -0.47637174 -0.50200015 -0.5232847 -0.4528543
0000d0 2c a6 0d bf 02 9a 99 be e2 f1 da be ed 3f fa be
       -0.55331683 -0.3000031 -0.42762667 -0.48876897
0000e0 50 ba d6 be 6c 63 b1 3e 8a 65 9e be bf 4e b2 be
       -0.4193902 0.34646165 -0.30936843 -0.34825704
0000f0 55 f1 d5 be 04 9e 11 bf b8 de cb be d9 0a ab be
       -0.41785684 -0.5688174 -0.39818358 -0.33406714
000100 f4 75 fe be 32 1a de be b6 fe f9 be 8f cd fe be
       -0.49699366 -0.4337936 -0.48827142 -0.49766204
000110 91 44 b9 be 24 26 dd be 26 06 cb be 17 46 00 bf
       -0.36185125 -0.4319316 -0.39653128 -0.5010695
000120 9e 72 9c be 7d f0 08 bf a8 a5 08 bf 5e 16 a9 be
       -0.30556196 -0.53491956 -0.5337777 -0.33024877
000130 68 62 ea be db 0a b6 be 80 72 fa be ab 28 e1 3e
       -0.45778203 -0.35555157 -0.48915482 0.4397634
000140 0d f0 e6 be 11 d3 bb be 0b 20 14 bf 47 6a 07 bf
       -0.4510502 -0.36684468 -0.57861394 -0.5289654
000150 01 51 0f bf 50 31 a8 be be 50 db be 16 2c b8 be
       -0.5598298 -0.32850122 -0.4283504 -0.35971135
000160 68 ac af be d8 da b3 be ac b1 d4 be 48 ee 0c bf
       -0.34311223 -0.35127902 -0.41541803 -0.5505109
000170 d1 d6 07 bf 34 43 a3 be 3e 4a 9d be 22 f3 e6 be
       -0.5306216 -0.3188721 -0.30720705 -0.4510737
000180 d7 de ac be c5 28 ed be 1a 2b fe be ad 89 a9 be
       -0.33763763 -0.46320167 -0.4964226 -0.3311285
000190 7f 8b 09 bf 77 11 0a bf 1f 12 b6 be fa 66 cf be
       -0.5372848 -0.539329 -0.355607 -0.40508252
0001a0 2f 47 ac be e1 3d cf be 40 92 af be fa aa b2 be
       -0.3364806 -0.40476897 -0.34291267 -0.3489607
0001b0 5e b0 c5 be f6 c7 c1 be 76 81 c6 be 8e e2 01 bf
       -0.3861112 -0.3784787 -0.38770646 -0.5073632
0001c0 2b 4c cf be 65 6b c0 be cb 27 f0 3e db 61 d3 be
       -0.404878 -0.37581936 0.4690536 -0.41285595
0001d0 e9 46 08 bf d0 82 f5 be e2 37 dd be 0d d2 09 bf
       -0.532332 -0.47951365 -0.43206698 -0.5383614
0001e0 e1 6d e5 be c0 45 d6 be e9 e9 bd be bf 28 db be
       -0.44810393 -0.4185009 -0.37092522 -0.42804524
0001f0 b6 7b ca be 6b 0b cb be 4a e0 07 bf df 53 b2 be
       -0.3954751 -0.3965715 -0.5307661 -0.34829614
000200 75 18 0b bf 5c 46 a1 be 58 2f 81 be 7f fb ca be
       -0.54334193 -0.31498992 -0.25231433 -0.39645
000210 b9 6c b5 be 84 6b df be ea b9 af be 59 2b ab be
       -0.3543451 -0.43636715 -0.3432153 -0.3343151
000220 8a 3b fd be 3a a4 c3 be 2d 5d b2 be 2b 92 fd be
       -0.49459487 -0.38211232 -0.34836712 -0.4952558
000230 a2 f6 ff 3e 15 a9 00 bf 9d 10 d6 be 6e 6b 03 bf
       0.49992853 -0.50258 -0.4180955 -0.513358
000240 e8 0a 12 bf 0b d7 ad be 48 3f a9 be 4a 5f dc be
       -0.5704789 -0.33953127 -0.33056092 -0.4304145
000250 d8 f4 10 bf 2c f3 f7 be e8 d0 9c be 09 8e 0d bf
       -0.566236 -0.48427713 -0.30628133 -0.55294853
000260 cc a5 04 bf 84 7c e6 be d0 95 c2 be 7e af 09 bf
       -0.51815486 -0.45016873 -0.38004923 -0.53783405
000270 0d 37 db be 1e 63 0c bf a5 77 a0 be e5 14 0b bf
       -0.42815438 -0.5483874 -0.31341282 -0.5432876
000280 c9 25 b0 be 1d 84 d3 be ba 5f 0d bf c7 2d f4 be
       -0.34403828 -0.41311732 -0.5522419 -0.47691175
000290 fc 24 d7 be b9 92 a1 be 9b d8 f8 be f5 51 08 bf
       -0.42020404 -0.31557253 -0.48602757 -0.53250057
0002a0 2d 8b cd be c3 6f f3 be ad 47 06 bf 67 92 9d be
       -0.40145245 -0.47546205 -0.5245312 -0.3077576
0002b0 62 1a ea be 5b bf d2 be e6 b6 07 bf 00 64 a4 be
       -0.45723253 -0.41161618 -0.53013456 -0.32107544
0002c0 28 1a a2 be 6c d6 c0 be af da aa be c9 56 de be
       -0.3166058 -0.3766359 -0.33369967 -0.43425587
0002d0 e7 d9 a2 be 6a 7a c6 be 9b eb ae be 5f 42 ca be
       -0.3180687 -0.3876527 -0.34164128 -0.39503762
0002e0 bc 42 c8 be 35 b6 cd be 91 c9 06 bf 8a 47 fd bd
       -0.39113414 -0.40178075 -0.52651316 -0.123671606
0002f0 41 54 ca be 69 be ed be 1c ed c9 be db 54 0c bf
       -0.39517406 -0.46434334 -0.39438713 -0.5481698
000300 e3 b6 a7 be 64 cd cf be 22 f3 a7 be 9f 26 99 3e
       -0.3275672 -0.40586388 -0.32802683 0.29912278
000310 19 4c ca be ee 52 0e bf 37 83 cd be d3 e6 e7 be
       -0.39511183 -0.5559529 -0.4013917 -0.45293292
000320 f4 e6 af be 4e 06 c1 be 6b 6c 0d bf e9 d5 12 bf
       -0.3435589 -0.37700123 -0.5524356 -0.5735765
000330 b8 63 e1 be 21 bb f4 be c9 13 a0 be 3f 0e a3 be
       -0.44021392 -0.47799018 -0.31265095 -0.31846806
000340 b7 7d c9 be c5 bf c0 be 84 8a 9d be 34 98 b5 be
       -0.39353725 -0.3764631 -0.30769742 -0.35467684
000350 bd 3b 08 bf 36 66 f7 be 01 3c b2 be cb 16 b7 be
       -0.53216153 -0.48320168 -0.34811404 -0.35759577
000360 64 23 c9 be 8a 13 0f bf 97 e1 e8 be 50 90 ca be
       -0.39284813 -0.5588919 -0.4548461 -0.39563227
000370 64 40 c2 be 59 35 e9 be 2a 8d da be 66 13 00 bf
       -0.3793975 -0.45548514 -0.42685825 -0.500296
000380 76 d4 a8 be 51 b6 c5 be 71 db 0b bf 54 1e 10 bf
       -0.32974595 -0.3861566 -0.54631716 -0.5629628
000390 03 37 cf be 72 bf 0c bf fe b8 c4 be 7d b8 ba be
       -0.40471658 -0.5497962 -0.38422388 -0.36468878
0003a0 e4 ae ac be 37 bb f2 be 8a 1c a1 be a6 ed f6 be
       -0.3372718 -0.4740846 -0.31467086 -0.48228186
0003b0 62 a9 f5 be 28 0b cd be fb 2b cb be 6f 47 c2 be
       -0.4798079 -0.40047574 -0.39681992 -0.37945125
0003c0 7f 7a cf be 80 87 cd be 3f 9c 9d be 9f 1b fc be
       -0.40523145 -0.4014244 -0.3078327 -0.49239823
0003d0 7b 8e c4 be 6c 6c b4 be 66 a7 a5 be ac 50 73 3e
       -0.38389954 -0.3523897 -0.32354277 0.23761243
0003e0 0d 19 b4 be 88 c0 eb be f7 aa 9d be 98 a5 a9 be
       -0.35175362 -0.46045327 -0.30794498 -0.3313415
0003f0 bb a3 ec be 8c 8e dd be 82 57 c3 be 9e 4c 3f be
       -0.46218666 -0.43272817 -0.381527 -0.18681571

weight f4 [1, 62]
000000 58 99 39 bf d9 a1 33 bf e7 7e 06 3f c4 8a 20 bf
       -0.7249961 -0.70168835 0.5253739 -0.6271174
000010 14 6b 11 3f 97 08 1c bf c1 9a 47 be ea 75 08 3f
       0.56804013 -0.6095061 -0.19492628 0.5330492
000020 1c 45 33 bf 00 16 1e 3f 02 e0 09 bf 5a 01 3b bf
       -0.7002733 0.6175232 -0.53857434 -0.7304894
000030 8f 3b 30 3f d4 c1 0f bf 10 16 35 3f d7 2f 08 bf
       0.6884088 -0.56155133 0.7073679 -0.53198
000040 f6 17 1b 3f 67 ab 47 bf 9d 76 12 bf 14 6e 36 3f
       0.60583436 -0.77995914 -0.5721224 0.71261716
000050 10 d6 f5 3e af 42 f5 3e f0 ac 28 bf 7c 7a 00 3f
       0.4801488 0.47902438 -0.6588888 0.50186896
000060 d3 34 46 bf 0d 80 10 bf 8d 44 30 bf e3 43 3f 3f
       -0.77424353 -0.5644539 -0.688546 0.7471296
000070 4b eb fe be 24 92 52 3f 2e cf 3c 3f e0 11 06 bf
       -0.4978889 0.8225424 0.7375363 -0.52371025
000080 6c 4b 20 bf 8a ac 1f 3f 39 cf 11 3f e1 1a 19 3f
       -0.62615085 0.6237265 0.5695682 0.5980664
000090 c1 35 30 3f 1a f1 1d bf 93 08 12 3f ff 3c 20 3f
       0.6883202 -0.61696017 0.57044333 0.6259307
0000a0 16 7b 29 bf 34 31 21 bf ef d5 51 bf 5a 24 2c 3f
       -0.6620344 -0.62965703 -0.8196706 0.6724297
0000b0 81 a2 05 3f f1 11 20 3f d0 ec 0b 3f 56 54 44 bf
       0.52201086 0.62527376 0.5465822 -0.76691186
0000c0 70 c0 27 bf d9 56 09 bf cf 9c 14 bf 0c b3 f6 3e
       -0.6552801 -0.53648144 -0.5805177 0.48183477
0000d0 a9 d9 1e bf f6 37 40 3f 92 bf 48 bf fe 9b 30 bf
       -0.62050873 0.7508539 -0.78417313 -0.68988025
0000e0 8a 35 22 3f ca a9 09 bf 38 8f 4d 3f 49 37 12 bf
       0.63362944 -0.537747 0.8029666 -0.5711561
0000f0 fb 49 38 bf 58 4f fe be
       -0.71987885 -0.4966991
