gcn_pokec2.pth (torch, 71473 bytes, 3 tensors)

bias f4 [62]
0	0xb9ec74bf	-0.0004510041
1	0x3a0adcbe	0.00052971754
2	0x398799f9	0.00025863925
3	0xb9cd7e23	-0.00039194626
4	0x38baf6f4	8.91517e-05
5	0x394cc41e	0.00019528015
6	0xb909868b	-0.0001311546
7	0xb919b912	-0.00014660161
8	0x38df60d5	0.00010651505
9	0x3954a25f	0.00020278383
10	0xb9310e45	-0.00016885351
11	0xb9c8b7e8	-0.00038283993
12	0x3982231c	0.0002482169
13	0x3aa7087a	0.0012743615
14	0xb93b7a9e	-0.00017879388
15	0xb9c87c2d	-0.0003823949
16	0x3a3d53f7	0.00072222896
17	0xb955edfe	-0.00020401922
18	0xba61a043	-0.00086069497
19	0x39a4bd48	0.00031421543
20	0xb949fa91	-0.00019262197
21	0xb957834f	-0.00020552914
22	0x39144b71	0.00014142484
23	0x3931214c	0.0001689244
24	0x39422879	0.00018516359
25	0x395574e1	0.00020356804
26	0x39a78c5e	0.00031957304
27	0x39914e94	0.000277151
28	0x38e1a95e	0.00010760383
29	0xb8e84eb6	-0.00011077283
30	0x3938c653	0.00017621489
31	0x3934afe4	0.00017231662
32	0x38ef9426	0.00011424003
33	0xb93111c4	-0.00016886654
34	0xb99eefac	-0.00030314678
35	0xb94a25fe	-0.00019278374
36	0x39465389	0.00018913871
37	0xb95bca09	-0.00020960731
38	0x3954d04e	0.00020295495
39	0xb9a4236b	-0.00031306906
40	0xb8a03dc0	-7.6408964e-05
41	0x3b250ad6	0.002518346
42	0xb8d8afd0	-0.0001033243
43	0xb980c77c	-0.0002456269
44	0x399dad71	0.00030074597
45	0x396bea3d	0.00022498607
46	0x39269f30	0.00015890296
47	0xbb54022b	-0.0032349925
48	0x393240cb	0.0001699954
49	0x38eeaeab	0.00011381259
50	0x390a3392	0.00013179917
51	0x392855ab	0.00016053642
52	0x37cb7957	2.4255989e-05
53	0xb994b591	-0.00028364037
54	0x39154e2b	0.00014238867
55	0xb99e9de4	-0.00030253746
56	0x39b4ec96	0.00034508546
57	0xb93d9b46	-0.00018082288
58	0x39347fb9	0.00017213718
59	0xb9df0a85	-0.00042541712
60	0xb891d5d1	-6.953965e-05
61	0xb91ce2c4	-0.00014961796

weight f4 [62, 266]
0	0xbdef84b0	-0.1169523
1	0x3dfbe137	0.12298816
2	0x3d1736ca	0.036917485
3	0xbb56f1ae	-0.003279786
4	0xbd53d945	-0.051720876
5	0x3d9f5e88	0.07781702
6	0xbc213288	-0.009838708
7	0x3d7deabd	0.061991442
8	0xbdac85df	-0.084239714
9	0x3dd5fd3e	0.10448693
10	0xbd0162ff	-0.03158855
11	0xbccddeb3	-0.025130605
12	0xbc838a1d	-0.016057068
13	0xbdd4d7d0	-0.103927255
14	0x3df0999c	0.11748049
15	0xbde01880	-0.10942173
16	0xbd741d13	-0.05959804
17	0x3dd14118	0.10217494
18	0x3db241ab	0.087039314
19	0xbdfd2c9f	-0.123620264
20	0x3ddbbadd	0.10729001
21	0x3d9f3caa	0.077752426
22	0x3c6155aa	0.013753334
23	0x3dea3d44	0.11437467
24	0xbdc162ae	-0.0944265
25	0xbb46f415	-0.0030357887
26	0x3d7638e8	0.060112864
27	0x3dfeb26e	0.124363765
28	0x3df5bab0	0.119984984
29	0xbda89db9	-0.08233208
30	0xbdd5cc5d	-0.1043937
31	0x3d409f54	0.047026947
32	0x3d0cc38f	0.034366187
33	0xbc913d0d	-0.017729307
34	0x3cff61f5	0.03117464
35	0x3df53dae	0.11974655
36	0x3db83720	0.08994889
37	0xbdcfade6	-0.1014059
38	0xbdea18b5	-0.11430494
39	0x3dd3ab9b	0.103354655
40	0x3dc604e8	0.096689045
41	0xbcfea9e2	-0.031086866
42	0xbdd37374	-0.10324755
43	0xbd365045	-0.044510145
44	0x3daebb2a	0.085317925
45	0xbd8aac69	-0.06771166
46	0x3d8b8050	0.06811583
47	0x3dd7cbe7	0.10536938
48	0xbd613b1a	-0.054988004
49	0x3d77ccb7	0.060497966
50	0x3c5e17a8	0.013555445
51	0xbd701343	-0.05861212
52	0x3d0f77c8	0.03502634
53	0xbd2ae874	-0.04172559
54	0x3dbf2695	0.09333531
55	0xbc45c051	-0.012069778
56	0xbd75b167	-0.059983637
57	0xbca9624f	-0.02067676
58	0xbdad50b8	-0.084626615
59	0x3d2ff448	0.042957574
60	0x3d956be0	0.07295966
61	0x3c10da4a	0.008841107
62	0xbe03360e	-0.12813589
63	0x3c264462	0.01014814
64	0xbcaa0491	-0.02075413
65	0xbdc2a112	-0.09503378
66	0x3e1935cf	0.14961933
67	0x3d29f3af	0.04149216
68	0x3e074988	0.13211644
69	0xbca9c669	-0.020724492
70	0xbe0d0529	-0.137715
71	0x3e014a8a	0.1262609
72	0x3dca0737	0.09864657
73	0x3e0bdf5b	0.13659422
74	0x3dd0217d	0.101626374
75	0xbde96b42	-0.11397411
76	0xbd814951	-0.06312812
77	0xbe0d5f17	-0.13805805
78	0x3d10c08a	0.03533987
79	0x3d9da9e5	0.076984204
80	0xbd9cc0a6	-0.07653932
81	0xbd0a1665	-0.033712763
82	0x3dc5c615	0.09656922
83	0xbd583b9b	-0.05279122
84	0x3d1e95df	0.038717147
85	0x3dbdcf5e	0.09268068
86	0x3d1eaae2	0.038737185
87	0x3dd4ceba	0.103909925
88	0xbce8ed7b	-0.028433552
89	0x3dad8b86	0.084738776
90	0xbd36d425	-0.04463591
91	0x3d892048	0.0669561
92	0x3dace3f2	0.084419146
93	0xbd430bed	-0.047618795
94	0x3c71ef32	0.014766501
95	0x3df2bf1c	0.118528575
96	0x3d624d97	0.055249777
97	0xbd940e99	-0.07229347
98	0xbd28394b	-0.041070264
99	0x3dae63c7	0.08515125
100	0x3e0407d2	0.12893608
101	0x3dd7dc0e	0.10540019
102	0xbbe07dac	-0.0068509188
103	0x3cdf42f6	0.02725361
104	0x3c199f48	0.0093763545
105	0xbe121589	-0.14266028
106	0xbcd1bc72	-0.025602553
107	0xbc9a87c2	-0.018863562
108	0x3df1f8ca	0.11815031
109	0xbdc521dc	-0.09625599
110	0xbb28af2d	-0.0025739179
111	0xbd000d07	-0.031262424
112	0x3d90eadd	0.070760466
113	0xbddff3aa	-0.10935147
114	0xbd4f29b4	-0.05057688
115	0x3d65aa25	0.056070466
116	0xbd8eb2a1	-0.069676645
117	0xbd11e398	-0.03561744
118	0x3d5b7d78	0.053586453
119	0x3bf2d07b	0.0074101067
120	0x3d10d3de	0.035358302
121	0x3dd590e3	0.104280256
122	0xbdcdbaa4	-0.100453645
123	0xbcc0a45c	-0.023515873
124	0x3dbaa99e	0.09114383
125	0xbbf94510	-0.00760711
126	0xbcead07a	-0.028663862
127	0xbdfe7074	-0.124237925
128	0x3d69e239	0.05710051
129	0xbda4784b	-0.080307566
130	0x3d437e48	0.047727853
131	0xbd9c5d6e	-0.07635008
132	0x3d22fe97	0.039793577
133	0xbd22489c	-0.039620027
134	0x3c6d05c7	0.014466709
135	0x3da48fc5	0.08035234
136	0xbdc1ea90	-0.09468567
137	0x3deb4ee6	0.11489658
138	0xbdb78743	-0.08961346
139	0x3d8b1753	0.06791558
140	0x3ce73b3c	0.028226487
141	0x3d63f80e	0.055656485
142	0x3d08288d	0.033241797
143	0xbdaae22f	-0.08343922
144	0x3dce6517	0.10077875
145	0x3dc3cb10	0.095602155
146	0xbc968b86	-0.018377077
147	0x3d351375	0.04420801
148	0xbb417edb	-0.0029525075
149	0xbde6ede0	-0.1127584
150	0xbde0de2b	-0.10979875
151	0xbd8d138a	-0.068884924
152	0x3e0e76ad	0.13912459
153	0xbd48a743	-0.04898764
154	0x3d7f925d	0.062395442
155	0x3caf88c5	0.021427521
156	0x3d2ecee2	0.042677768
157	0xbd8333b2	-0.064063445
158	0x3ce866ac	0.02836927
159	0xbd8c9a91	-0.06865419
160	0x3df37c92	0.11888994
161	0x3cdddeef	0.027083842
162	0x3e002249	0.12513079
163	0xbdde5b10	-0.108572125
164	0x3d916f9b	0.07101365
165	0x3dd70b98	0.10500258
166	0x3ce303bd	0.027711743
167	0x3990ab6b	0.00027593537
168	0x3ded7be4	0.11595896
169	0xbb567543	-0.0032723702
170	0x3da299aa	0.07939465
171	0x3db58da7	0.08864909
172	0x3d65e52c	0.05612676
173	0x3dc51480	0.09623051
174	0xbd781782	-0.060569294
175	0x3de638f8	0.11241335
176	0xbc80c38d	-0.015718246
177	0xbc28d7b7	-0.010305337
178	0x3db46a15	0.08809296
179	0x3d506c26	0.05088439
180	0x3e0c44e4	0.13698155
181	0xbdb7bb02	-0.08971216
182	0x3be84acb	0.007088994
183	0xbd260e96	-0.040541254
184	0x3d41531d	0.047198404
185	0x3c01192f	0.007879539
186	0xbdda2fed	-0.10653672
187	0x3d33307b	0.043747406
188	0xbd05a5a0	-0.032628655
189	0x3db42f03	0.08798029
190	0x3dbd5262	0.09244229
191	0xbe09f87e	-0.13473698
192	0x3c974713	0.018466508
193	0xbe036bd3	-0.128341
194	0xbe041bac	-0.12901181
195	0x3cf8cee1	0.030372085
196	0x3cabfa53	0.020993387
197	0xbdbb67de	-0.091506705
198	0xbb82a38f	-0.003986783
199	0x3daa91fc	0.083286256
200	0xbd69bd40	-0.05706525
201	0x3d90d776	0.07072346
202	0xbd9bd437	-0.07608836
203	0xbbfc9bd1	-0.0077090045
204	0x3d245772	0.040122457
205	0x3d7d4043	0.061828863
206	0xbde75d3d	-0.11297081
207	0x3caf064b	0.021365305
208	0xbb82e268	-0.003994275
209	0x3c988370	0.018617362
210	0x3cc970f2	0.02458999
211	0x3dd1f8ee	0.10252558
212	0xbdc9aa41	-0.098469265
213	0xbd411c62	-0.04714621
214	0x3d82540f	0.06363689
215	0x3c5f67c6	0.013635581
216	0xbdab8280	-0.083745
217	0x3deea24a	0.11652048
218	0x3de460e1	0.11151291
219	0x3dcf9a73	0.10136881
220	0x3cd09cc3	0.025465375
221	0xbd4fce93	-0.050734114
222	0xbd29ba05	-0.041437168
223	0x3da9d150	0.08291876
224	0x3bceaba7	0.0063070836
225	0xbdfb51dd	-0.122714736
226	0x3c0f8ead	0.008762044
227	0x3dcf7d2c	0.101312965
228	0xbdb713c9	-0.089393206
229	0x3c35e291	0.011101381
230	0x3d772a4a	0.060343064
231	0xbcb2c96d	-0.021824563
232	0xbc1b2b02	-0.009470703
233	0x3d739466	0.059467696
234	0xbaf14c2e	-0.0018409544
235	0x3ce41951	0.027844103
236	0xbbcf83e6	-0.006332862
237	0x3bd187c3	0.006394358
238	0xbdd5f2ab	-0.10446676
239	0x3e0711cd	0.13190384
240	0x3cfb0cef	0.030645816
241	0x3d5cf7df	0.053947326
242	0xbdaa4a7e	-0.083149895
243	0x3d412e85	0.047163505
244	0x3df5af81	0.11996365
245	0x3bae27f4	0.0053148214
246	0xbde813b4	-0.11331883
247	0xbc87cf14	-0.016578235
248	0xbdb92cbc	-0.090417355
249	0xbd7a4ea1	-0.061110143
250	0x3de1e727	0.11030417
251	0xbda32c62	-0.0796745
252	0xbc4b5680	-0.01241076
253	0x3db1c3b1	0.08679903
254	0x3c34b09a	0.011028433
255	0xbe0acec8	-0.13555443

weight f4 [1, 62]
0	0x3d4a976c	0.049460813
1	0x3d39e311	0.045382563
2	0xbe0a36d3	-0.13497476
3	0xbcbf3961	-0.02334279
4	0x3e0a335a	0.13496152
5	0xbe460b7d	-0.1934032
6	0x3e816661	0.2527342
7	0x3e920023	0.2851573
8	0xbe8bc945	-0.27301994
9	0x3dc9c7f8	0.09852594
10	0x3daeb96a	0.08531459
11	0x3db308b2	0.08741893
12	0xbe0d4577	-0.1379603
13	0x3d16d177	0.036820855
14	0x3e14f8b6	0.14548
15	0x3db1be2f	0.08678853
16	0xbd133090	-0.035934985
17	0x3e5cde5f	0.21569203
18	0x3ce15f75	0.027511338
19	0xbd8de6c4	-0.06928781
20	0x3e51bb27	0.20481549
21	0x3e53b97c	0.20676225
22	0xbe91b8ba	-0.28461248
23	0xbe8ec369	-0.2788346
24	0xbe5075eb	-0.20357482
25	0xbe20b726	-0.15694866
26	0xbdaea108	-0.08526808
27	0xbe08aa63	-0.13346247
28	0x3e0f492b	0.13992755
29	0x3ca7d20d	0.020485902
30	0xbe6d16f0	-0.23153281
31	0xbe7d6d4b	-0.24748723
32	0xbe556c67	-0.20842133
33	0xbdf38193	-0.11889949
34	0x3dc169fb	0.09444042
35	0x3e3ba98f	0.183264
36	0xbe690e55	-0.22759373
37	0x3e2afa79	0.1669711
38	0xbe4dc46c	-0.2009446
39	0xbd2ce426	-0.042209767
40	0xbe7f1b6a	-0.24912801
41	0x3cc17d56	0.023619335
42	0xbe4a1d43	-0.19737725
43	0xbdb8536f	-0.09000289
44	0xbdedc96a	-0.11610682
45	0x3de6d1b2	0.11270465
46	0xbe935dee	-0.287826
47	0xbca858a4	-0.02055008
48	0xbe603e07	-0.21898662
49	0xbe654b72	-0.22392061
50	0x3e231e61	0.15929557
51	0xbe964a1f	-0.29353425
52	0x3de79d74	0.11309329
53	0x3dd21a69	0.102589436
54	0x3de286a7	0.11060839
55	0xbdbdf59d	-0.09275363
56	0xbdbf4a93	-0.09340396
57	0x3e75d727	0.24007855
58	0xbe1ba10d	-0.15198155
59	0xbd393599	-0.04521713
60	0xbe133c83	-0.14378552
61	0x3e91f443	0.2850667
