mid_best0.pth (torch, 9003 bytes, 3 tensors)

bias f4 [62]
0	0xbc23ac9e	-0.009989886
1	0x3d07a915	0.033120234
2	0x3cd5482b	0.026035389
3	0xbd0edeaf	-0.034880336
4	0x3d0ee4f8	0.03488633
5	0xbd001cab	-0.03127734
6	0x3cf71002	0.030159
7	0xbd186c87	-0.037212875
8	0x3cf06dc8	0.029349223
9	0xbcbad1fd	-0.022805208
10	0x3c93fb5e	0.018064197
11	0xbcf6f5fe	-0.030146595
12	0x3cedbd99	0.029021071
13	0x3d0ec3ac	0.034854576
14	0xbd0dcfb2	-0.0346219
15	0x3cfaa427	0.030595852
16	0xbd0cb741	-0.034354452
17	0xbceb5e9b	-0.028731635
18	0x3d0ff213	0.03514297
19	0x3d02b407	0.03190997
20	0x3cdf2bcf	0.02724257
21	0xbce60f38	-0.028083429
22	0x3cfe91ca	0.031075377
23	0xbcf18de6	-0.029486608
24	0x3d102e72	0.035200544
25	0x3cb2b7a9	0.021816092
26	0x3ca69d56	0.020338695
27	0xbd006f34	-0.03135605
28	0x3d062d29	0.03275791
29	0x3d0d4679	0.034491036
30	0xbd04a74c	-0.03238611
31	0x3cdd6356	0.027024906
32	0xbd0a163b	-0.033712607
33	0xbce97830	-0.028499693
34	0x3d07e09c	0.03317319
35	0xbd0439af	-0.032281574
36	0xbd083ca8	-0.03326097
37	0x3d0088a0	0.031380296
38	0x3d10dbe6	0.03536596
39	0xbce4b5c4	-0.027918704
40	0xbd0e84d2	-0.034794636
41	0x3d0b3816	0.033989035
42	0xbd0f654c	-0.035008714
43	0x3d085563	0.033284556
44	0xbd0b3883	-0.03398944
45	0xbc92de5a	-0.017928291
46	0x3d029f82	0.0318904
47	0xbcfce806	-0.030872356
48	0xbce85136	-0.028359037
49	0xbd05abcf	-0.032634553
50	0x3d065db2	0.0328042
51	0x3d01f076	0.031723462
52	0xbd0a2959	-0.03373084
53	0x3cececfb	0.028921595
54	0x3d075f25	0.03304972
55	0xbd066b6a	-0.03281728
56	0x3d0d3949	0.03447846
57	0x3cf9031a	0.030396987
58	0xbcfec0a4	-0.031097718
59	0x3cfd57dd	0.030925686
60	0xbbab9cf8	-0.005237218
61	0xb98d9d19	-0.00027010663

weight f4 [62, 14]
0	0xbc531c09	-0.012885102
1	0x3a6954ea	0.0008900898
2	0xbd1b0866	-0.037849806
3	0x3c62cd28	0.013842858
4	0xbd133ac8	-0.03594473
5	0x3ca23b91	0.019803794
6	0x3be41aa3	0.006961183
7	0xbc8f88d5	-0.017521301
8	0xbdce63eb	-0.100776516
9	0x3cb9d091	0.02268246
10	0xbd4e6428	-0.050388485
11	0xbd43d6c2	-0.04781223
12	0xbc52f74b	-0.012876342
13	0xbc9129ea	-0.017720181
14	0x3e455fa6	0.19274768
15	0x3e532d42	0.20622733
16	0x3e26f87c	0.16305727
17	0xbe42e22e	-0.19031593
18	0x3ebd3aae	0.36958832
19	0x3dd5e11f	0.10443329
20	0xbcd4c12c	-0.025971018
21	0x3d32e902	0.043679245
22	0x3e2a3508	0.16621792
23	0x3e74e52a	0.23915544
24	0x3e404f52	0.18780258
25	0x3e03c5a6	0.12868366
26	0xbca7afe9	-0.020469623
27	0xbe3a49dd	-0.18192239
28	0xbd0df8d3	-0.034661125
29	0x3e28eef1	0.16497399
30	0xbd947363	-0.07248571
31	0xbc824626	-0.01590259
32	0xbda78013	-0.08178725
33	0xbd99712f	-0.07492291
34	0xbd5b8a66	-0.053598784
35	0xbe622ae3	-0.22086672
36	0x3e4be831	0.19912793
37	0xbe3c7e59	-0.18407573
38	0xba7b96e8	-0.0009597377
39	0x3b4f5e1f	0.0031641794
40	0xbe07aa99	-0.13248672
41	0x3de4290e	0.11140643
42	0xbe4f6ebd	-0.20257087
43	0x3d4a4b43	0.04938818
44	0x3e358415	0.17726167
45	0x3e8064f4	0.2507702
46	0xbe34b317	-0.17646442
47	0x3e933f91	0.28759435
48	0x3e75fd4a	0.24022403
49	0x3e0415a8	0.12898886
50	0xbd976e41	-0.07394076
51	0xbdd9795f	-0.10618853
52	0xbc46708f	-0.012111797
53	0x3d9be37f	0.07611751
54	0xbe9f42cf	-0.31105658
55	0x3e6e7099	0.2328514
56	0x3e1f0966	0.15530929
57	0xbe24866d	-0.16066904
58	0x3d3cf56a	0.046132483
59	0x3dbaf470	0.09128654
60	0x3ea7661b	0.32695088
61	0x3e0493ce	0.12947008
62	0xbcd24b36	-0.025670629
63	0xbe98a9d7	-0.29817078
64	0x3c7ea630	0.015542552
65	0x3e6b4830	0.22976756
66	0xbd98a9b3	-0.074542426
67	0x3e04408d	0.12915249
68	0x3e0a7539	0.1352128
69	0xbda9fbce	-0.08299981
70	0xbdcc2c74	-0.09969416
71	0x3d4c2769	0.049842272
72	0xbe1490b0	-0.14508319
73	0x3e39cf7d	0.18145557
74	0xbca7929c	-0.020455651
75	0x3e68331a	0.22675744
76	0x3e7ae21d	0.24500318
77	0x3d5cc625	0.053899903
78	0xbe4b7943	-0.19870476
79	0xbc8ba828	-0.017047957
80	0xbdf17179	-0.11789221
81	0x3d950a21	0.072773226
82	0x3e0ed86e	0.13949749
83	0xbdd728be	-0.10505818
84	0x3df05cbe	0.11736439
85	0x3e7b182a	0.24520937
86	0xbe6ad01a	-0.22930947
87	0xbdb1d12f	-0.08682477
88	0x3ef5640f	0.479279
89	0x3dd1b512	0.102396145
90	0x3d110eaf	0.035414394
91	0xbe3b79ea	-0.18308225
92	0xbc39c4ca	-0.011338422
93	0xbe575e7f	-0.21032141
94	0xbe44afc4	-0.19207674
95	0xbe62c1f7	-0.22144304
96	0x3e99b2f3	0.3001934
97	0x3e1e888b	0.15481775
98	0xbaeca9dd	-0.0018055994
99	0xbd8f5aa9	-0.06999714
100	0x3e4a0cc0	0.19731426
101	0xbc56e7eb	-0.013116817
102	0x3bd4b354	0.006491104
103	0x3d9c20c1	0.07623435
104	0xbd696708	-0.056983024
105	0x3a81c3d1	0.0009900277
106	0xbd83a597	-0.06428068
107	0xbe881e2c	-0.2658552
108	0x3cd05695	0.02543191
109	0xbdbd6205	-0.09247211
110	0x3cc9cd4e	0.02463403
111	0x3e2509bc	0.16116995
112	0x3d347215	0.04405411
113	0x3ddf4b2e	0.10903011
114	0x3cd5defe	0.026107308
115	0x3dc33932	0.095323935
116	0xbca3414a	-0.019928593
117	0xbdb5d68e	-0.08878814
118	0xbd79c23c	-0.060976252
119	0x3e2a5f67	0.16637956
120	0xbe655c01	-0.22398378
121	0xbdf117bf	-0.11772107
122	0x3d725258	0.05916056
123	0x3e697e85	0.2280217
124	0x3e4f28d0	0.20230412
125	0xbe6bd7f7	-0.23031603
126	0xbe9985ec	-0.29984987
127	0x3d7bf2fa	0.061511017
128	0x3db5b2ec	0.08872017
129	0xb9d53664	-0.0004066705
130	0xbecbb9b1	-0.3979011
131	0x3e3ae5f3	0.18251781
132	0x3d053d72	0.032529302
133	0xbdcbe18f	-0.09955131
134	0xbe3b33ce	-0.1828148
135	0xbe137a05	-0.14402016
136	0xbda27722	-0.07932879
137	0x3d9dd41e	0.07706474
138	0x3cc1cfce	0.02365866
139	0xbc4a61af	-0.012352391
140	0x3d214946	0.03937652
141	0xbd7c618d	-0.06161647
142	0x3dee9a0c	0.11650476
143	0x3dba5819	0.090988345
144	0x3ebd6e72	0.36998326
145	0x3d1b0107	0.037842777
146	0xbd16c8ac	-0.03681247
147	0xbd56efe8	-0.052474886
148	0x3db8d0d4	0.09024206
149	0xbe414bb7	-0.18876539
150	0x3d3e7271	0.04649586
151	0xbe1d2422	-0.15345815
152	0xbe00c64d	-0.12575646
153	0xbd122334	-0.035678104
154	0xbe42803c	-0.1899423
155	0xbe13c6ac	-0.14431256
156	0x3d94514e	0.0724207
157	0x3d73f491	0.05955941
158	0xbe469793	-0.19393758
159	0xbd6d70e5	-0.057968993
160	0xbe146869	-0.14492954
161	0x3d99ff66	0.075194165
162	0xbdf78b3b	-0.12087103
163	0xbdf15ec9	-0.11785657
164	0x3e00613b	0.1253709
165	0x3cbeb30c	0.023278736
166	0x3d0c964a	0.034323014
167	0xbcace600	-0.021105766
168	0xbdf41e49	-0.11919839
169	0x3d929313	0.071569584
170	0xbe318a8d	-0.17338009
171	0x3b8a5569	0.0042216075
172	0xbd663d39	-0.05621073
173	0x3df8f9b0	0.12156999
174	0xbe087769	-0.13326801
175	0x3e2e01ed	0.16992922
176	0x3e3c8c3f	0.18412875
177	0x3e686b0c	0.22697085
178	0x3e37b4b8	0.17940032
179	0x3d9f537e	0.07779597
180	0x3d4f0147	0.050538328
181	0xbcdabca2	-0.026701275
182	0x3be79b4d	0.007068074
183	0xbe1411d4	-0.14459926
184	0x3e3f43ad	0.1867816
185	0xbd213653	-0.03935845
186	0x3eb14e8e	0.34630245
187	0xbd9e4408	-0.0772782
188	0x3cff6a85	0.031178722
189	0xbe73ea2a	-0.23819795
190	0xbe408560	-0.18800879
191	0x3e72b0a3	0.23700194
192	0x3e158975	0.14603217
193	0x3e12800a	0.14306656
194	0xbe29110a	-0.16510406
195	0xbccab4d7	-0.024744434
196	0xbebbb48b	-0.3666118
197	0xbd9ec785	-0.07752899
198	0x3caf2ee7	0.02138467
199	0xbdecc0f6	-0.11560242
200	0xbefe9748	-0.49724793
201	0x3db6c4e7	0.08924275
202	0x3e7ce8b1	0.2469814
203	0x3ea38e13	0.31944332
204	0xbe3937b5	-0.18087657
205	0xbda5a163	-0.08087423
206	0xbe8b6829	-0.27227905
207	0xbe6694af	-0.22517656
208	0xbe18e308	-0.14930356
209	0x3e971562	0.295085
210	0x3d09b503	0.03361989
211	0x3d7a9e80	0.061186314
212	0x3e580ddb	0.21099035
213	0xbb9ee332	-0.004848861
214	0x3ede8d41	0.43467143
215	0x3dcc5c40	0.09978533
216	0x3e4b4953	0.1985219
217	0xbca0ec84	-0.01964403
218	0xbe5598ab	-0.2085902
219	0xbe509b2b	-0.20371692
220	0xbdb9ff1a	-0.0908186
221	0x3e715930	0.23569179
222	0x3e5e3b9d	0.21702428
223	0x3d1a35ae	0.03764885
224	0xbea4029d	-0.32033244
225	0xbe627dcd	-0.22118302
226	0x3e7cb1d3	0.2467721
227	0x3d019032	0.031631656
228	0xbf01079d	-0.5040224
229	0x3d5e8f44	0.054335847
230	0xbcc6aeaa	-0.024253208
231	0x3d9ee8e3	0.07759263
232	0x3dc5b0d2	0.096528664
233	0x3d94b26f	0.07260596
234	0xbe81bce3	-0.25339422
235	0xbca626a8	-0.020282105
236	0xbe5166ea	-0.20449415
237	0x3e5fceeb	0.21856277
238	0x3c3b236d	0.01142202
239	0x3d8441c7	0.064578585
240	0x3e853e74	0.2602421
241	0x3e28c6f7	0.16482149
242	0xbf0613ab	-0.5237376
243	0x3e163972	0.14670351
244	0xbdc97bff	-0.098381035
245	0x3dd866a4	0.10566452
246	0xbc8ed1a9	-0.017433958
247	0x3e6fc48c	0.2341482
248	0xbe64cb9b	-0.22343294
249	0xbe81e77e	-0.25371927
250	0xbe052e98	-0.13006055
251	0x3db2eb85	0.08736328
252	0x3e9be8dd	0.30451098
253	0x3e4d36a9	0.20040382
254	0x3e16cb35	0.14725955
255	0x3c3c16a7	0.01148001

weight f4 [1, 62]
0	0xbcae7a60	-0.021298587
1	0x3ea31775	0.31853834
2	0x3cfcf4d7	0.030878467
3	0xbe94355c	-0.2894696
4	0x3e937ee6	0.28807753
5	0xbe5a9954	-0.21347553
6	0x3e835a8d	0.25655022
7	0xbd25d31e	-0.04048454
8	0x3d3901eb	0.045167845
9	0xbe555d93	-0.20836477
10	0x3dc397f1	0.09550465
11	0xbe40ef2c	-0.18841237
12	0x3d38057c	0.044927105
13	0x3e560f5d	0.20904298
14	0xbed2c284	-0.4116403
15	0x3ec26811	0.3797002
16	0xbed15550	-0.408854
17	0xbea52655	-0.32255808
18	0x3e4c5668	0.19954836
19	0x3e70faf2	0.23533228
20	0x3dd7e0ff	0.105409615
21	0xbed8f1de	-0.4237203
22	0x3ceef3c2	0.029168967
23	0xbe2a0aad	-0.16605635
24	0x3e5156f6	0.20443329
25	0x3e146a34	0.14493638
26	0x3e362442	0.17787269
27	0xbe180ad2	-0.14847878
28	0x3eae7913	0.34076747
29	0x3ef813ff	0.48452756
30	0xbe7e5b6a	-0.24839559
31	0x3d972531	0.073801406
32	0xbe9bcf10	-0.30431414
33	0xbe79ca8a	-0.24393669
34	0x3eac4a39	0.33650377
35	0xbed7ea73	-0.42171058
36	0xbe032c65	-0.12809904
37	0x3da1c9be	0.078998074
38	0x3e3ce033	0.184449
39	0xbdc3a77f	-0.09553432
40	0xbe22632a	-0.1585814
41	0x3e20e340	0.15711689
42	0xbec0509f	-0.3756151
43	0x3df8dec1	0.12151862
44	0xbeb1c88e	-0.34723324
45	0xbd5f3f31	-0.054503623
46	0x3eb94dbf	0.36192128
47	0xbe72bf99	-0.23705901
48	0xbea9ba7b	-0.33150086
49	0xbe82c964	-0.25544274
50	0x3e994268	0.29933476
51	0x3e9c2912	0.30500084
52	0xbe79bd90	-0.24388719
53	0x3ea3ff54	0.32030737
54	0x3e8977a4	0.2684909
55	0xbe992fd2	-0.29919297
56	0x3e56217e	0.20911214
57	0x3d871f73	0.06597795
58	0xbe51e388	-0.20496953
59	0x3e259c09	0.16172804
60	0x3dee0af2	0.116231814
61	0x3b177be2	0.0023114611
