mid_best39.pth (torch, 71473 bytes, 3 tensors)

bias f4 [62]
000000 d4 36 fd bc 46 0f 6c 3d c0 e9 60 bc 75 b1 c8 3c
       -0.030909933 0.057631753 -0.013727605 0.02449868
000010 86 74 92 3c 2a ed 54 bc d7 2e 87 bc cb b3 0f 3c
       0.017877828 -0.012995997 -0.016501827 0.008770893
000020 0d 8c 6a 3c 35 c7 49 bc 4a 4d 62 3c 0b 8f 2d bc
       0.014315617 -0.012315561 0.013812372 -0.010593186
000030 54 6f 38 bc 7a 8e 81 bc b2 34 38 bc 53 61 43 3c
       -0.011257011 -0.015815008 -0.011243032 0.011925059
000040 6e 6e d9 bc 35 56 6a bc 30 c9 82 3c 28 84 9e bc
       -0.026541915 -0.01430278 0.015965074 -0.019350126
000050 75 91 87 3c 6b ce c2 bd 3d 4b 19 bc e7 93 27 3d
       0.016548852 -0.09512027 -0.009356317 0.040912535
000060 8c 56 4e bc 41 a9 26 3c 32 e7 6e bc 61 9b 03 bc
       -0.012593877 0.010172189 -0.014581488 -0.008032651
000070 4d 27 5e bc ac d5 02 3d a2 a1 c1 3d 3c d0 55 bc
       -0.013559175 0.031942055 0.09454657 -0.013050135
000080 a0 f3 a7 3c 6a 45 3d bc e4 08 65 bc 2e e2 13 bd
       0.020501912 -0.011552194 -0.0139791705 -0.036104374
000090 bf c0 89 3c 75 f2 99 3c e8 01 28 bc 90 21 3a bc
       0.016815541 0.01879237 -0.010254361 -0.011360541
0000a0 41 0a 28 3d 1e e5 83 bc 1b cc 62 bc 00 20 57 3c
       0.041025404 -0.016100463 -0.013842608 0.013130188
0000b0 7b f3 47 3c 79 5c 98 bc a8 23 2f 3c 48 1a 4b 3c
       0.012204046 -0.018598782 0.010689653 0.012396403
0000c0 5f 39 9c 3c c1 9a 28 3c b9 8a 44 3c 41 b2 28 3c
       0.019070325 0.010290802 0.011995965 0.010296405
0000d0 61 2f 52 bc 25 cb 52 bc 98 8e 6a 3c 7e 8a 49 bd
       -0.012828679 -0.012865816 0.014316224 -0.049204342
0000e0 60 97 40 bd 92 1e 90 bc a8 1b a8 3c c7 df 1f 3d
       -0.047019362 -0.017592702 0.020521 0.03903177
0000f0 a9 0a 46 3c 55 10 07 bc
       0.0120875025 -0.00824364

weight f4 [62, 266]
000000 ea 7d ad bc 82 05 2b bd c8 ae 5c bd a3 62 6a 3d
       -0.021178205 -0.0417533 -0.053877622 0.057222974
000010 82 3b e1 3c 41 48 d0 bd e9 cd f3 bc e6 99 3b bd
       0.027494196 -0.10170031 -0.029761272 -0.045801066
000020 82 aa 4e bd 43 5a 7c bd 66 43 a1 bb 94 37 f9 bc
       -0.050455578 -0.061609518 -0.0049213646 -0.03042201
000030 a2 c5 b0 3d 93 44 3e bc 89 16 a2 3d 58 e9 cd 3c
       0.086314455 -0.011613029 0.079144545 0.025135681
000040 d9 05 dc 3b fd 73 81 3d d5 d6 11 3d 78 11 89 3c
       0.0067145643 0.06320951 0.03560527 0.016731963
000050 9e 84 73 ba a1 9e b9 3d 4c 3b d9 3a 12 6b 90 3c
       -0.0009289476 0.09063459 0.0016573458 0.01762918
000060 5e e4 62 bd d3 2f 06 bd 4a 08 02 bd 35 76 b9 bb
       -0.05539357 -0.032760452 -0.031746186 -0.0056598433
000070 ac d2 83 37 9d e6 59 3d 60 9a f3 3c 45 b3 1a bd
       1.5714519e-05 0.053198446 0.029736698 -0.03776862
000080 c6 5b 55 3d f3 42 15 3d 14 00 cf bb 41 4b 80 3d
       0.052089475 0.0364408 -0.006317148 0.062643535
000090 4c a1 a9 3c df d3 19 bd a4 b8 8f 3d e5 df da 3c
       0.020706795 -0.03755557 0.07017639 0.02671809
0000a0 5b dc 52 bc d4 d5 2f 3d 40 8a 65 bd e8 c2 d1 bc
       -0.01286992 0.04292853 -0.05604005 -0.025605634
0000b0 21 9b 4a 3d 66 72 46 bc 7b 6d e3 bc f3 dc 9e bc
       0.04946435 -0.012112236 -0.027762165 -0.019392466
0000c0 cb a8 63 bc 8b 51 88 bd be bf 5b bd ba a1 ab bc
       -0.013895224 -0.06656178 -0.053649656 -0.02095114
0000d0 2f 78 f9 3b 14 30 0a bd ff 54 e7 3b 80 55 cc 3c
       0.007613204 -0.033737257 0.007059693 0.024943113
0000e0 2d f5 20 bb 5b 61 86 bc e2 58 9c 3c 0b 77 5b 3c
       -0.0024560199 -0.016403845 0.019085351 0.013395081
0000f0 f6 70 8d 3d c3 bc 87 3c 75 76 8a bd 1e fc 4c 3d
       0.06906311 0.0165695 -0.06760875 0.050045125
000100 4f 37 c0 3c 4f 48 e4 3d 34 c8 2e bd 9f d4 6f bc
       0.023463873 0.11146604 -0.042671397 -0.014638095
000110 dc 7d df 3c cf 2e 0a 3e fa 83 59 3d 4d 38 9a bd
       0.027281694 0.13494419 0.05310438 -0.0753027
000120 25 ec b1 3d ab 50 c2 bc 99 d6 61 bc 05 e7 ed bc
       0.08687619 -0.023720106 -0.013784074 -0.029040823
000130 6c 86 b2 bc 92 f8 a4 3c 28 3c 05 bc 2b c8 72 bb
       -0.021792613 0.020138059 -0.008132018 -0.003704558
000140 23 6f e2 bc 4b 26 01 bc 66 81 3b bd 2f 62 8a 3d
       -0.027640885 -0.007882665 -0.0457777 0.06757008
000150 79 9c 5b 3d 9a fb be bd 21 b0 20 3d f8 ab ba 3b
       0.05361602 -0.09325333 0.03923047 0.00569677
000160 9e c3 1d 3c bc 4d aa 3b 80 09 9d 3d f7 58 43 3c
       0.009629158 0.005197255 0.076678276 0.011923066
000170 5f 55 76 bd 89 ad 49 bd a0 0f 1a 3d 8e e2 60 3c
       -0.06014001 -0.04923776 0.037612557 0.01372589
000180 88 d0 9c bc e2 b2 c2 bc e9 78 79 ba a0 bf b1 bc
       -0.019142404 -0.023766939 -0.0009516613 -0.02169782
000190 b7 d3 67 bd 1a 18 ce 3d 52 83 a9 3c 76 be c4 3d
       -0.05659839 0.10063191 0.020692501 0.0960664
0001a0 5d 5d 82 3d 7f b6 9a 3c 67 5b f9 3b 19 76 2f 3d
       0.06365464 0.018885849 0.007609773 0.042837236
0001b0 47 d7 61 3d f4 67 c4 bc c3 9e 24 bd d2 61 40 bd
       0.055136945 -0.02397535 -0.04019047 -0.04696829
0001c0 74 1f 8c 3a 73 6e 85 bc e9 a8 3a 3c 2d 6f f1 3c
       0.0010690526 -0.016288018 0.01139281 0.029471958
0001d0 2b b8 60 bd 7d f6 53 3c 85 13 b5 bc 31 3b 07 bd
       -0.054863136 0.012937185 -0.022104034 -0.033015434
0001e0 9e 28 b2 bc 45 ca 1b bd a8 39 62 bb 97 25 ef 3b
       -0.021747883 -0.038034696 -0.003451923 0.007298182
0001f0 9f 76 64 bd 11 0a ac 3c f1 f6 66 3d 5d 5f 2f 3d
       -0.05577719 0.021000894 0.056387845 0.042815555
000200 d1 89 33 3d da c2 13 3b 57 4a 69 3d 9e 5c 18 bd
       0.043832604 0.002254656 0.05695566 -0.0371977
000210 8a f7 5d bd 68 b9 a4 bc 5d bd 84 bc 5d e2 c7 3b
       -0.05419115 -0.02010794 -0.016203577 0.0060999827
000220 ac 9f 73 3d 7c 32 26 bc d0 2b 38 3b 7e e6 8f bc
       0.059478447 -0.010143872 0.0028102286 -0.017565962
000230 19 8f 55 3c a9 c4 55 bd 35 76 d8 bb c3 3c 27 bc
       0.013034605 -0.052189503 -0.0066058883 -0.010207358
000240 27 9d f5 bc e3 fd d9 bd da 26 07 3d d4 82 21 bd
       -0.029982163 -0.10644128 0.032996036 -0.039431408
000250 2c 50 4c 3c 5a b2 64 bd 1e 58 23 bc 1f 22 b9 3d
       0.012470286 -0.05583415 -0.009969739 0.09039711
000260 78 9f 94 bc 40 ee 87 bd 7c a5 50 bd 87 7c 45 3d
       -0.018142447 -0.066372395 -0.05093907 0.04821446
000270 e7 71 9b bd cd 46 a5 bd ed 26 88 3d d8 0c 25 3d
       -0.075900845 -0.08070145 0.066480495 0.040295452
000280 58 ab b3 bc 1d a5 3e 3b 16 cc 86 bb 77 64 ac 3c
       -0.021932289 0.0029090114 -0.0041136844 0.021044
000290 c6 26 81 bd 77 08 5a 3d 38 37 2f bd a9 5b ee b7
       -0.063062236 0.05323073 -0.04277727 -2.8414493e-05
0002a0 39 ee e5 3c 46 ab e3 bc 2f 0f 83 bd c3 c0 14 ba
       0.028067695 -0.02779163 -0.063993804 -0.00056744757
0002b0 20 16 03 3c 5e e3 13 3d ce 80 8e bc 49 e3 d5 bd
       0.0080008805 0.036105506 -0.017395403 -0.10443742
0002c0 48 e6 1c 3c 02 3c a8 3d cf ac 92 bd d7 cb a1 bd
       0.009576388 0.082145706 -0.07161867 -0.079002075
0002d0 c0 1c 07 bd 6a 52 8b 3a f4 c3 bf 3c 37 1b 3b 3c
       -0.032986403 0.001062942 0.023408867 0.011420063
0002e0 50 6f c4 bc 59 8a 02 bd b4 e7 50 bd ad 29 73 3b
       -0.02397886 -0.03187022 -0.05100222 0.0037103698
0002f0 6e 7f 2f bd 42 90 84 3d 53 ef db bc 08 4a 03 bd
       -0.042846136 0.064728275 -0.026847517 -0.032053024
000300 73 e6 14 3d d4 02 57 3c df d9 18 bb d2 59 b6 ba
       0.036352586 0.013123233 -0.002332322 -0.0013912267
000310 ec 79 8e 3d 81 ec d1 bd f6 f6 3d bc e0 0e 06 bc
       0.069568485 -0.10250188 -0.011594525 -0.008182257
000320 a1 d7 64 3c 25 a6 17 3e 17 e3 27 3d 0c 95 1a bb
       0.013967426 0.14809473 0.040988054 -0.0023587374
000330 5a 2d ae bd 0e 79 6d 3d 87 7c 12 3d bc 0a 38 bc
       -0.08504744 0.057976775 0.03576329 -0.011233028
000340 03 1a 04 bc bd 52 74 bd fc c2 d0 3d 60 0a d9 bc
       -0.008062842 -0.059649218 0.1019344 -0.026494205
000350 e3 bd c5 3d d2 e3 a0 3b 52 66 60 3c be ae aa 3d
       0.09655359 0.004909971 0.01369627 0.08334111
000360 94 bd 59 bd d0 e8 b7 3c 5a a8 3d bd 70 12 82 bd
       -0.05315931 0.02244988 -0.04630313 -0.06351173
000370 64 5f 2e 3d c9 89 a0 bd 7b b6 09 bd 1d b5 6a bd
       0.04257144 -0.078387804 -0.033621293 -0.05730163
000380 9b 6c 99 bb 8d 82 10 bd fd 7a 1a 3d 1f 29 b0 3b
       -0.0046821362 -0.035280753 0.037714947 0.0053759958
000390 6e 86 aa 3d b1 86 49 bd 70 d6 08 3d ec fb 3a 3d
       0.08326422 -0.049200717 0.03340763 0.045650408
0003a0 19 34 ae 3c bc 19 43 bd a2 87 9a 3d 17 47 04 3d
       0.021265076 -0.047631964 0.07545401 0.03229436
0003b0 76 96 86 3d c2 a4 29 3d b3 d4 f0 bb 06 e7 93 3b
       0.06571667 0.04141689 -0.0073495745 0.004513624
0003c0 2f 07 86 bc 0a 4b ba 3d 17 b6 8c 3c 23 7f 77 3d
       -0.016360847 0.09096344 0.017176671 0.06042398
0003d0 05 02 35 bc 71 46 4d bd 98 bc 48 bd 72 3e 4f 3d
       -0.011047845 -0.050116006 -0.049007982 0.050596662
0003e0 01 18 40 3d 2b 8e 91 3c ae 3f 0d 3d ad 45 95 bc
       0.046897892 0.017767986 0.034484558 -0.0182217
0003f0 eb 3c 04 bc 7b b7 45 bd 91 d4 09 bd 64 66 45 bd
       -0.008071165 -0.048270684 -0.033649985 -0.04819335

weight f4 [1, 62]
000000 c0 d3 48 bc 52 ac dd 3c 88 19 ab 3d 72 b9 a7 b9
       -0.012257516 0.027059708 0.08354479 -0.0003199089
000010 c1 99 32 bd f5 4d b2 3d 8d 36 63 3d c3 0f 80 be
       -0.043603662 0.087062754 0.055471946 -0.25012025
000020 3a c7 90 bd 5e 72 c2 3d c6 70 58 bd 39 cf 22 3e
       -0.070692495 0.0949447 -0.052841924 0.15899362
000030 e2 93 3c 3e f7 2f 9f 3d e4 0e 26 3e 50 db 06 be
       0.18415788 0.077728204 0.16216618 -0.13169599
000040 a7 80 4b bc ad 5d b4 3d 99 2b 63 bd ab 83 91 3c
       -0.01242081 0.0880693 -0.0554615 0.01776298
000050 89 41 c6 bc 5e 97 e8 3b ca b8 5f 3e be 21 8f 3c
       -0.024201171 0.0070981225 0.21847835 0.017472144
000060 86 8c 03 3e 39 f8 21 be de 27 d8 3d 7e 11 5b 3e
       0.12846574 -0.15817346 0.10554479 0.21393391
000070 ab 90 93 3d 05 21 9b 3c 3b 43 7e bb be af da 3d
       0.072053276 0.018936643 -0.0038797397 0.106780514
000080 e7 ac 1f 3c 55 63 21 3e 25 6b 9d 3d 5d 9a a3 bc
       0.009745813 0.15760548 0.07686452 -0.019971067
000090 88 ca 24 bd 8d 4b dc bc d0 bf 3d 3e ab a9 33 3e
       -0.04023221 -0.026891494 0.18530202 0.17545192
0000a0 0e 17 f3 3c b8 f3 24 3d bb 0a d3 3d 9d ef c8 bd
       0.02967408 0.04027149 0.10304781 -0.098113276
0000b0 51 71 3b be cc a0 29 3d 1e 20 15 be f0 af 1b be
       -0.18304946 0.041413113 -0.14563033 -0.15203834
0000c0 a0 50 13 bc 48 a1 53 be 5d 0a 1f be be d4 5d be
       -0.0089913905 -0.20666993 -0.15531297 -0.21663186
0000d0 69 7b e1 3d 0d 04 c0 3d 33 c6 b4 bd 2a 35 1a bd
       0.11009867 0.093757726 -0.08826866 -0.037648357
0000e0 2e 6d 0b bd ef 3b 03 3d b6 8b 66 3c fa d2 dc 3b
       -0.03403967 0.03203958 0.014071396 0.0067390176
0000f0 fc 8a f2 bd 82 5e 51 3e
       -0.118429154 0.20446208
